models/cifar_10_ann_model_mon_gan/model/model.pth (torch, 668502 bytes, 22 tensors)

conv_net.0.weight f4 [40, 3, 5, 5]
0	0xbdb3f217	-0.08786409
1	0xbe3fcfd4	-0.18731624
2	0xbda6a4b7	-0.081368856
3	0xbe01c3b0	-0.12672305
4	0xbd5c2c60	-0.053753257
5	0xbdca2946	-0.098711535
6	0xbd7d5209	-0.061845813
7	0xbdcec999	-0.100970455
8	0xbd34398a	-0.044000186
9	0xbe199759	-0.14999141
10	0x3da0f912	0.078600064
11	0xbc889e67	-0.016677095
12	0xbcdc07fa	-0.026859272
13	0x3d91ee98	0.07125586
14	0x3dda6440	0.106636524
15	0x3df0477a	0.11732383
16	0x3df126d8	0.11774987
17	0x3d8015cd	0.06254158
18	0x3ccfbccb	0.025358578
19	0x3d396488	0.04526189
20	0x3de2bb64	0.11070898
21	0x3debf570	0.11521423
22	0x3d782c3b	0.060589056
23	0x3e38bc54	0.18040591
24	0xbbe6ec9f	-0.0070472504
25	0xbdaa915a	-0.08328505
26	0xbcbf7b4b	-0.02337422
27	0xbda96196	-0.08270566
28	0xbd3613b3	-0.04445238
29	0xbcfceb01	-0.030873777
30	0x3c9dd773	0.019267773
31	0xbd708cd7	-0.058728065
32	0x3d0bc362	0.03412188
33	0xbdb1c3a6	-0.08679895
34	0x3d921c1e	0.07134269
35	0x3de74acf	0.112935655
36	0xbd1adb20	-0.03780663
37	0xbc0c9e25	-0.0085826265
38	0x3d05f173	0.032700967
39	0x3c7f35ea	0.015576819
40	0xba7212a5	-0.00092343456
41	0xbd9cba38	-0.07652706
42	0x3db976dd	0.090558745
43	0x3d9f974b	0.07792529
44	0xbda7ce92	-0.08193697
45	0xbd4a2cbe	-0.049359076
46	0xbd535d1f	-0.05160248
47	0x3d86ba94	0.06578556
48	0xbc179b57	-0.0092533445
49	0x3dc54a9e	0.09633373
50	0xbce4b7c0	-0.02791965
51	0x3dbad887	0.091233306
52	0x3d5e9931	0.054345313
53	0x3d756281	0.059908394
54	0x3d92fef6	0.07177536
55	0x3dce3dba	0.10070367
56	0x3dbc3dbe	0.09191464
57	0x3d8259b5	0.063647665
58	0xbcf58eda	-0.029975343
59	0x3d9d033c	0.076666325
60	0xbdfe2366	-0.124090955
61	0xbcc13379	-0.023584114
62	0xbd275f85	-0.04086258
63	0x3c8529e9	0.016255336
64	0xbd421905	-0.04738714
65	0xb92ba108	-0.0001636782
66	0x3d55c501	0.05218983
67	0x3ced5892	0.028972898
68	0xbdfabbad	-0.122428276
69	0x3bd76e2d	0.0065744133
70	0x3a14f5c2	0.0005682373
71	0x3c0ff692	0.008786814
72	0xbd43197b	-0.047631722
73	0xbd6bcbc5	-0.057567377
74	0xbd2be1be	-0.04196333
75	0xbdc336bf	-0.09531926
76	0xbe0df3cd	-0.13862534
77	0xbd4aeca8	-0.0495421
78	0xbdde1333	-0.10843506
79	0xbe02f0e9	-0.12787212
80	0xbccb0565	-0.024782846
81	0xbdb883fe	-0.090095505
82	0x3d437459	0.04771838
83	0x3c36cab5	0.011156728
84	0xbd61323d	-0.05497955
85	0x3e0f79c3	0.14011292
86	0xbd888e99	-0.06667823
87	0x3d4116f4	0.04714103
88	0x3d72b1d2	0.059251614
89	0x3d2bfcfb	0.041989308
90	0x3d92c604	0.07166675
91	0x3d890946	0.06691222
92	0x3e1d6ff0	0.15374732
93	0x3e1925f0	0.14955878
94	0xbc9bf110	-0.019035846
95	0x3c9c00b4	0.019043304
96	0x3c1fb09a	0.009746695
97	0x3d73669b	0.059424024
98	0xbac70144	-0.0015182872
99	0x3d8dcdbe	0.06924008
100	0x3deaacc9	0.114587374
101	0x3dc8f98e	0.09813224
102	0x3d29a1cb	0.041414063
103	0xbb91215b	-0.004429025
104	0x3d9c83d0	0.07642329
105	0xbc444db6	-0.011981418
106	0x3e120e12	0.1426318
107	0xbd5704d9	-0.052494857
108	0x3d067555	0.03282674
109	0x3c9fd856	0.019512337
110	0xbdc0a94e	-0.09407292
111	0x3c33c9ab	0.010973374
112	0xbd883c1e	-0.066520914
113	0xbe03228d	-0.12806149
114	0xbdc28753	-0.09498467
115	0xbdb23649	-0.0870176
116	0x3cfde307	0.030992044
117	0xbb014060	-0.0019722208
118	0xbd89328c	-0.06699094
119	0xbd34fe9c	-0.044188127
120	0xbda4331b	-0.0801756
121	0xbd263cc9	-0.040585313
122	0xbd411541	-0.04713941
123	0xbcfb4ffc	-0.030677788
124	0xbbf83268	-0.0075743683
125	0xbc6a5c08	-0.0143041685
126	0x3cb3ec08	0.021963134
127	0x3d52af62	0.05143679
128	0x3d8057d2	0.062667504
129	0x3d094b96	0.03351935
130	0x3cf37c14	0.029722251
131	0xbd8ae87f	-0.06782626
132	0x3ab816b0	0.0014044847
133	0xbd3c8cac	-0.046032593
134	0x3d57de36	0.05270215
135	0xbd67c4c3	-0.05658413
136	0x3cd8732c	0.026422106
137	0x3d653281	0.055956367
138	0x3d5bd697	0.053671446
139	0x3d759be5	0.059963126
140	0x3ce3fdb8	0.027830943
141	0xbd93b240	-0.07211733
142	0xbe1024c7	-0.1407653
143	0xbd8934ef	-0.066995494
144	0x3da6fbd5	0.08153502
145	0x3dae2055	0.085022606
146	0xbc740504	-0.014893774
147	0x3cd73f85	0.026275406
148	0xbabdd5cd	-0.0014483273
149	0xbd6ef9b5	-0.058343608
150	0x3d6155cb	0.05501346
151	0x3d1e7ed8	0.038695186
152	0xbdc6a8bb	-0.097001515
153	0x3c900005	0.017578134
154	0xbd48ce54	-0.049024895
155	0x3db25e74	0.08709422
156	0xbd1830b3	-0.03715582
157	0x3dfb3d28	0.12267524
158	0xbd3e4143	-0.046448957
159	0x3baac1dc	0.005211098
160	0x3d94f8a3	0.07273986
161	0xbdb04c7f	-0.086083405
162	0xbd5b9f00	-0.05361843
163	0x3d03be4e	0.03216391
164	0xbdec6e8f	-0.11544525
165	0x3d1e7707	0.038687732
166	0xbcac9e33	-0.021071529
167	0x3cbd71da	0.023125578
168	0xbc8afb71	-0.0169656
169	0xbdcb9d3d	-0.099421
170	0xbe0bfab9	-0.13669862
171	0x3dc89eec	0.09795937
172	0xbd8ae3f2	-0.06781758
173	0xbd98d53b	-0.074625455
174	0xbd374e1c	-0.044752225
175	0xbda72d5f	-0.08162951
176	0xbd02bf0d	-0.03192048
177	0xbd8756cf	-0.06608354
178	0x3d03d214	0.032182768
179	0x3d42de49	0.04757527
180	0x3e1b14a6	0.15144596
181	0xbd768fbd	-0.060195673
182	0x3d5936f4	0.053030923
183	0xbd48620e	-0.048921637
184	0x3d63c9f6	0.055612527
185	0x3cd0561d	0.025431687
186	0x3d0a8ff5	0.033828694
187	0xbb5192e7	-0.003197843
188	0x3dc2200f	0.09478771
189	0xbcbd20a7	-0.023086859
190	0x3dcd01f5	0.10010139
191	0x3dfca6ab	0.12336477
192	0xbcae5cda	-0.02128451
193	0x3cf77035	0.030204872
194	0xbd895aa0	-0.067067385
195	0xbac374fd	-0.0014912185
196	0x3c96991e	0.018383559
197	0x3dffa21c	0.12482092
198	0x3e1c6db7	0.15276228
199	0xbd272dad	-0.040815044
200	0xbd068ccc	-0.032849118
201	0x3d9c2ccf	0.07625734
202	0x3d843ef9	0.064573236
203	0xbd8fe681	-0.07026387
204	0xbd382b27	-0.04496303
205	0xbd9d37d8	-0.07676667
206	0xbdfb625c	-0.1227462
207	0xbdcc7f56	-0.09985225
208	0xbd395b1e	-0.04525291
209	0x3d144fe7	0.036209013
210	0x3d9f3bfa	0.077751115
211	0x3cfd8282	0.03094602
212	0xbdb93829	-0.09043915
213	0xbded8e80	-0.11599445
214	0xbe0dea6c	-0.13858956
215	0x3d86e4ac	0.065865844
216	0x3d8f88cc	0.07008514
217	0xbd7d3265	-0.061815638
218	0xbd82f3dd	-0.063941695
219	0x3d063377	0.032763924
220	0x3dffdb58	0.124930084
221	0x3d646394	0.055759028
222	0x3d90c9a4	0.0706971
223	0x3d0db9e0	0.034601092
224	0xbddc0bb9	-0.107444234
225	0x3cf8bc8b	0.030363342
226	0xbcf33058	-0.029686138
227	0x3cfeaa36	0.031087022
228	0x3de59b34	0.11211243
229	0xbd3fd7da	-0.04683671
230	0xbd3b1e4c	-0.04568319
231	0xbd3bc8b2	-0.045845695
232	0xbd927522	-0.071512476
233	0x3ce16807	0.027515424
234	0xbdc1c6a6	-0.09461717
235	0xbdf36fc6	-0.118865535
236	0xbe02aade	-0.12760493
237	0x3d2482c4	0.04016377
238	0x3d42e749	0.047583852
239	0x3c5220b1	0.012825177
240	0x3e165f5b	0.14684813
241	0x3cb2e05b	0.021835497
242	0xbb9ddc7c	-0.0048175436
243	0x3bafb62e	0.0053622937
244	0xbcc5e96f	-0.024159161
245	0xbc863171	-0.016380997
246	0x3dabb748	0.083845675
247	0xbd23509d	-0.0398718
248	0xbd52a202	-0.051424034
249	0x3d953bbd	0.07286785
250	0x3d40c46a	0.047062315
251	0x3bd90a03	0.006623508
252	0x3d7bc158	0.061463684
253	0xbb105151	-0.0022021125
254	0x3d4f304b	0.050583165
255	0xbd799b80	-0.060939312

conv_net.0.bias f4 [40]
0	0xbddef56c	-0.10886654
1	0xbd05c636	-0.03265973
2	0x3d0b8033	0.034057807
3	0xbd8d5f53	-0.06902947
4	0xbae2126d	-0.0017247923
5	0x3c044ad1	0.008074478
6	0x3d88e1e7	0.066837125
7	0xbdbcb401	-0.092140205
8	0xbda2b6eb	-0.07945045
9	0x3d75d5f1	0.060018484
10	0x3d187205	0.037218112
11	0x3d6e49ba	0.05817578
12	0x3d7c15b8	0.06154415
13	0xbafcda43	-0.0019291121
14	0x3dd19ac3	0.102345966
15	0x3cf8431e	0.030305441
16	0xbd4c1497	-0.049824324
17	0x3d408ba5	0.047008175
18	0xbd506564	-0.050877944
19	0x3c2ee016	0.010673543
20	0x3d3fb4a9	0.04680315
21	0xbd927e9d	-0.07153056
22	0x3d123bae	0.035701446
23	0xbc376e9a	-0.011195803
24	0xbda41804	-0.08012393
25	0x3e1c2aa0	0.15250635
26	0x3dab8ee4	0.083768636
27	0xbc48c371	-0.012253628
28	0xbcdabee6	-0.026702356
29	0xbbc596b5	-0.0060299286
30	0xbd92a604	-0.07160571
31	0xbd48602e	-0.04891985
32	0xbe12d094	-0.14337379
33	0x3c1718bb	0.009222205
34	0xbd4fd741	-0.05074239
35	0xbcd78916	-0.026310485
36	0x3d05a650	0.03262931
37	0xbddac3a6	-0.10681848
38	0xbd8a6176	-0.067568704
39	0xbda8b5c5	-0.08237795

conv_net.1.weight f4 [40]
0	0x3f71dc5c	0.94476867
1	0x3f7cae0a	0.9870306
2	0x3f76ca0a	0.9640204
3	0x3f709af8	0.93986464
4	0x3f74d8d5	0.9564336
5	0x3f7c3a05	0.9852603
6	0x3f7a0895	0.97669345
7	0x3f7d56b0	0.989604
8	0x3f751b4a	0.95744765
9	0x3f79b6de	0.9754466
10	0x3f78430a	0.96977293
11	0x3f6dac9e	0.9284152
12	0x3f71bfd0	0.9443331
13	0x3f7ecc6d	0.9953068
14	0x3f71dfd1	0.9448214
15	0x3f8192f5	1.0122973
16	0x3f756366	0.95854795
17	0x3f6c5a39	0.9232517
18	0x3f7c2852	0.98499024
19	0x3f7e738c	0.9939506
20	0x3f658fb5	0.89672405
21	0x3f7d49ec	0.9894092
22	0x3f753de5	0.9579757
23	0x3f65bbf7	0.89739937
24	0x3f83503e	1.0258863
25	0x3f5ee7e8	0.8707261
26	0x3f824ad4	1.0179086
27	0x3f87fa3a	1.0623238
28	0x3f70b22e	0.9402188
29	0x3f75c015	0.9599622
30	0x3f7d50a0	0.9895115
31	0x3f85f8fa	1.0466607
32	0x3f62c777	0.8858561
33	0x3f7fff0c	0.99998546
34	0x3f7952dd	0.97392064
35	0x3f776b0a	0.96647704
36	0x3f73a07b	0.9516675
37	0x3f6bf771	0.9217444
38	0x3f76fa23	0.9647543
39	0x3f6b5be6	0.919371

conv_net.1.bias f4 [40]
0	0xbee9bee9	-0.45653465
1	0xbec517de	-0.38494772
2	0xbe850e8b	-0.25987658
3	0xbe4b1e6e	-0.19835827
4	0xbebfde65	-0.3747436
5	0xbe9a494e	-0.30134052
6	0xbe44e4e6	-0.19227943
7	0xbd935e5d	-0.07195733
8	0xbe446e70	-0.19182754
9	0xbee48dc6	-0.44639415
10	0xbed0b9d3	-0.40766773
11	0xbe83b318	-0.25722575
12	0xbea5b0f7	-0.32361576
13	0xbe9e9575	-0.30973402
14	0xbeb3d3eb	-0.35122618
15	0xbe8fbb96	-0.28072804
16	0xbe8e9d11	-0.27854207
17	0xbe9c9aea	-0.3058694
18	0xbeb5fe1e	-0.3554544
19	0xbe9ea09d	-0.30981913
20	0xbe85eab7	-0.26155636
21	0xbeaee23b	-0.34156975
22	0xbea8c482	-0.32962424
23	0xbeb98cab	-0.36240134
24	0xbeb04fc0	-0.34435844
25	0xbeacd63c	-0.33757198
26	0xbe349193	-0.17633657
27	0xbe7bcee1	-0.24590637
28	0xbe834aae	-0.25642914
29	0xbe235f88	-0.15954411
30	0xbec4b5fa	-0.38420087
31	0x3d58e93a	0.052956797
32	0xbeb4358d	-0.35197106
33	0xbea1704a	-0.31530982
34	0xbe9c8283	-0.30568323
35	0xbe425ba9	-0.18980278
36	0xbea279db	-0.31733593
37	0xbe99dd0f	-0.30051467
38	0xbeb2dcbd	-0.34934035
39	0xbe614277	-0.2199801

conv_net.1.running_mean f4 [40]
0	0xbdf36da0	-0.11886144
1	0xbca4f8bc	-0.020138137
2	0x3c7e106e	0.015506847
3	0xbd4d1e48	-0.050077707
4	0xbc3847e8	-0.011247613
5	0x3d3b5bc2	0.045741804
6	0x3d8ef8b7	0.06981032
7	0xbdc0dd33	-0.094171904
8	0xbdd25cd2	-0.1027161
9	0x3d7f5231	0.062334243
10	0x3d2075d8	0.039174885
11	0x3d420607	0.04736903
12	0x3d8728fe	0.065996155
13	0xbb7489b4	-0.0037313523
14	0x3dd2a1cc	0.102847666
15	0xbc5c2be5	-0.0134382
16	0xbd432ec4	-0.04765202
17	0x3d29fc97	0.041500654
18	0xbd33e44e	-0.0439189
19	0x3c271546	0.010197943
20	0x3d135f90	0.035979807
21	0xbd863e6f	-0.06554877
22	0x3d38fa88	0.0451608
23	0xbbb0b2ce	-0.005392409
24	0xbdb231c3	-0.087008975
25	0x3e1e1aec	0.15439957
26	0x3dae6d9b	0.08516999
27	0xbc4ec734	-0.012620736
28	0x3a1bd5e9	0.0005944656
29	0xbcbbfa21	-0.02294642
30	0xbd9b6205	-0.07587055
31	0xbd941d9a	-0.072322085
32	0xbdfd277c	-0.12361047
33	0x3c7be551	0.0153744975
34	0xbd63d8d5	-0.05562671
35	0xbcf1306d	-0.029442037
36	0x3d08c732	0.033393092
37	0xbda1cbc7	-0.079001956
38	0xbd8acc88	-0.067772925
39	0xbdb23e39	-0.08703274

conv_net.1.running_var f4 [40]
0	0x3eef3625	0.46720996
1	0x3d5c80c9	0.053833757
2	0x3ec99075	0.39368024
3	0x3e878d7a	0.26475126
4	0x3e3a8ebc	0.18218511
5	0x3f6de85e	0.9293269
6	0x3f3b677c	0.7320478
7	0x3da496d3	0.0803658
8	0x3dfc4fde	0.12319921
9	0x3e8366b7	0.25664303
10	0x3db7a4dc	0.08966991
11	0x3fb4b609	1.4118053
12	0x3da6dfa7	0.08148127
13	0x3de170ec	0.11007866
14	0x3d9367bb	0.071975194
15	0x3f74b91e	0.95594966
16	0x3d9171bc	0.07101771
17	0x3ed5d6c0	0.41765404
18	0x3de2a9d8	0.110675514
19	0x3d67213f	0.05642819
20	0x3dfce228	0.123478234
21	0x3e58678e	0.21133253
22	0x3ed74976	0.42048234
23	0x3e378e3d	0.17925353
24	0x3d553de3	0.052060973
25	0x3e1edeac	0.1551463
26	0x3d9e1dee	0.077205524
27	0x3d6f473a	0.058417536
28	0x3dc92cf3	0.098230265
29	0x3f3564d4	0.70856977
30	0x3d431104	0.04762365
31	0x3ea2c8c8	0.3179381
32	0x3eee7a51	0.46577695
33	0x3e12f1a4	0.14349991
34	0x3e31e9c1	0.17374326
35	0x3f5fb796	0.87389505
36	0x3d71564a	0.058920182
37	0x3ee53439	0.44766405
38	0x3d9f4c27	0.07778197
39	0x3d605a11	0.054773394

conv_net.5.weight f4 [20, 40, 5, 5]
0	0x3b46f61e	0.00303591
1	0x3c3f0a45	0.011660163
2	0x3c6c726b	0.014431576
3	0x3b0db1e5	0.0021620926
4	0x3b122c7a	0.0022304342
5	0xbd217259	-0.03941569
6	0xbcfd78db	-0.030941417
7	0x3c5fcd9f	0.013659864
8	0x3cf0d6a1	0.029399218
9	0x3d5253e6	0.051349543
10	0xbda9a7bd	-0.08283947
11	0xbd10ebf0	-0.035381258
12	0x3c834a0e	0.016026523
13	0x3d6589f9	0.056039784
14	0x3d66755a	0.05626426
15	0xbc0f52c2	-0.008747758
16	0x3b9804b6	0.0046392335
17	0x3d13bb3b	0.03606723
18	0x3d09cd7d	0.033643235
19	0x3d5860b2	0.05282659
20	0xbc60c976	-0.013719907
21	0x3ccd4c62	0.025060836
22	0x3d537767	0.051627543
23	0x3d92545e	0.07144998
24	0x3db26909	0.0871144
25	0x3a6c665e	0.00090179394
26	0x3c900ab1	0.017583223
27	0x3cab251d	0.02089172
28	0x3bdae2e6	0.0066798804
29	0x3bd94578	0.006630596
30	0xbd5587d4	-0.05213149
31	0xbd4f0d91	-0.050550047
32	0xbc2e52eb	-0.010639886
33	0xbbdbe1d3	-0.00671027
34	0xbccba2ba	-0.024857868
35	0xbcd111ed	-0.025521243
36	0xbc950d6d	-0.018194878
37	0x3c2eba12	0.01066448
38	0x3c581036	0.013187459
39	0x3be17e77	0.006881531
40	0xbc03241f	-0.008004217
41	0x3cfa97fd	0.030590052
42	0x3d6f6fd7	0.05845627
43	0x3d53286c	0.05155222
44	0x3d848e54	0.064724594
45	0xbc7b2481	-0.015328527
46	0x3cac2933	0.021015739
47	0x3da1a3ba	0.078925565
48	0x3d3d26e3	0.046179663
49	0x3d8ac4fd	0.06775854
50	0xbd396cbb	-0.04526971
51	0xbd65debf	-0.05612063
52	0xbd079eab	-0.033110302
53	0xbc963160	-0.01833409
54	0xbc877dff	-0.016539572
55	0xbcccf0a0	-0.025017083
56	0xbc4a8bcd	-0.012362433
57	0x38a76b61	7.9831814e-05
58	0xbb14c6ac	-0.0022701425
59	0x3c0f55ac	0.008748453
60	0xbcc25495	-0.023721972
61	0xbc91c445	-0.017793784
62	0xbc1246d6	-0.008928021
63	0x3b80d894	0.003932068
64	0xbbf4719a	-0.0074598314
65	0xbd5b0c9f	-0.053478833
66	0xbd3bab0b	-0.045817416
67	0xbd58c288	-0.052919894
68	0xbd6ac9c7	-0.057321336
69	0xbd765d86	-0.060147785
70	0xbd67ad5f	-0.056561824
71	0xbd68bacf	-0.05681878
72	0xbdb81680	-0.089886665
73	0xbda26c22	-0.07930781
74	0xbdda9c20	-0.1067431
75	0x3bcfb4c0	0.0063386858
76	0x3c8b88e0	0.01703304
77	0x3d0e2ed2	0.03471262
78	0x3d59020e	0.052980475
79	0x3d1ca7c0	0.038245916
80	0x3b4fcf44	0.0031709233
81	0xbc49d259	-0.012318217
82	0xb898733c	-7.269389e-05
83	0x3d0e53fd	0.034748066
84	0x3d2687d7	0.04065689
85	0xbb66635b	-0.0035154435
86	0x3bcef169	0.0063153994
87	0x3d00b9a4	0.03142704
88	0xba5872fc	-0.000825688
89	0x3caac7b0	0.020847172
90	0x3d09f2a1	0.033678655
91	0x3cce2f86	0.025169145
92	0x3ca12905	0.01967288
93	0x3d853c8c	0.06505689
94	0x3dd8f9d6	0.105945274
95	0x3c90e837	0.017688854
96	0xbac80d1a	-0.0015262694
97	0x3ca964cd	0.020677948
98	0x3d16fe7e	0.036863796
99	0x3d04ad60	0.032391906
100	0x3b834c59	0.004006904
101	0x3d240200	0.04004097
102	0x3d5c33c2	0.053760298
103	0x3ce6764b	0.028132578
104	0x3cb74bd5	0.022375027
105	0x3caabc59	0.020841764
106	0x3c28a009	0.010292062
107	0x3d315c42	0.043300875
108	0x3da3b9f7	0.07994454
109	0x3d9822ae	0.074284896
110	0x3b9e9f7c	0.0048407894
111	0x3c6fa028	0.014625587
112	0x3d1ac812	0.03778846
113	0x3d4591aa	0.04823462
114	0x3d095a5d	0.033533443
115	0x3c21f257	0.0098844385
116	0x3cd89fea	0.02644344
117	0x3cf7b8a7	0.030239416
118	0x3d3150be	0.043289892
119	0x3dc87abd	0.097890355
120	0xbcee4bc3	-0.02908886
121	0x3cb32e47	0.021872653
122	0x3d0ef284	0.03489925
123	0x3cafae15	0.021445313
124	0x3d3f6a35	0.046732146
125	0x3d5d921e	0.054094426
126	0x3d3913d6	0.045184933
127	0x3d817094	0.06320301
128	0x3d88a7b9	0.066726156
129	0x3da8647d	0.082222916
130	0x3b8595ac	0.00407668
131	0x3cc8f90d	0.02453282
132	0x3ce0f657	0.027461214
133	0x3dae44de	0.08509229
134	0x3d86fa29	0.06590683
135	0x3c34fe69	0.011046984
136	0x3c97a45d	0.018510992
137	0x3cd18881	0.025577785
138	0x3d1fc907	0.039010074
139	0x3d7e1d91	0.062039915
140	0x3c778e4f	0.015109613
141	0x3c96db57	0.018415136
142	0x3c98d34c	0.018655442
143	0x3d0f4a21	0.034982804
144	0x3ca86a73	0.020558571
145	0xbc9060bb	-0.01762425
146	0xbc127923	-0.008940014
147	0xbcbf9a28	-0.023388937
148	0xbcd6fa2a	-0.026242334
149	0xbd81dcf1	-0.06340969
150	0xbd447619	-0.04796419
151	0xbc5d1d53	-0.013495761
152	0x3c4f5655	0.0126548605
153	0xbc96d31d	-0.018411214
154	0x3cd3b60a	0.025843639
155	0xbd14f62d	-0.036367584
156	0x3bef923f	0.007311135
157	0xbc24fae3	-0.010069582
158	0xbc8e038b	-0.017335674
159	0xbd452e0d	-0.04813962
160	0xbc36400b	-0.0111236675
161	0xbb9c0108	-0.004760865
162	0xbbf4d943	-0.0074721887
163	0xbca8ae8f	-0.020591049
164	0xbd8353e5	-0.06412486
165	0x3c2373af	0.009976312
166	0x3bc8e1e4	0.006130444
167	0xbc86a89d	-0.016437823
168	0xbcdde46e	-0.027086463
169	0xbc9e8ff9	-0.01935576
170	0x3d2ffade	0.042963855
171	0x3cdf94c9	0.027292626
172	0x3c10403a	0.008804375
173	0xbce4ce11	-0.027930291
174	0x395c3bb0	0.0002100307
175	0xbbe82529	-0.007084508
176	0xbb680576	-0.0035403646
177	0xbb8a6c87	-0.0042243632
178	0x3d48b3e1	0.04899967
179	0x3bac0b3a	0.0052503617
180	0xbc069a38	-0.00821548
181	0x3c7b340b	0.015332232
182	0x3cac6674	0.021044947
183	0x3d0b7f8d	0.03405719
184	0x3ba7d391	0.005121656
185	0xbb6a9a56	-0.0035797558
186	0x3d13414e	0.03595095
187	0x3d2316f9	0.03981683
188	0x3dca9386	0.09891419
189	0x3d5b866a	0.053594984
190	0xbca6bf65	-0.020354936
191	0xbc40a6ff	-0.011758565
192	0x3abf4191	0.0014591684
193	0x3d1670e3	0.03672875
194	0x3ce041a2	0.027375046
195	0xbd20cb17	-0.03925618
196	0x3bcd3cb8	0.0062633418
197	0xbba77338	-0.0051101707
198	0x3ba670d8	0.00507937
199	0xbc1b6319	-0.009484076
200	0xbd061a54	-0.032739952
201	0xbbf63bff	-0.0075144763
202	0xbc905d02	-0.017622475
203	0xbce78d11	-0.028265508
204	0x3c719f70	0.0147474855
205	0xbb60be3c	-0.0034293076
206	0x3bb8afd3	0.0056361943
207	0xb958170f	-0.00020607955
208	0x3c604900	0.01368928
209	0xbc184434	-0.009293605
210	0xbadc12bf	-0.0016790255
211	0x3c8763d4	0.016527094
212	0x3c7cff69	0.015441754
213	0x3c56751a	0.013089443
214	0xbcba5f1b	-0.022750428
215	0x3c547d63	0.012969348
216	0x3c1c9e5f	0.009559243
217	0xbc2c46ee	-0.010514958
218	0xbcadc92f	-0.021214096
219	0xbd91ec23	-0.07125118
220	0xbba15e9d	-0.004924609
221	0x3b9341f4	0.004493946
222	0xbcdb11f9	-0.026741968
223	0xbd0cd96d	-0.03438704
224	0xbd3c67e5	-0.04599752
225	0xbcd7ba27	-0.026333882
226	0xbd21addd	-0.03947245
227	0xbd5157d5	-0.051109154
228	0xbc36b2f6	-0.011151066
229	0x3c080ab4	0.008303333
230	0xbd666dcc	-0.056257054
231	0xbd395790	-0.04524952
232	0xbc524c6c	-0.012835603
233	0xbcbbd243	-0.022927409
234	0xbc3f03f1	-0.011658655
235	0xbd990a20	-0.07472634
236	0xbc076d72	-0.00826584
237	0x3b9a11a1	0.0047018086
238	0xbcde366e	-0.027125563
239	0xbd9890ec	-0.07449517
240	0xbcc24574	-0.023714758
241	0xba9932c7	-0.0011688106
242	0xbd350834	-0.044197276
243	0xbd98ca01	-0.07460404
244	0xbdf301f8	-0.1186561
245	0xbd1b8903	-0.03797246
246	0xbc477d47	-0.012175865
247	0xbd9333f1	-0.071876414
248	0xbdd91545	-0.1059976
249	0xbdf0ed5d	-0.117640235
250	0x3ce245f5	0.027621249
251	0x3cf3e724	0.029773302
252	0x3c624bb8	0.013811998
253	0xbcd5741c	-0.026056342
254	0xbc2fc16c	-0.010727268
255	0x3d3aa37d	0.04556607

conv_net.5.bias f4 [20]
0	0xbb797c83	-0.00380686
1	0xbd6f37a7	-0.058402684
2	0xbda0cfd0	-0.07852137
3	0xbdab400d	-0.08361826
4	0xbdd37675	-0.10325328
5	0xbd82cd5a	-0.06386824
6	0xbd865de4	-0.06560877
7	0xbdcbb07b	-0.0994577
8	0xbd483d73	-0.048886728
9	0xbda7fe2a	-0.08202775
10	0xbda9587d	-0.08268831
11	0xbba83961	-0.005133793
12	0xbd1ca496	-0.0382429
13	0xbc75e7d7	-0.015008888
14	0xbdd02ce0	-0.10164809
15	0xbd963396	-0.07334058
16	0xbd8fb9bf	-0.0701785
17	0xbd895cf6	-0.06707184
18	0xbd3a8663	-0.045538317
19	0xbd0db638	-0.034597605

conv_net.6.weight f4 [20]
0	0x3f7cf475	0.9881051
1	0x3f7d0e03	0.98849505
2	0x3f83a9e8	1.0286226
3	0x3f70fb70	0.94133663
4	0x3f80623e	1.0029981
5	0x3f856899	1.0422546
6	0x3f8a1662	1.0788081
7	0x3f7b1ecd	0.98093873
8	0x3f8201d6	1.015681
9	0x3f7c752b	0.98616284
10	0x3f7e489c	0.99329543
11	0x3f78ffd7	0.9726538
12	0x3f7a1073	0.9768135
13	0x3f77568d	0.9661644
14	0x3f76e37a	0.9644085
15	0x3f8673fb	1.0504144
16	0x3f88e581	1.0695039
17	0x3f8582ce	1.0430543
18	0x3f7c2b10	0.9850321
19	0x3f81e6f6	1.0148609

conv_net.6.bias f4 [20]
0	0xbe2df140	-0.16986561
1	0xbe93d635	-0.28874364
2	0xbea9a638	-0.33134627
3	0xbe8e1cb3	-0.2775627
4	0xbea2ae44	-0.3177358
5	0xbea0e820	-0.31427097
6	0xbef0e2bc	-0.47047985
7	0xbe8b76c9	-0.27239063
8	0xbec4f2df	-0.38466546
9	0xbec5ca8c	-0.38631094
10	0xbeab4849	-0.33453587
11	0xbe53d167	-0.2068535
12	0xbe97148b	-0.2950786
13	0xbeabdab0	-0.33565283
14	0xbe629bf7	-0.22129808
15	0xbe9366ef	-0.2878947
16	0xbebcbf89	-0.3686488
17	0xbeb3df65	-0.35131374
18	0xbe79d9b5	-0.24399455
19	0xbe9b7f97	-0.3037078

conv_net.6.running_mean f4 [20]
0	0xbb47d8f5	-0.0030494307
1	0xbf312291	-0.6919337
2	0xbecd9605	-0.40153518
3	0xbf52ceda	-0.8234688
4	0xbef8f10d	-0.48621407
5	0x3e6a5af3	0.22886257
6	0xc0216b2b	-2.522166
7	0xbf29e9b8	-0.6637225
8	0xbff182a6	-1.8867996
9	0xbf4da868	-0.8033509
10	0xbd065a79	-0.032801125
11	0xbeb2409b	-0.34814915
12	0xbf4a639b	-0.79058236
13	0xbdf9bf5f	-0.12194704
14	0xbefa375f	-0.4887037
15	0xbf09dd9a	-0.5385376
16	0xbedcc18b	-0.43116412
17	0xbf946a57	-1.1594952
18	0x3f345346	0.70439565
19	0x3f8a2ed1	1.0795537

conv_net.6.running_var f4 [20]
0	0x40504041	3.2539217
1	0x40598054	3.3984575
2	0x40962c50	4.6929092
3	0x409fcd60	4.99382
4	0x404d5553	3.2083328
5	0x40836994	4.106638
6	0x410329ac	8.197674
7	0x40820d14	4.0640965
8	0x40ab382e	5.350608
9	0x404fb33d	3.2453148
10	0x40510060	3.265648
11	0x407ef5a4	3.9837427
12	0x40698f45	3.6493695
13	0x403253f3	2.7863739
14	0x4057f98f	3.3746068
15	0x4068e145	3.6387494
16	0x40ab875e	5.3602743
17	0x409fee76	4.997859
18	0x407c3006	3.940431
19	0x409283c6	4.5785856

linear1.weight f4 [240, 500]
0	0x3cfb19d5	0.030651966
1	0x3c266c8f	0.010157718
2	0x3c1710d9	0.009220325
3	0x3cbbeab4	0.022939064
4	0xbc8a1e30	-0.016860098
5	0x3d900d45	0.07033781
6	0x3d540b22	0.05176843
7	0x3c5621ac	0.013069551
8	0x3d4e7cb3	0.05041189
9	0x3c3fae20	0.0116992295
10	0x3d777caf	0.060421642
11	0x3b35b5ab	0.002772669
12	0xbc6ad373	-0.01433264
13	0xba33f4b2	-0.00068647705
14	0x3c58dbd4	0.013236005
15	0xbc86588f	-0.01639965
16	0xbc1ff691	-0.009763376
17	0xbcc8751d	-0.024469906
18	0xbc1aba28	-0.009443797
19	0x3cd97394	0.02654437
20	0x3c9c5386	0.019082796
21	0xbc71a475	-0.014748682
22	0x3c206c30	0.009791419
23	0x3cae5fba	0.02128588
24	0x3c165b41	0.00917703
25	0x3c8e289b	0.017353347
26	0x3c1015d0	0.008794263
27	0xbc2972e5	-0.010342334
28	0xbcaabebc	-0.020842902
29	0x3ccab325	0.024743626
30	0xbc6d8259	-0.014496409
31	0xbcfd6b3a	-0.030934919
32	0x3c9c8d1d	0.019110257
33	0x3cb7ce09	0.022437112
34	0xbbed6e78	-0.007245835
35	0x3d192590	0.037389338
36	0xbcaa15a2	-0.020762268
37	0xbd096ad9	-0.033549163
38	0xbc107b75	-0.008818497
39	0xbd046c30	-0.03232974
40	0x3b9d15a3	0.004793839
41	0xbd962931	-0.073320754
42	0xbcb5cc02	-0.022192005
43	0xbda0f0e9	-0.0785845
44	0x3b106d20	0.00220377
45	0x3b7cfeb9	0.0038603975
46	0x3c836e16	0.016043704
47	0xbd9551da	-0.072910026
48	0xbd8d0fb5	-0.068877615
49	0xbcd2534d	-0.025674487
50	0xbcc93873	-0.02456305
51	0xbb6a5c08	-0.0035760421
52	0xbc970384	-0.018434294
53	0xba0169a8	-0.00049367035
54	0xbccac3dc	-0.024751596
55	0xbd747d0b	-0.059689563
56	0xbb963c6d	-0.00458484
57	0x3d547736	0.0518715
58	0x3ca487ca	0.02008428
59	0x3d12b983	0.03582145
60	0xbd48132c	-0.04884641
61	0xbcca619a	-0.024704743
62	0xbc9ddd2a	-0.019270498
63	0x3d4fc9dc	0.050729617
64	0x3d4545de	0.048162334
65	0x3c113a4d	0.008863998
66	0xbdac689e	-0.08418392
67	0xbd56e563	-0.052464854
68	0xbc8ba101	-0.017044546
69	0xbcd65f39	-0.026168453
70	0x3d49127a	0.049089886
71	0x3cb55a43	0.022137767
72	0xba9d16f3	-0.0011984989
73	0x3c6c765a	0.014432514
74	0xbd0b25b4	-0.033971503
75	0xbd046c67	-0.032329943
76	0x3b271b98	0.0025498625
77	0x3d52a6f3	0.051428746
78	0x3c92358b	0.017847797
79	0x3d66e172	0.056367345
80	0xbd5aa8f5	-0.053383786
81	0x3d12774a	0.035758294
82	0x3dc52af3	0.096273325
83	0x3cbf560b	0.023356458
84	0xbba4c9d8	-0.0050289445
85	0xbc2ac51a	-0.010422969
86	0x3ca10da3	0.019659823
87	0x3c550b2f	0.013003155
88	0xbc7c6bcf	-0.015406563
89	0xbd7e5e36	-0.062101565
90	0xb9f1f921	-0.00046152718
91	0xbd80c706	-0.06287961
92	0xbd93e293	-0.0722095
93	0xbc4a7338	-0.012356572
94	0xbdd669c6	-0.104693934
95	0x3c7c742f	0.01540856
96	0xbd811367	-0.06302529
97	0xbd6b2390	-0.057406962
98	0xbd4cc698	-0.04999408
99	0xbdb228fd	-0.08699224
100	0xbcce94ca	-0.025217433
101	0x3d9940b5	0.07483045
102	0x3bb1ec92	0.0054298127
103	0x3c2b0910	0.010439172
104	0x3bfcaa70	0.0077107474
105	0x3d3c02f0	0.04590124
106	0x3dc39f16	0.095518276
107	0x3db7406a	0.08947833
108	0x3d59686a	0.053078093
109	0xbc955a15	-0.018231431
110	0xbcbd29dc	-0.02309125
111	0x3b11a709	0.0022224805
112	0x3c1bc182	0.009506585
113	0x3cabef60	0.020988166
114	0xbcc4400a	-0.023956317
115	0xbcdb5690	-0.026774675
116	0xbca34139	-0.019928562
117	0x3c4ff498	0.012692593
118	0xbcc243a8	-0.023713902
119	0x3d34c366	0.04413166
120	0xbce46efc	-0.027884953
121	0xbb02d14a	-0.0019961172
122	0x3c68c344	0.014206711
123	0x3d4102b3	0.047121715
124	0x3d040fdd	0.03224169
125	0x3d68be06	0.056821845
126	0x3d0cdb2c	0.034388706
127	0x3c5b63cf	0.013390495
128	0x3bb6425d	0.0055621103
129	0x3d4906ac	0.04907863
130	0xbcce3449	-0.025171416
131	0x3ccd66f2	0.025073502
132	0x3cc709aa	0.0242966
133	0x3c7d485e	0.015459148
134	0xbbc34414	-0.0059590433
135	0x3d16e9d8	0.036844105
136	0xbc8033c7	-0.01564969
137	0xbc906c63	-0.017629808
138	0x3d4308a0	0.047615647
139	0x3c9b0ddf	0.018927513
140	0x3c9f40e6	0.019440126
141	0xbc992e7b	-0.018698921
142	0xbc978294	-0.018494882
143	0x3d201c3b	0.039089423
144	0x3cbd9966	0.023144435
145	0x3cad4441	0.02115071
146	0xbd48e307	-0.049044635
147	0x3cdee645	0.02720941
148	0x3d1733fd	0.036914814
149	0x3d1881da	0.03723321
150	0xbb852b80	-0.0040640235
151	0xbaa1b9a7	-0.0012338654
152	0xbd82c2af	-0.06384789
153	0xbd8738b6	-0.06602614
154	0x3d0e4c1a	0.034740545
155	0xbb5784ac	-0.0032885475
156	0xbcd7248c	-0.026262544
157	0x3d0a805f	0.03381383
158	0x3be596c9	0.0070065004
159	0x3c82e872	0.01597998
160	0xbcec98eb	-0.02888151
161	0x3bbce8cf	0.0057650576
162	0x3d205244	0.039140955
163	0x3c9e5140	0.019325852
164	0xbb876362	-0.0041317204
165	0x3cfc667e	0.03081059
166	0x3d76f9d1	0.060296837
167	0xbbeeccb7	-0.0072875875
168	0x3c3916e1	0.011296959
169	0x3d806d32	0.06270827
170	0x3c8af3ed	0.016962016
171	0x3da8110f	0.08206379
172	0x3d37e0fa	0.04489229
173	0xba8b0adb	-0.0010608094
174	0x3d3f8df7	0.046766248
175	0x3c63735d	0.013882485
176	0x3cf7cf5d	0.030250246
177	0x3d564b9c	0.0523182
178	0x3d3acbb6	0.04560443
179	0x3cbeaedb	0.023276737
180	0xbd805f29	-0.0626815
181	0xbcbbd3bb	-0.02292811
182	0xbc5772c9	-0.0131499255
183	0x3cbb470a	0.022861023
184	0x3b811c48	0.003940139
185	0xbdee00de	-0.11621259
186	0xbd903e60	-0.07043147
187	0xbcd4140e	-0.02588847
188	0xbd6f86f3	-0.058478307
189	0x3ca06979	0.019581543
190	0xbe1b8581	-0.15187646
191	0xbe38cea4	-0.18047577
192	0xbe010751	-0.12600447
193	0xbdf3df79	-0.119078584
194	0xbdf7426e	-0.12073217
195	0xbdd123d3	-0.10211911
196	0xbe1ca314	-0.15296584
197	0xbdadc6d3	-0.08485188
198	0xbdaf02ff	-0.08545493
199	0xbdb7d63e	-0.0897641
200	0x3c89bc5e	0.016813453
201	0xbc2d7fb9	-0.0105895335
202	0xbc0691c0	-0.00821346
203	0xbc010d45	-0.007876699
204	0x3b5bb5de	0.003352515
205	0x3d55ed4f	0.05222827
206	0x3cbc4642	0.02298272
207	0x3cb02329	0.02150114
208	0x3d41933b	0.04725955
209	0x3d6635c6	0.056203626
210	0xbc3d673a	-0.011560256
211	0xbc247bcc	-0.010039281
212	0xbcff9fd5	-0.031204144
213	0xbc102831	-0.008798645
214	0xbdc948fa	-0.09828372
215	0x3c39e982	0.0113471765
216	0x3cf958a7	0.03043778
217	0x3d7cda82	0.061731823
218	0x3c3f9205	0.011692529
219	0xbaee1c23	-0.0018166344
220	0x3d400770	0.046882093
221	0x3d8d7a18	0.06908053
222	0xbbcaceb9	-0.006189194
223	0xbb048f99	-0.0020227192
224	0x3d4bcbdd	0.049754966
225	0x3cc93bf0	0.024564713
226	0x3c496c12	0.012293832
227	0x3c02f350	0.0079925805
228	0x3cf128d3	0.029438412
229	0xbd4847a2	-0.04889644
230	0x3c831b05	0.016004095
231	0xbb566b5a	-0.0032717795
232	0x38000326	3.052051e-05
233	0x3ca96a2f	0.020680515
234	0x3b651a8b	0.0034958448
235	0xbcdd53de	-0.02701753
236	0x3bf0289b	0.0073290593
237	0x3c6d09fa	0.014467711
238	0x3d2163e7	0.039401915
239	0x3dbb2cd0	0.09139407
240	0x3c936917	0.017994447
241	0xbc319592	-0.010838883
242	0xbc0ffab6	-0.0087878015
243	0xbb9d86c6	-0.004807326
244	0x3d562011	0.052276675
245	0xbbc42a1e	-0.005986466
246	0xbd0995dc	-0.033590183
247	0xbd44d701	-0.048056606
248	0xbdb9b6d0	-0.09068072
249	0xbdcc7f8c	-0.09985265
250	0xbd471644	-0.04860522
251	0xbd26d5fa	-0.040731408
252	0xbc3b0c2c	-0.011416476
253	0x3c428ba6	0.011874115
254	0x3d9950ce	0.074861154
255	0x3d176e1c	0.036970243

linear1.bias f4 [240]
0	0xb94911df	-0.00019175511
1	0x3ddc0331	0.10742796
2	0x3d88a108	0.06671339
3	0x3da87e50	0.08227217
4	0xbc602b83	-0.013682249
5	0x3d3e321a	0.0464345
6	0xbd693904	-0.05693914
7	0x3bfc64fb	0.0077024675
8	0x3da283ec	0.07935318
9	0x3df845dd	0.121227
10	0x3d040a22	0.032236226
11	0x3d9ecb0b	0.07753571
12	0x3c8b99fb	0.017041197
13	0x3c6a1614	0.01428749
14	0x3d190b6d	0.037364412
15	0x3bee8cd7	0.007279973
16	0x3ba03920	0.0048896223
17	0xbcb2d749	-0.021831172
18	0xbd401a47	-0.04690006
19	0x3c794575	0.015214314
20	0xbd3eca3e	-0.046579592
21	0x3c968b5b	0.018376997
22	0xbc71d234	-0.014759589
23	0xbc62c583	-0.013841036
24	0xbc877ca9	-0.016538935
25	0xbcc4a9ce	-0.02400675
26	0xbb25862c	-0.0025256975
27	0x3d8eb43b	0.0696797
28	0xbd30497c	-0.04303883
29	0x3d60b8e9	0.054863844
30	0x3c6e408e	0.014541758
31	0x3c6b4f0a	0.014362106
32	0xbcf845af	-0.030306665
33	0xbcf9e499	-0.030504512
34	0x3b8e9aba	0.004351941
35	0xbcc0fcb3	-0.023557996
36	0xbd11d296	-0.03560122
37	0x3c93b865	0.018032262
38	0xbd196434	-0.037449077
39	0x3da687cf	0.08131372
40	0xbd14ee06	-0.03635981
41	0xbd38c887	-0.045113113
42	0x3d9ec7f7	0.07752984
43	0xbd631848	-0.05544308
44	0x3ce729bb	0.02821814
45	0xbbc93261	-0.006140039
46	0x3d88b228	0.066746056
47	0x3cc8c8ea	0.024509866
48	0xbcbc402f	-0.022979824
49	0xbc8f3ae5	-0.017484138
50	0xbce613df	-0.028085647
51	0x3b5ef00b	0.0034017588
52	0x3d8b0be3	0.067893766
53	0x3d589506	0.052876495
54	0x3c590e10	0.013247982
55	0x3da00125	0.07812718
56	0xbd2dd820	-0.04244244
57	0xbd86e5f4	-0.06586829
58	0xbb201f6e	-0.0024432796
59	0xbd3c4704	-0.045966163
60	0xbcf3d194	-0.02976302
61	0x3d88435c	0.06653473
62	0xbc9c8abb	-0.01910912
63	0xbd300117	-0.04296979
64	0x3caf07e2	0.021366064
65	0xbb81de4e	-0.0039632684
66	0xbca5a0bf	-0.020218251
67	0x3cbf3fd5	0.023345867
68	0x3d08f81f	0.03343975
69	0xbd865cca	-0.06560667
70	0x3d1bbdde	0.03802287
71	0x3da416aa	0.08012135
72	0x3db48698	0.08814734
73	0xbc2003ea	-0.009766558
74	0x3c0b5b69	0.008505681
75	0x3d882037	0.066467695
76	0x3dca3861	0.09874035
77	0xbd1267eb	-0.035743635
78	0xbb67d40f	-0.00353742
79	0x3ae24ae3	0.001726475
80	0xbc5d1eaf	-0.013496085
81	0xbd53db15	-0.051722605
82	0xbb2c98bc	-0.0026336154
83	0x3c21947e	0.009862063
84	0x3d397cf0	0.045285165
85	0xbd8966f9	-0.067090936
86	0x3ca52075	0.020157078
87	0x3d62b1e4	0.05534543
88	0xbbcd3e62	-0.00626354
89	0xbd4bd4ea	-0.049763598
90	0x3dbf6136	0.093447134
91	0xbc33c4bb	-0.010972197
92	0xbd2f2017	-0.042755213
93	0xbb560439	-0.0032656325
94	0x3d807583	0.062724136
95	0x3d0f9c17	0.03506097
96	0xbb8aab6a	-0.00423186
97	0x3d25a336	0.040438853
98	0xbd27c055	-0.040954906
99	0x3c52adf6	0.012858858
100	0xbac1bdb9	-0.0014781273
101	0x3d5eceac	0.054396316
102	0x3d488f20	0.04896462
103	0x3ab2d0b0	0.0013642516
104	0xbc9610ac	-0.018318497
105	0xbd311ebc	-0.0432422
106	0x3d56e72b	0.052466553
107	0xbd4dfa77	-0.05028769
108	0x3c0687aa	0.008211056
109	0xbd2aff6d	-0.0417475
110	0x3cab378c	0.02090051
111	0xbcdda6fd	-0.027057165
112	0x3bee6673	0.0072753965
113	0x3a2d5a37	0.00066128693
114	0x3cdc0ad6	0.026860636
115	0xbd0a7fd8	-0.033813328
116	0x3d8750f6	0.06607239
117	0xbcf3970f	-0.029735116
118	0x3c4fd38a	0.012684712
119	0xbc33d20d	-0.010975373
120	0x3c4af671	0.012387858
121	0xbcd7889e	-0.026310261
122	0x3cbd410b	0.023102304
123	0x3d059278	0.032610387
124	0x3c5c0257	0.013428292
125	0xbd51d8a2	-0.051231988
126	0x3d2eae96	0.042646967
127	0xbd249c95	-0.04018839
128	0xbd47d3b3	-0.048785876
129	0x3d1b4da4	0.03791584
130	0xbcbff7e3	-0.023433631
131	0x3d371e3c	0.044706568
132	0xbb23383f	-0.0024905351
133	0xbc4781c1	-0.012176932
134	0x3ccac7ff	0.024753569
135	0xbd167584	-0.036733165
136	0xbc7e8be5	-0.015536283
137	0xbcd945a4	-0.026522465
138	0xbd251b6c	-0.040309355
139	0xbdd33b90	-0.10314095
140	0xbdad1b24	-0.08452442
141	0xbd385216	-0.04500016
142	0x3d5a3b76	0.053279363
143	0x3cdd24af	0.026995031
144	0xbc847cfa	-0.016172875
145	0xbd6bbb6b	-0.057551783
146	0x3ba3f0c8	0.0050030686
147	0x3bca73df	0.0061783637
148	0xbb9859ee	-0.0046493923
149	0xbd3fd5ac	-0.046834633
150	0xbd5629af	-0.052285846
151	0xbc02bc35	-0.007979442
152	0x3c70a063	0.014686677
153	0x3c4f9971	0.012670861
154	0x3d19e69a	0.037573434
155	0xbd852d52	-0.06502785
156	0x3d453924	0.048150197
157	0x3c2d7ee0	0.010589331
158	0x3c7231ee	0.014782412
159	0xbd51ed1c	-0.051251516
160	0xbd1f08c4	-0.03882672
161	0x3aec2828	0.0018017339
162	0xbd8c4b93	-0.06850352
163	0xbd9733ef	-0.073829524
164	0xbc61f8ca	-0.013792226
165	0xbb676f9c	-0.0035314327
166	0x3d4b8bab	0.049693745
167	0x3b28892b	0.0025716524
168	0xbcabd639	-0.020976173
169	0xbd06e572	-0.03293366
170	0xbd502031	-0.05081195
171	0xbd3706c3	-0.044684183
172	0x3d55f42e	0.05223482
173	0xbd16d562	-0.03682459
174	0xbc485b32	-0.012228774
175	0x3d364a9a	0.04450474
176	0xbdaece36	-0.08535425
177	0x3d1883fe	0.037235253
178	0x3d1a202e	0.037628345
179	0xbdd10336	-0.102056906
180	0x3ba53760	0.0050420016
181	0xbba589ab	-0.0050518117
182	0x3d01032b	0.03149716
183	0xbcaea3a2	-0.02131826
184	0x3d2653bc	0.0406072
185	0xbd77f4cd	-0.060536195
186	0xbd86976a	-0.06571849
187	0xbdd6e927	-0.10493689
188	0xbcda237e	-0.026628252
189	0xbd9b46fd	-0.07581899
190	0xbd2888c2	-0.041146047
191	0x3cca9762	0.024730388
192	0x3cf7a402	0.030229572
193	0xbc8f7713	-0.017512834
194	0x3d3e433a	0.04645083
195	0x3ac38313	0.0014916382
196	0xbc439d0e	-0.0119393
197	0xbd552586	-0.05203774
198	0x3d2f09da	0.042734005
199	0x3c76ed4d	0.015071225
200	0x3d272772	0.040809102
201	0x3d0760f5	0.03305145
202	0xbdf29c18	-0.11846179
203	0xbd7038c5	-0.05864789
204	0x3db43c51	0.08800567
205	0x3cb1631a	0.0216537
206	0x3caaa8c8	0.020832434
207	0xbd6f697d	-0.05845021
208	0xbc9f147a	-0.019418944
209	0xbc95015f	-0.01818913
210	0xbd9e3ab2	-0.07726039
211	0xbd6c34e8	-0.057667643
212	0xbd452e79	-0.048140023
213	0xbd0ecebf	-0.034865137
214	0xbcb71003	-0.022346502
215	0x3cf1ed4c	0.029532097
216	0x3d80f56f	0.06296813
217	0x3cbf352f	0.02334079
218	0xbd42482a	-0.047432102
219	0xbceacc23	-0.028661793
220	0x3c932a1d	0.017964417
221	0xbde5189b	-0.11186334
222	0xbd5c4cf0	-0.05378431
223	0xbd2701d2	-0.04077322
224	0x3ce355dd	0.027750904
225	0xbd3b6aa3	-0.045755994
226	0xbd73b4f8	-0.059498757
227	0xbda6e3a5	-0.081488885
228	0xbdfcdfd4	-0.12347379
229	0xbcc4830b	-0.023988267
230	0x3bf9b196	0.007620047
231	0xbda99d36	-0.08281939
232	0x3d35afec	0.044357225
233	0xbd5d9c5e	-0.0541042
234	0x38cb7875	9.702231e-05
235	0xbc706f41	-0.0146749625
236	0xbd234570	-0.039861143
237	0x3d86e180	0.065859795
238	0xbd420d9c	-0.04737626
239	0x3cf176d6	0.02947561

batchnorm1.weight f4 [240]
0	0x3f800000	1.0
1	0x3f800000	1.0
2	0x3f800000	1.0
3	0x3f800000	1.0
4	0x3f800000	1.0
5	0x3f800000	1.0
6	0x3f800000	1.0
7	0x3f800000	1.0
8	0x3f800000	1.0
9	0x3f800000	1.0
10	0x3f800000	1.0
11	0x3f800000	1.0
12	0x3f800000	1.0
13	0x3f800000	1.0
14	0x3f800000	1.0
15	0x3f800000	1.0
16	0x3f800000	1.0
17	0x3f800000	1.0
18	0x3f800000	1.0
19	0x3f800000	1.0
20	0x3f800000	1.0
21	0x3f800000	1.0
22	0x3f800000	1.0
23	0x3f800000	1.0
24	0x3f800000	1.0
25	0x3f800000	1.0
26	0x3f800000	1.0
27	0x3f800000	1.0
28	0x3f800000	1.0
29	0x3f800000	1.0
30	0x3f800000	1.0
31	0x3f800000	1.0
32	0x3f800000	1.0
33	0x3f800000	1.0
34	0x3f800000	1.0
35	0x3f800000	1.0
36	0x3f800000	1.0
37	0x3f800000	1.0
38	0x3f800000	1.0
39	0x3f800000	1.0
40	0x3f800000	1.0
41	0x3f800000	1.0
42	0x3f800000	1.0
43	0x3f800000	1.0
44	0x3f800000	1.0
45	0x3f800000	1.0
46	0x3f800000	1.0
47	0x3f800000	1.0
48	0x3f800000	1.0
49	0x3f800000	1.0
50	0x3f800000	1.0
51	0x3f800000	1.0
52	0x3f800000	1.0
53	0x3f800000	1.0
54	0x3f800000	1.0
55	0x3f800000	1.0
56	0x3f800000	1.0
57	0x3f800000	1.0
58	0x3f800000	1.0
59	0x3f800000	1.0
60	0x3f800000	1.0
61	0x3f800000	1.0
62	0x3f800000	1.0
63	0x3f800000	1.0
64	0x3f800000	1.0
65	0x3f800000	1.0
66	0x3f800000	1.0
67	0x3f800000	1.0
68	0x3f800000	1.0
69	0x3f800000	1.0
70	0x3f800000	1.0
71	0x3f800000	1.0
72	0x3f800000	1.0
73	0x3f800000	1.0
74	0x3f800000	1.0
75	0x3f800000	1.0
76	0x3f800000	1.0
77	0x3f800000	1.0
78	0x3f800000	1.0
79	0x3f800000	1.0
80	0x3f800000	1.0
81	0x3f800000	1.0
82	0x3f800000	1.0
83	0x3f800000	1.0
84	0x3f800000	1.0
85	0x3f800000	1.0
86	0x3f800000	1.0
87	0x3f800000	1.0
88	0x3f800000	1.0
89	0x3f800000	1.0
90	0x3f800000	1.0
91	0x3f800000	1.0
92	0x3f800000	1.0
93	0x3f800000	1.0
94	0x3f800000	1.0
95	0x3f800000	1.0
96	0x3f800000	1.0
97	0x3f800000	1.0
98	0x3f800000	1.0
99	0x3f800000	1.0
100	0x3f800000	1.0
101	0x3f800000	1.0
102	0x3f800000	1.0
103	0x3f800000	1.0
104	0x3f800000	1.0
105	0x3f800000	1.0
106	0x3f800000	1.0
107	0x3f800000	1.0
108	0x3f800000	1.0
109	0x3f800000	1.0
110	0x3f800000	1.0
111	0x3f800000	1.0
112	0x3f800000	1.0
113	0x3f800000	1.0
114	0x3f800000	1.0
115	0x3f800000	1.0
116	0x3f800000	1.0
117	0x3f800000	1.0
118	0x3f800000	1.0
119	0x3f800000	1.0
120	0x3f800000	1.0
121	0x3f800000	1.0
122	0x3f800000	1.0
123	0x3f800000	1.0
124	0x3f800000	1.0
125	0x3f800000	1.0
126	0x3f800000	1.0
127	0x3f800000	1.0
128	0x3f800000	1.0
129	0x3f800000	1.0
130	0x3f800000	1.0
131	0x3f800000	1.0
132	0x3f800000	1.0
133	0x3f800000	1.0
134	0x3f800000	1.0
135	0x3f800000	1.0
136	0x3f800000	1.0
137	0x3f800000	1.0
138	0x3f800000	1.0
139	0x3f800000	1.0
140	0x3f800000	1.0
141	0x3f800000	1.0
142	0x3f800000	1.0
143	0x3f800000	1.0
144	0x3f800000	1.0
145	0x3f800000	1.0
146	0x3f800000	1.0
147	0x3f800000	1.0
148	0x3f800000	1.0
149	0x3f800000	1.0
150	0x3f800000	1.0
151	0x3f800000	1.0
152	0x3f800000	1.0
153	0x3f800000	1.0
154	0x3f800000	1.0
155	0x3f800000	1.0
156	0x3f800000	1.0
157	0x3f800000	1.0
158	0x3f800000	1.0
159	0x3f800000	1.0
160	0x3f800000	1.0
161	0x3f800000	1.0
162	0x3f800000	1.0
163	0x3f800000	1.0
164	0x3f800000	1.0
165	0x3f800000	1.0
166	0x3f800000	1.0
167	0x3f800000	1.0
168	0x3f800000	1.0
169	0x3f800000	1.0
170	0x3f800000	1.0
171	0x3f800000	1.0
172	0x3f800000	1.0
173	0x3f800000	1.0
174	0x3f800000	1.0
175	0x3f800000	1.0
176	0x3f800000	1.0
177	0x3f800000	1.0
178	0x3f800000	1.0
179	0x3f800000	1.0
180	0x3f800000	1.0
181	0x3f800000	1.0
182	0x3f800000	1.0
183	0x3f800000	1.0
184	0x3f800000	1.0
185	0x3f800000	1.0
186	0x3f800000	1.0
187	0x3f800000	1.0
188	0x3f800000	1.0
189	0x3f800000	1.0
190	0x3f800000	1.0
191	0x3f800000	1.0
192	0x3f800000	1.0
193	0x3f800000	1.0
194	0x3f800000	1.0
195	0x3f800000	1.0
196	0x3f800000	1.0
197	0x3f800000	1.0
198	0x3f800000	1.0
199	0x3f800000	1.0
200	0x3f800000	1.0
201	0x3f800000	1.0
202	0x3f800000	1.0
203	0x3f800000	1.0
204	0x3f800000	1.0
205	0x3f800000	1.0
206	0x3f800000	1.0
207	0x3f800000	1.0
208	0x3f800000	1.0
209	0x3f800000	1.0
210	0x3f800000	1.0
211	0x3f800000	1.0
212	0x3f800000	1.0
213	0x3f800000	1.0
214	0x3f800000	1.0
215	0x3f800000	1.0
216	0x3f800000	1.0
217	0x3f800000	1.0
218	0x3f800000	1.0
219	0x3f800000	1.0
220	0x3f800000	1.0
221	0x3f800000	1.0
222	0x3f800000	1.0
223	0x3f800000	1.0
224	0x3f800000	1.0
225	0x3f800000	1.0
226	0x3f800000	1.0
227	0x3f800000	1.0
228	0x3f800000	1.0
229	0x3f800000	1.0
230	0x3f800000	1.0
231	0x3f800000	1.0
232	0x3f800000	1.0
233	0x3f800000	1.0
234	0x3f800000	1.0
235	0x3f800000	1.0
236	0x3f800000	1.0
237	0x3f800000	1.0
238	0x3f800000	1.0
239	0x3f800000	1.0

batchnorm1.bias f4 [240]
0	0x00000000	0.0
1	0x00000000	0.0
2	0x00000000	0.0
3	0x00000000	0.0
4	0x00000000	0.0
5	0x00000000	0.0
6	0x00000000	0.0
7	0x00000000	0.0
8	0x00000000	0.0
9	0x00000000	0.0
10	0x00000000	0.0
11	0x00000000	0.0
12	0x00000000	0.0
13	0x00000000	0.0
14	0x00000000	0.0
15	0x00000000	0.0
16	0x00000000	0.0
17	0x00000000	0.0
18	0x00000000	0.0
19	0x00000000	0.0
20	0x00000000	0.0
21	0x00000000	0.0
22	0x00000000	0.0
23	0x00000000	0.0
24	0x00000000	0.0
25	0x00000000	0.0
26	0x00000000	0.0
27	0x00000000	0.0
28	0x00000000	0.0
29	0x00000000	0.0
30	0x00000000	0.0
31	0x00000000	0.0
32	0x00000000	0.0
33	0x00000000	0.0
34	0x00000000	0.0
35	0x00000000	0.0
36	0x00000000	0.0
37	0x00000000	0.0
38	0x00000000	0.0
39	0x00000000	0.0
40	0x00000000	0.0
41	0x00000000	0.0
42	0x00000000	0.0
43	0x00000000	0.0
44	0x00000000	0.0
45	0x00000000	0.0
46	0x00000000	0.0
47	0x00000000	0.0
48	0x00000000	0.0
49	0x00000000	0.0
50	0x00000000	0.0
51	0x00000000	0.0
52	0x00000000	0.0
53	0x00000000	0.0
54	0x00000000	0.0
55	0x00000000	0.0
56	0x00000000	0.0
57	0x00000000	0.0
58	0x00000000	0.0
59	0x00000000	0.0
60	0x00000000	0.0
61	0x00000000	0.0
62	0x00000000	0.0
63	0x00000000	0.0
64	0x00000000	0.0
65	0x00000000	0.0
66	0x00000000	0.0
67	0x00000000	0.0
68	0x00000000	0.0
69	0x00000000	0.0
70	0x00000000	0.0
71	0x00000000	0.0
72	0x00000000	0.0
73	0x00000000	0.0
74	0x00000000	0.0
75	0x00000000	0.0
76	0x00000000	0.0
77	0x00000000	0.0
78	0x00000000	0.0
79	0x00000000	0.0
80	0x00000000	0.0
81	0x00000000	0.0
82	0x00000000	0.0
83	0x00000000	0.0
84	0x00000000	0.0
85	0x00000000	0.0
86	0x00000000	0.0
87	0x00000000	0.0
88	0x00000000	0.0
89	0x00000000	0.0
90	0x00000000	0.0
91	0x00000000	0.0
92	0x00000000	0.0
93	0x00000000	0.0
94	0x00000000	0.0
95	0x00000000	0.0
96	0x00000000	0.0
97	0x00000000	0.0
98	0x00000000	0.0
99	0x00000000	0.0
100	0x00000000	0.0
101	0x00000000	0.0
102	0x00000000	0.0
103	0x00000000	0.0
104	0x00000000	0.0
105	0x00000000	0.0
106	0x00000000	0.0
107	0x00000000	0.0
108	0x00000000	0.0
109	0x00000000	0.0
110	0x00000000	0.0
111	0x00000000	0.0
112	0x00000000	0.0
113	0x00000000	0.0
114	0x00000000	0.0
115	0x00000000	0.0
116	0x00000000	0.0
117	0x00000000	0.0
118	0x00000000	0.0
119	0x00000000	0.0
120	0x00000000	0.0
121	0x00000000	0.0
122	0x00000000	0.0
123	0x00000000	0.0
124	0x00000000	0.0
125	0x00000000	0.0
126	0x00000000	0.0
127	0x00000000	0.0
128	0x00000000	0.0
129	0x00000000	0.0
130	0x00000000	0.0
131	0x00000000	0.0
132	0x00000000	0.0
133	0x00000000	0.0
134	0x00000000	0.0
135	0x00000000	0.0
136	0x00000000	0.0
137	0x00000000	0.0
138	0x00000000	0.0
139	0x00000000	0.0
140	0x00000000	0.0
141	0x00000000	0.0
142	0x00000000	0.0
143	0x00000000	0.0
144	0x00000000	0.0
145	0x00000000	0.0
146	0x00000000	0.0
147	0x00000000	0.0
148	0x00000000	0.0
149	0x00000000	0.0
150	0x00000000	0.0
151	0x00000000	0.0
152	0x00000000	0.0
153	0x00000000	0.0
154	0x00000000	0.0
155	0x00000000	0.0
156	0x00000000	0.0
157	0x00000000	0.0
158	0x00000000	0.0
159	0x00000000	0.0
160	0x00000000	0.0
161	0x00000000	0.0
162	0x00000000	0.0
163	0x00000000	0.0
164	0x00000000	0.0
165	0x00000000	0.0
166	0x00000000	0.0
167	0x00000000	0.0
168	0x00000000	0.0
169	0x00000000	0.0
170	0x00000000	0.0
171	0x00000000	0.0
172	0x00000000	0.0
173	0x00000000	0.0
174	0x00000000	0.0
175	0x00000000	0.0
176	0x00000000	0.0
177	0x00000000	0.0
178	0x00000000	0.0
179	0x00000000	0.0
180	0x00000000	0.0
181	0x00000000	0.0
182	0x00000000	0.0
183	0x00000000	0.0
184	0x00000000	0.0
185	0x00000000	0.0
186	0x00000000	0.0
187	0x00000000	0.0
188	0x00000000	0.0
189	0x00000000	0.0
190	0x00000000	0.0
191	0x00000000	0.0
192	0x00000000	0.0
193	0x00000000	0.0
194	0x00000000	0.0
195	0x00000000	0.0
196	0x00000000	0.0
197	0x00000000	0.0
198	0x00000000	0.0
199	0x00000000	0.0
200	0x00000000	0.0
201	0x00000000	0.0
202	0x00000000	0.0
203	0x00000000	0.0
204	0x00000000	0.0
205	0x00000000	0.0
206	0x00000000	0.0
207	0x00000000	0.0
208	0x00000000	0.0
209	0x00000000	0.0
210	0x00000000	0.0
211	0x00000000	0.0
212	0x00000000	0.0
213	0x00000000	0.0
214	0x00000000	0.0
215	0x00000000	0.0
216	0x00000000	0.0
217	0x00000000	0.0
218	0x00000000	0.0
219	0x00000000	0.0
220	0x00000000	0.0
221	0x00000000	0.0
222	0x00000000	0.0
223	0x00000000	0.0
224	0x00000000	0.0
225	0x00000000	0.0
226	0x00000000	0.0
227	0x00000000	0.0
228	0x00000000	0.0
229	0x00000000	0.0
230	0x00000000	0.0
231	0x00000000	0.0
232	0x00000000	0.0
233	0x00000000	0.0
234	0x00000000	0.0
235	0x00000000	0.0
236	0x00000000	0.0
237	0x00000000	0.0
238	0x00000000	0.0
239	0x00000000	0.0
