models/cifar_10_ann_model/model/model.pth (torch, 668438 bytes, 22 tensors)

conv_net.0.weight f4 [40, 3, 5, 5]
00000000: 63ef 88be 640a 34be a00a 55be a77d 7dbe
00000010: fb1b 8fbe ff21 d2bd 428a 3fbd e457 2fbe
00000020: c604 32bd a804 9dbe b7d4 c03d 0100 273e
00000030: 4603 403e 02d1 963d 76d3 79bd 6868 be3e
00000040: e005 af3e ee22 cd3e 3b20 653e bab9 263d
00000050: ea8d 943e bd91 bc3e 91bc f73e 4d7d de3e
00000060: 2fa2 483e c868 8b3e 50bf 883d 8957 eebd
00000070: 6b90 aa3d 00d4 b03e b4f3 473e 0383 0f3c
00000080: adcd f8bd 20d6 b1bd f4f5 9c3e 520e 4fbd
00000090: 9ed1 14be cafd 1abf eb6c 88be dfce 033d
000000a0: f476 b1bd 62d7 c0be b343 42bf c83c d5be
000000b0: d7e0 16be 64b2 70bd ffa6 68be 7e41 11bf
000000c0: 4c4d f0be b3be 64be 14c5 993e d82f 7bba
000000d0: 8907 24be ec07 3e3d da92 d53e 3c79 313e
000000e0: fa3a 723d 6270 32be b51a 583d 3673 e03e
000000f0: af86 0f3e 20cb acbd 6138 78be 4f21 403d
00000100: 397f d53e 703d 3dbc ebfa 8ebd 29d4 a9be
00000110: 3751 53bd 4688 c13e b1af 343e 14f8 a0bd
00000120: 0d25 c5be ced7 50be fbc9 0a3e 2a81 c23e
00000130: c904 7f3e 4ea4 e13e 8df9 d43e caaa c93e
00000140: 66b5 513e 3cc0 673d 730e ed3d 853e 14be
00000150: d698 e93d 8808 263d 4780 863e 0bd9 e53e
00000160: aeef b23e 384a a53e e681 96bd ef59 0fbe
00000170: 5d8b a83b 987b 6cbd 44e5 1bbb 0ce5 f3be
00000180: 88eb 2fbf 573f 24bf 75de 0dbf 605f 25bf
00000190: 79c4 193e 2b96 1ebd 86da 503e 96cf f9bd
000001a0: af15 9f3c 80ce 4cbe 47fe 96be bd5c b9be
000001b0: 8181 d3be 2046 efbd 8609 07bd 83d2 b23d
000001c0: 41e0 8c3e 21cb 643e 3ffc 713e eb91 db3c
000001d0: 8f5b 063d 15c6 3fbd 505f 973d dd93 c83d
000001e0: 32aa 31be d3aa c6be b750 90be 3bf3 96be
000001f0: 573e 43be e057 9b3e d976 2c3e cfe3 443e
00000200: 387b 343e c707 883e 5995 443d 1af5 19be
00000210: 2223 a4be 8c35 c8be ff59 9abd 0354 ad3c
00000220: b5de 353e 380b 173e b551 313e 57e6 003e
00000230: 56d8 ea3d 5f73 6b3e 7f64 b33d d9a3 0fbd
00000240: a596 533e 1901 63be 5681 c0be 3ff2 98be
00000250: 7196 6ebe af3c 96be 9db9 41be e321 0cbd
00000260: 4b7f 4fbd ea78 a63d 8b83 103e 3b7a a73e
00000270: 0961 153f a865 2d3f 2421 243f 9331 a53e
00000280: 425c 0c3f 668d c53e 5dcf aa3e 70c6 0f3d
00000290: f6fa 84be a265 60be 3667 d3be e5c3 eabe
000002a0: e991 00bf 50ba 0abf 6f2d 9fbe 2019 90be
000002b0: c4a9 4bbe d014 e2bd 4afd 81be 74be 6ebd
000002c0: e5b8 d6bd 2bbd 1abe 7095 10be 5e2e 883d
000002d0: 3116 3d3e 1ff3 4d3e 4421 083e eddf 5d3e
000002e0: 7bb1 693d 5154 7e3e 9fd6 9b3a 0b2e cebd
000002f0: b091 12be b032 96be a6e1 90bc 1b8f d0be
00000300: c012 e8be 2032 ccbe 21d2 8ebe 1d37 3cbd
00000310: cc1a 3bbd 8790 b53d 825a 203e 9f91 913e
00000320: cbb2 bbbe c80a 90be 9efa 56be 42d4 56bd
00000330: 6fa5 8fbc 5deb f4bd 7a20 ce3d f0b6 733d
00000340: 141a 293e a46c 613d ae50 a43e 6ec7 123e
00000350: 93a7 81bd 9f81 023d 95f3 03be 7db2 69bc
00000360: dbdc 30be 55f4 84bd 6367 d0bd b07b 743d
00000370: a921 8f3d e820 803e 6cec a63e a66e 9e3e
00000380: c15d 473e 4e1b ecbe 062d 03bf 74e1 25bf
00000390: fc4e 02bf 34c4 fdbe 267c c73d ee56 a5be
000003a0: dfa3 d1be fdc7 c7be e3f2 03bf 26d0 f33e
000003b0: e1b5 023f c159 8d3e 8f51 153e 0277 14be
000003c0: bfa4 de3e 92c4 0e3f 1af4 013f 9ab3 093f
000003d0: c7ca bb3e 670e fa3d ac4c 193e e914 373e
000003e0: e141 303e 7806 823e 041a a03d 5f7b cc3c
000003f0: 8c3d b63d 3a58 8f3d 8650 433d dd79 9e3d
-0.26745138 -0.17582089 -0.20804834 -0.24754964 -0.27951035 -0.102603905 -0.046762712 -0.17123371
-0.043461584 -0.30667615 0.09415572 0.16308595 0.18751249 0.07364084 -0.06099268 0.3718903
0.3418417 0.40065712 0.22375576 0.040704466 0.29014522 0.3682994 0.48386052 0.43454972
0.19593118 0.2722838 0.06677115 -0.1163779 0.08328327 0.34536743 0.19526559 0.008759263
-0.121486045 -0.08683419 0.30656397 -0.050550766 -0.14533088 -0.605435 -0.26645598 0.03217971
-0.08665267 -0.37664324 -0.7588455 -0.41647935 -0.14734207 -0.058763877 -0.22719954 -0.5674056
-0.46933973 -0.22338371 0.3003317 -0.00095820194 -0.160185 0.046394274 0.417136 0.17331403
0.059138276 -0.17425683 0.052759845 0.438379 0.14016221 -0.084371805 -0.24240257 0.046906766
0.41698626 -0.011550292 -0.069814526 -0.33169678 -0.051591124 0.3779928 0.17645146 -0.07859817
-0.3850483 -0.20394823 0.13553612 0.3798917 0.24904169 0.44070667 0.41596642 0.39388114
0.20479354 0.056579813 0.115750216 -0.14476974 0.11406104 0.04053548 0.26269743 0.44892153
0.34948486 0.32283187 -0.07348995 -0.1399915 0.0051435665 -0.057735056 -0.0023787776 -0.47635686
-0.6871877 -0.6415915 -0.5541757 -0.64598656 0.15016355 -0.03871743 0.2039586 -0.12197797
0.01941952 -0.20000648 -0.29490873 -0.36203566 -0.4130974 -0.11683297 -0.032968067 0.08731558
0.27514842 0.22343113 0.2363138 0.026802978 0.03280216 -0.046819765 0.07391226 0.09793828
-0.1735008 -0.38802204 -0.2818658 -0.29482445 -0.1906675 0.3034048 0.16842212 0.19227527
0.17625129 0.26568434 0.04799399 -0.15034905 -0.32058054 -0.39103353 -0.07536697 0.021158224
0.17760737 0.14750373 0.17316325 0.12587868 0.11467044 0.2299323 0.087594025 -0.035068367
0.20662935 -0.22168387 -0.37598675 -0.2987232 -0.23299576 -0.29343173 -0.18918462 -0.034212004
-0.050658505 0.08128531 0.1411268 0.32710442 0.5835119 0.6773324 0.6411307 0.32264385
0.54828274 0.3858444 0.3336133 0.035101354 -0.25972718 -0.2191377 -0.4128968 -0.4585258
-0.5022264 -0.5419054 -0.3108935 -0.2814417 -0.19888979 -0.11039126 -0.25388557 -0.0582871
-0.104844846 -0.15111224 -0.14119506 0.06649469 0.18465497 0.20112275 0.1329394 0.21667452
0.057054024 0.24836852 0.0011889524 -0.10067376 -0.14313388 -0.29335546 -0.017685723 -0.4073418
-0.45326805 -0.39881992 -0.2789469 -0.045950998 -0.045679852 0.08865457 0.15659526 0.28431413
-0.36659846 -0.28133225 -0.2099404 -0.05244852 -0.01753494 -0.119589545 0.10064788 0.059500635
0.16513854 0.05503525 0.32092804 0.14333889 -0.0633079 0.031861898 -0.12885888 -0.014263746
-0.1727175 -0.06491915 -0.101759695 0.05968827 0.06988842 0.25025105 0.3260225 0.30943793
0.19469358 -0.46114582 -0.51240575 -0.6479714 -0.5090177 -0.49563754 0.09740476 -0.32292885
-0.40945336 -0.39019766 -0.5154249 0.47619742 0.51058775 0.2760754 0.14581893 -0.14498523
0.43485066 0.5576869 0.50763094 0.53789675 0.36678144 0.12209778 0.14970654 0.1787907
0.17212631 0.2539556 0.07817462 0.024961172 0.08898458 0.0699925 0.047684215 0.07738087

conv_net.0.bias f4 [40]
00000000: 4cb1 34be 047c 0e3c c4d9 db3d df00 033d
00000010: 62dd 203a 4b92 ddbd fed0 013c fe18 23bd
00000020: fde1 523c 8737 46bd 7dbe cbbd a8ee 3d3d
00000030: f663 9fbd c9a1 ccbd 07ee e23d e7e0 f6bb
00000040: 2e6b 9ebd de64 92bd c149 113e a020 ec3d
00000050: 668c b9bd dfd6 b93a ad37 a03b f9fc ae3d
00000060: 356a 943d fcdc 79bc b622 d6bd 023f 12bd
00000070: c5c3 633d f83e 773d f757 64bd f76f 80bd
00000080: 4ad1 cb3d 999c 523d 2dc5 bbbc 35d5 6c3c
00000090: 7fed 1abd 474e 5ebd 2e4c 9e3d fe52 27bd
-0.17645758 0.00869656 0.10734895 0.031983253 0.0006136504 -0.10818919 0.007923363 -0.039818756
0.012871263 -0.0483928 -0.09948442 0.04637018 -0.07782738 -0.099917956 0.11080556 -0.0075341347
-0.07735287 -0.07148145 0.14188291 0.1152966 -0.09059982 0.0014178416 0.0048894496 0.085443445
0.0724682 -0.015250441 -0.10455839 -0.03570462 0.055606622 0.060362786 -0.055747952 -0.062713556
0.09952028 0.051418874 -0.02292117 0.014455129 -0.03782415 -0.05427387 0.07729374 -0.040850632

conv_net.1.weight f4 [40]
00000000: 5a8a 6b3f ec84 833f bae5 7d3f 4688 873f
00000010: 38cd 6c3f db06 583f c1e4 563f 5cb1 6c3f
00000020: 782f 833f a71e 7c3f 9d69 523f c4cd 743f
00000030: 2429 793f c1fd 7d3f 059a 8e3f 0b54 7d3f
00000040: e571 613f 2f6d 5d3f 0d88 813f 8dcb 883f
00000050: 0515 973f 6aac 9c3f 5d9c 643f 14d4 233f
00000060: ee1b 833f 494b 8b3f 07e4 7d3f 5a24 8b3f
00000070: 500a 633f 4efb 4b3f 9ebd 673f 5888 833f
00000080: b80d 4a3f f29a 773f 51e7 4a3f 87f7 6c3f
00000090: b21d 993f 50a5 583f 5de3 813f b11a 893f
0.9200798 1.027494 0.9917866 1.0588462 0.9250064 0.8438546 0.839428 0.9245813
1.0248861 0.9848427 0.82192403 0.95626473 0.973284 0.9921532 1.1140753 0.98956364
0.88064414 0.86494726 1.0119644 1.0687119 1.180329 1.2240117 0.8930109 0.6399548
1.0242898 1.088235 0.9917607 1.0870469 0.8868761 0.79680336 0.9052371 1.0275984
0.78927183 0.967208 0.7925921 0.92565197 1.1962187 0.84627247 1.0147511 1.071127

conv_net.1.bias f4 [40]
00000000: aa87 75bf a283 c6be e1cd 1bbf fa92 2fbf
00000010: 507a 21bf bd2c 7fbe 0f67 02bf 3397 c9be
00000020: ba09 10bf b68a 18bf 2c29 f9be c9c0 e2be
00000030: 88a6 a8be f10a 2dbf 2d3f 46bf 08c3 e7be
00000040: 0c8f c5be 01bd 5dbe 4c55 a6be e091 30bf
00000050: ab6d 0dbf 6e2e 06bf 5e9c e0be 3986 7d3e
00000060: 16e2 6bbf 7ac9 e0be ed26 d83c 0db7 d1be
00000070: 537f 96be 976c 9dbe e8ca 3bbe fc07 8fbe
00000080: 1d9e 333d cea0 fbbe a469 cebe 2d83 ccbe
00000090: 76cd 4fbf e320 fbbd b44c bfbe c0a7 0bbf
-0.9591013 -0.38772303 -0.6086102 -0.68583643 -0.6307726 -0.2491941 -0.50938505 -0.39373168
-0.5626484 -0.59586656 -0.48664224 -0.44287708 -0.32939553 -0.6759482 -0.7744015 -0.45265985
-0.385857 -0.2165413 -0.3248695 -0.6897259 -0.55245465 -0.52414596 -0.438693 0.24758233
-0.92141855 -0.43903714 0.026385749 -0.4095997 -0.29394016 -0.3074691 -0.18339121 -0.2793578
0.04385196 -0.49146122 -0.40314972 -0.3994383 -0.81172884 -0.12262132 -0.37363207 -0.5455284

conv_net.1.running_mean f4 [40]
00000000: e6fe 2cbd 9bb1 3f3e d453 f13d e7fe 953d
00000010: 248c a33b de4f e1bd 9ca8 5f3d 080c 00be
00000020: 3ad4 123d 9127 aabd fb33 a2bd 0b2d 6d3d
00000030: e7e8 82be 4605 0abe 3613 993d da6b 48bc
00000040: f5c5 4ebd 22a2 08be 81a4 433e 3315 e63d
00000050: d61c aebd 94a7 2bbb e9ba 2e3c 0823 64ba
00000060: 41d5 7f3d ac7f 1bbd 15a8 3abe ef5b 9bbe
00000070: 9af4 c83c 948a f53d 3e9c 61be e4bf 81bd
00000080: f728 a73d 78a4 223e ebee f9bc 81a2 59ba
00000090: 6239 37be ff02 e5bc f51d 8b3d 750d 033e
-0.042235278 0.18720095 0.11783567 0.073240094 0.0049910713 -0.110015616 0.054604158 -0.1250459
0.035846926 -0.08308328 -0.07920071 0.057904284 -0.25568315 -0.13478574 0.07474367 -0.012232745
-0.050481755 -0.13343099 0.19105722 0.11234512 -0.08501594 -0.0026192414 0.01066468 -0.000870273
0.062459234 -0.037963554 -0.1822818 -0.30343577 0.024530698 0.11989322 -0.22032258 -0.06335428
0.0816211 0.15883052 -0.030509433 -0.0008302108 -0.17892984 -0.02795553 0.06792823 0.12798102

conv_net.1.running_var f4 [40]
00000000: 6834 8f40 dc17 6b41 5a6b ab40 ff17 6540
00000010: 1b83 0c41 450d a53f f738 9340 6ba8 9941
00000020: b213 fc40 4ada 1b40 39c7 6741 a7f2 a740
00000030: fba9 1942 ef8b 1d40 fd50 0c41 98de ed3f
00000040: e2c7 a240 f9c8 3c41 6908 0640 5396 e53f
00000050: f98a e53f 24a2 a63f 328b 9940 2657 b441
00000060: 1a7d 8142 ba66 f43f 0491 a440 2f43 ef41
00000070: 0081 c541 7f45 fa40 8653 1a41 bf41 0140
00000080: 57b2 db41 df82 1f41 fceb 393f 2a05 b03f
00000090: d388 9540 d4e7 a641 f1df 9840 73e7 3042
4.4751472 14.693325 5.3568544 3.5795896 8.782008 1.2894675 4.6007037 19.207235
7.877404 2.4351983 14.486138 5.2483706 38.415997 2.4616659 8.769773 1.8583555
5.0868998 11.799066 2.0942633 1.79365 1.7933036 1.3018231 4.7982416 22.542553
64.74434 1.909385 5.142702 29.907804 24.687988 7.8209834 9.645391 2.0196378
27.46208 9.969451 0.7262571 1.3751576 4.672952 20.863197 4.7773366 44.226025

conv_net.5.weight f4 [20, 40, 5, 5]
00000000: 8c51 43bd e74e dbbe b904 13bf 6407 8cbd
00000010: b05b 143f 0588 ffbe 3bce dfbe bf73 e3be
00000020: 5cba 72be 5d76 663e 88f9 27bf 76c5 7ebf
00000030: 7c11 05bf 94e1 dabd 9aa6 9cbe a1db e8bd
00000040: c34c 1cbf 35cc d6be cdf3 c4bb 4227 e7be
00000050: a838 7bbc a96d bfbe 7a0b cfbc b7ce 9c3e
00000060: 02f7 cdbe 85d9 043e bb3f 663e bbff a53d
00000070: 544c 073e 4a94 dbbd 6382 333e 5ef6 573e
00000080: 794a 383d 7bd4 f4bd 1cab 7ebd ebc6 9d3d
00000090: 2b2d 623d a709 c0be d2dd c9be f86d adbe
000000a0: a6d0 e1bd f536 8abe 6397 bdbe 72fa 12bf
000000b0: 140e 45be 4b1a 01bf a353 a3be fd22 c6be
000000c0: ba73 80be 5ab8 19be d8e8 be3e 52cb 7a3e
000000d0: 4a5f 1a3e 66b5 8f3d 0360 c7be 26ec c2be
000000e0: 84b5 24be 95d9 333e 4cba 8a3e 73bf 8bbe
000000f0: 2a17 01bd f3ee 1e3d b363 5c3e 33d5 813d
00000100: 74f7 d5bc 07c6 12bd c66c 45bd f2ea 49bd
00000110: 1898 0dbd 938c 91bd 2a00 ca3d f7fb 633e
00000120: 6b74 913d 8615 403d 569e 3a3e d8eb aebd
00000130: 55db bb3c 15ce 25be 35af 29be ab52 b7bd
00000140: 3d28 b53e c57e a13e 8529 973d 3491 df3a
00000150: 8db9 a8be af76 6e3e 8105 553e 094b 90be
00000160: 48c9 8abe 8686 f3be 48be 133e fa5c c53a
00000170: 27a0 21be b461 b3bd 33e3 09bd d6c7 393d
00000180: 45e5 4f3e ff20 10bd 8fc8 a2be cba1 a4bd
00000190: 38c2 5c3e 1658 303d 8919 003e 4263 79bd
000001a0: 66f8 023f 1158 6cbb 49e1 40bd 1d1e a43d
000001b0: 2027 8c3e 5424 fa3e 502c 40bd f5fa 3cbe
000001c0: bb42 7cbd fd1f 363e 3002 773e 7c79 66be
000001d0: b093 e13d c4ba 4d3e 012e 8f3e a76a 893e
000001e0: faea 62bd 9be9 f83c e7a7 fd3e 3c99 aa3e
000001f0: 0ad9 a2bd 499c 48bd 5359 52be 4e77 f7be
00000200: 9dc1 2fba f7c8 123f a7a4 91bc 2c2f 92be
00000210: 2411 54bf 2769 f0be 8ea5 233d 4434 51bf
00000220: cbbc cbbe 6cf5 07bf 541f 2abd f1a4 8abe
00000230: b88b 34be 3d1b 293d 2487 32be eec4 15be
00000240: 9e48 42be 86e3 c9be 68f8 003e 17cf 893e
00000250: 2b97 18bd 1c99 453c 19b8 a5be 4a90 31be
00000260: e294 3a3d 257c ffbd 8ce4 72be 9977 06be
00000270: 9589 22be be2f 413e 540c 1f3d 8aa0 533d
00000280: f378 173c fdbc 17be b93d 2c3d fdfb edbd
00000290: 7cac 423e 096d 623e 14f9 38bc 2a09 d1bd
000002a0: fa22 8a3d c186 853e e814 0a3e 8e76 a13c
000002b0: 24f1 903e 2c96 643f 67eb f13e 2cc5 bc3e
000002c0: f79a 4ebe 1018 a7be ba93 463e b4af 74be
000002d0: c56c 0f3e 0831 d93b f6f7 34be 3590 e43d
000002e0: 67df 60be 2073 c03b 58e2 8b3e 8cea 14be
000002f0: b3ec 18be 7411 913b 672a 3fbe 8265 323e
00000300: 9e3a 153e e261 31be 8515 c6bd 19cb c6be
00000310: 7c74 363e e1a3 bf3e cb94 1d3e 9ba8 0cbd
00000320: 7d1f bd3d b2b8 43be bc4a d2be 439a 9ebe
00000330: 62f7 783e 0c56 dd3e 9a45 26be 6544 09bf
00000340: 6e51 4cbf a7ee bcbd 608d 873e 7e8e 73bd
00000350: 3bbd 0fbe ff76 0cbe db8f 7dbe eeec 32be
00000360: a187 823d 6310 a93e 4ce4 db3e 2f20 553e
00000370: 4703 13bf f789 72bd f0a3 283e 696c bb3e
00000380: bce2 dd3d a883 6abe f448 1fbd 8c14 73bd
00000390: 61e4 59be 7d36 c93d ddbd 6fbe 7954 75be
000003a0: d412 de3e e5f3 bf3e f31f a43e d1be c5be
000003b0: d81d af3e 1b2a e63e bb65 c13e 6149 e1bd
000003c0: 4bd5 a83e 4b5a 013f f475 fc3e 12a5 ae3e
000003d0: 2401 1f3e 9c56 b93e 1189 803e 3844 893e
000003e0: cb80 7d3c 0a6a 733d 79cd 8c3e 7c73 953e
000003f0: 22bc ad3e b6c1 3f3e e4c1 a33e 42af 4a3e
-0.04768519 -0.42833635 -0.5742908 -0.06837347 0.57952404 -0.49908462 -0.4371203 -0.44424245
-0.23703903 0.2250609 -0.6561513 -0.9952005 -0.51979804 -0.10687557 -0.30595857 -0.11370016
-0.6105463 -0.41952673 -0.0060105086 -0.4514714 -0.015333332 -0.37388352 -0.025274027 0.3062646
-0.40227515 0.12973602 0.22485249 0.08105417 0.1321271 -0.10721643 0.17530207 0.21090075
0.044992898 -0.1195459 -0.0621749 0.07703956 0.055218857 -0.37507364 -0.39427048 -0.33872962
-0.11026125 -0.26995054 -0.3702956 -0.574134 -0.19243652 -0.50430745 -0.31899747 -0.3869857
-0.25088292 -0.15011731 0.3728702 0.24491623 0.15075412 0.07017021 -0.3894044 -0.38070792
-0.16084868 0.1756347 0.27095258 -0.27294502 -0.03151623 0.0388021 0.21522407 0.06339493
-0.026118971 -0.035833385 -0.048199438 -0.049296327 -0.034568876 -0.071068905 0.098633125 0.22264086
0.07102283 0.046895526 0.18224463 -0.085410774 0.022931734 -0.16191895 -0.16570742 -0.089513145
0.35382262 0.3154203 0.07380966 0.0017056824 -0.32954064 0.23287462 0.20802881 -0.28182247
-0.2710669 -0.4756357 0.14428055 0.0015057616 -0.1578375 -0.0875887 -0.03366394 0.045356594
0.20302303 -0.035187718 -0.3179364 -0.08038672 0.21558464 0.043052755 0.12509741 -0.060885675
0.51160276 -0.0036063234 -0.04708985 0.08013556 0.273736 0.4885584 -0.04691726 -0.18455108
-0.061587077 0.1778564 0.24121928 -0.2250728 0.11014497 0.20090777 0.27964786 0.26839182
-0.055399872 0.03038483 0.49542162 0.33320034 -0.07951553 -0.04897717 -0.20541887 -0.4833321
-0.0006704571 0.573379 -0.017778708 -0.28551614 -0.82838655 -0.46955225 0.039952807 -0.81720376
-0.39792475 -0.5310886 -0.041533783 -0.27078965 -0.17631423 0.041285742 -0.17434365 -0.14625904
-0.18973014 -0.394314 0.1259476 0.2691581 -0.03725354 0.01206043 -0.32367018 -0.17340198
0.045552142 -0.124748506 -0.23719996 -0.1313156 -0.15872796 0.18865868 0.038830116 0.051666774
0.009245145 -0.14818187 0.04205105 -0.116203286 0.1901111 0.22111906 -0.011289854 -0.10206826
0.067449525 0.26079372 0.13484538 0.019709852 0.28308976 0.89291644 0.4724991 0.3686918
-0.20176302 -0.32635546 0.1939229 -0.2389515 0.14006336 0.0066281594 -0.17672715 0.11160318
-0.21960221 0.005873099 0.27321124 -0.14542598 -0.14934044 0.0044271294 -0.18668519 0.17421535
0.14573142 -0.17322496 -0.09672073 -0.38826826 0.17817873 0.37429717 0.15388791 -0.034340482
0.092345215 -0.19113424 -0.41072643 -0.30977067 0.24313119 0.4322971 -0.16237488 -0.53619987
-0.7981175 -0.09225207 0.26475048 -0.059462063 -0.1403703 -0.13717268 -0.24761908 -0.17473194
0.063735254 0.33020315 0.42947614 0.20813058 -0.57426876 -0.059213605 0.16468787 0.36606148
0.10834262 -0.22901785 -0.038887933 -0.059345767 -0.21278526 0.09824846 -0.23412271 -0.23958005
0.4337374 0.37490764 0.32055625 -0.38622144 0.34202456 0.44954 0.37772927 -0.11000324
0.3297523 0.505284 0.4930874 0.34110314 0.15527779 0.3619889 0.25104573 0.2680986
0.015472601 0.0594273 0.27500513 0.2918967 0.33932596 0.18726239 0.31983864 0.19793418

conv_net.5.bias f4 [20]
00000000: a2bf f7bb 20c7 0fbd c61e 3f3b 5b4c ebbb
00000010: bb72 3b3c 8dc3 9c3c a051 e83b 1a86 bebc
00000020: 996d e23b b2c8 e2bc 19b9 e5ba e305 11bd
00000030: 2178 71bc b284 21bd da75 02bd 2d2a 91bc
00000040: c2e1 f8bc 1278 8dbc 4c75 8dbd 7b2e 2f3d
-0.007560686 -0.03510201 0.002916263 -0.007180733 0.011440928 0.019136215 0.0070898086 -0.023257304
0.0069100377 -0.02768359 -0.0017526477 -0.035406005 -0.014738114 -0.03943319 -0.031850673 -0.017720306
-0.030381087 -0.017269168 -0.06907138 0.042768937

conv_net.6.weight f4 [20]
00000000: a767 9a3f 19d7 723f 2c6e 703f 1f80 853f
00000010: 3e08 9f3f e49e 813f d461 613f f1cd 723f
00000020: f6ec 7b3f 82c0 743f da1f 7a3f 7a69 563f
00000030: 38ae a63f a4b3 813f b30d 723f 5700 843f
00000040: 3156 803f bdba 663f 5b1c 903f fe7d 943f
1.2062882 0.9485946 0.9391811 1.0429724 1.242439 1.0126615 0.880399 0.9484549
0.9840845 0.95606244 0.9770485 0.83754694 1.3021917 1.0132947 0.94552153 1.0312604
1.0026304 0.9012869 1.1258653 1.160095

conv_net.6.bias f4 [20]
00000000: 9185 48bf f7c9 27bf fc29 b7be 62e1 17bf
00000010: 181e 50bf 76de 07bf 1d1f e0be 587b f3be
00000020: 96f9 12bf 85c5 10bf 877b 11bf 65f6 cebe
00000030: 911a 49bf 262f 10bf 80a3 0fbf c6a4 0ebf
00000040: bc99 0fbf db0a d6be 53bd 33bf 44f8 4ebf
-0.78328806 -0.6554255 -0.3577422 -0.5932828 -0.8129592 -0.53073823 -0.43773738 -0.4755504
-0.5741209 -0.5655139 -0.5682911 -0.4042236 -0.7855616 -0.5632194 -0.56108856 -0.55720174
-0.56093955 -0.41805157 -0.7021076 -0.80847573

conv_net.6.running_mean f4 [20]
00000000: 4e58 1cc1 6f46 06c1 fc6d f2bf da65 9ec0
00000010: a25f cec1 c3af bdc0 4da1 17c1 329e 5140
00000020: f441 11c1 5493 e7c0 6d8a 5ec0 1312 78bd
00000030: e67e 48c1 10f9 08c1 493b 1fc1 e98e c6c0
00000040: 1ef3 1ac1 134f 10c1 c6f5 6cc1 f00a 84c0
-9.771559 -8.392196 -1.8939815 -4.949933 -25.796696 -5.9277053 -9.47688 3.2752805
-9.078602 -7.2367344 -3.4771988 -0.060564112 -12.530981 -8.560806 -9.951974 -6.204945
-9.684355 -9.019305 -14.810003 -4.126335

conv_net.6.running_var f4 [20]
00000000: 48ac b243 d362 6043 7ce7 9043 a455 7c43
00000010: 40d6 1344 0ad5 7043 87fa 7043 8ad9 8643
00000020: 4e4a a543 1947 1c43 cbe2 9c43 768d 3843
00000030: 650d d443 6f86 7c43 17b8 9943 1c60 6b43
00000040: a603 9c43 8b87 8d43 bb64 8743 1872 4043
357.34595 224.38603 289.80847 252.33453 591.34766 240.83218 240.97862 269.69952
330.5805 156.27773 313.77182 184.55258 424.10464 252.52513 307.4382 235.37543
312.0285 283.05893 270.78696 192.44568

linear1.weight f4 [240, 500]
00000000: ab27 c1bc 8890 35bd 2944 60bd 8aa2 c1bc
00000010: 9e07 b23c d23c be3a f7fe 2c3c d4de bfbc
00000020: 708c 26bd 14b3 9ebc bbfd 87bc 2031 09bd
00000030: cd50 fbbc 93a4 36bd d40f f83b 08f2 25bd
00000040: 2f28 a63c 77d0 a7bc 7c02 8ebc dce7 9fbd
00000050: ddf8 dbbc 81a4 093d 8e87 38bd eeae fa3c
00000060: a80a 90bd 83da d93c 4b1d 8bbb 1cd9 f7bc
00000070: d3d0 9c3c 815d 423c 74d7 a53b d976 18bd
00000080: 61dd 923b c7ed 45bb 24f4 383c a601 c73c
00000090: 3fa4 9eba 2ae6 47bd 4e35 2fbd 52bf 343d
000000a0: bdc3 5dbc 325e 843a 5a55 d538 e239 9b3c
000000b0: afae b0bc e4c8 023b 8f0b 873c b78a 2abc
000000c0: 39fd 1dbd 5e8a 9f3c 1aef b43d 39f1 983c
000000d0: 2863 013d 1e86 183d 9f4b a33c 205a 2fbd
000000e0: d66e 7a3b 4dcb ce3c 9248 cbbc 1cb7 adbc
000000f0: 0062 843b 3705 06bd e963 27bd 2ad6 7abc
00000100: b518 2abc e10c 65bd 331f 9ebc 9b8b 52bb
00000110: 8e9d e6ba 7e9e c93c c99d 0bbd 0097 64bd
00000120: ea28 d0bc c938 3dbd 0335 66bd 836e 483d
00000130: 518f 92bc d79f b5bc 0e99 8bbb b6b2 b9ba
00000140: 098c e2bb 1c98 36bd 63b6 7d3c c9ba 5ebd
00000150: c2d1 55bd a59c c2bc 1b89 ecbc 0570 14bb
00000160: 4c29 92bb 7e78 b5ba edbe e4bb ebce a63b
00000170: d54f c2bc b59f 113d c12a e03c f35d ce3c
00000180: 97c0 a53c 838e 0cbd 9b24 063d 258b 6dba
00000190: 9d43 073d 3739 d03c 5798 e03c 5c86 8fbc
000001a0: 87eb ec3b a811 b7bc beb7 95bc 981d 0dbd
000001b0: a913 00bd 2642 3e3b 9f0a d8bc 876d 90bc
000001c0: 705f 7bbd d98d a13b e495 863c 056b 6fbd
000001d0: ad0a acbb 3c42 2cbd b67e bd3c 710a 60bd
000001e0: 5cde 713b 7d12 97bc 6f61 453c edaa f4bc
000001f0: 7210 bbbc e011 d4bc 7b4c 46bc 46cc 463c
00000200: bea4 d53b 4583 89bc 5a85 efbc 50fc dcbc
00000210: c32c 06bd 4226 21bd 11a7 d3bc 4da1 62bd
00000220: 686e 83bd 1619 ebbc a538 5fbc 91c8 433c
00000230: 534b 17bd 12d2 b3bc ac7a a2bc 6b36 a4bc
00000240: f6d6 edbc 2125 4bbd 66f4 19bd f603 5fbd
00000250: ccd1 b13c 0589 013d cd42 d6bc 5dbc 9cbc
00000260: 4341 e3bc 6115 abbd 6bf7 16bd 372b 41bd
00000270: 9fec 6abd dc6e eabc 848e e03a 4efd 1bbd
00000280: c069 73bd a9ed a5bc b640 09bd 09b2 e93c
00000290: 64e8 583c b810 b53c cc1a e2bc d92b 293c
000002a0: c6f5 15bd 4f2e 113d aa38 fd3c 5809 c5bc
000002b0: e7e9 5c3c afc9 d4bc df76 2bbc b85c e3bc
000002c0: 3905 79bb 3d54 5fbd 24f2 a4bc 54d8 d2bc
000002d0: 3b01 bc3c b796 dabb 7e8b f13c 57a4 0bba
000002e0: cb62 efbc 4d4a b5bb a905 733c 1100 20bd
000002f0: 000b 87bc 0fb5 0a3d 226e dcbc d7e7 75bd
00000300: e651 fabc 63f8 f23c 32a3 06bd 914d d7bc
00000310: a11b a93c 1482 183d 6062 933c 9075 b5ba
00000320: f66d 523c 631c 20bc a544 2bbd b838 c53c
00000330: bfbe 253d 539e e6bc 3cad a3bc cd98 43bd
00000340: e939 493c b665 b9bb 1f87 1cbd fc71 97bb
00000350: 9294 023c d67d 183c e352 ba3c 1ce1 1cbd
00000360: e650 88bd cc76 71bd e044 0a3a 352d 52bd
00000370: d728 72bd 4022 84bd e79a 843c 57cc 293b
00000380: c952 7e3c 2a9e eabb 9f34 f0bc bc3a d5bc
00000390: 357d fdbc 3f3d 54bd e1f4 de3a 55ab 51bd
000003a0: 40b0 0b3d ce3a 50bc cb4b 57bd 50e0 0a3b
000003b0: f767 9cba 6ab5 423b 1952 77bc 6e2c 04bd
000003c0: 09d2 43bd 08c1 9d3a a0f6 8dbc df5d d2bc
000003d0: 5edb e5b9 2f11 30bc da15 11ba 0677 683c
000003e0: 5c20 fa3c 845a 72bd 1a67 7e3c 20a5 51bd
000003f0: c3ee dcbc b779 1ebc ecc6 44bd b036 a2ba
-0.023578485 -0.04432729 -0.054752503 -0.023637075 0.021732148 0.0014513975 0.010558835 -0.023421682
-0.040661275 -0.0193725 -0.01660048 -0.033494115 -0.030678177 -0.044590544 0.0075702462 -0.040514022
0.020282833 -0.020485146 -0.017335169 -0.078078955 -0.026852066 0.03360415 -0.04505115 0.030600991
-0.070332825 0.026593452 -0.0042454354 -0.030254893 0.019142544 0.011863113 0.0050610844 -0.037222717
0.004481957 -0.003020154 0.011288676 0.024292778 -0.0012103393 -0.048803486 -0.042775445 0.04412777
-0.013535437 0.0010098873 0.000101725294 0.0189485 -0.02156767 0.0019956166 0.016485004 -0.010409049
-0.03857157 0.019475158 0.088346675 0.018669711 0.031588703 0.03723728 0.01993352 -0.04281056
0.0038213036 0.025243426 -0.024814878 -0.021205477 0.004040003 -0.032719817 -0.040866766 -0.01530985
-0.010381867 -0.055920485 -0.019301986 -0.0032126668 -0.0017594562 0.024611708 -0.034086023 -0.055808067
-0.025410134 -0.046196733 -0.0562029 0.048933517 -0.017890604 -0.022170944 -0.004260189 -0.001416764
-0.006913666 -0.044578657 0.015485379 -0.05437735 -0.052201994 -0.023756335 -0.02887397 -0.0022649777
-0.0044604894 -0.0013845114 -0.006980768 0.0050905845 -0.023719708 0.0355527 0.027364137 0.025191283
0.020233436 -0.034315597 0.032749753 -0.00090615667 0.033023465 0.025417907 0.027416391 -0.017520122
0.0072302255 -0.022347286 -0.018276092 -0.03445205 -0.03126875 0.0029031127 -0.026372252 -0.017630352
-0.061370313 0.0049302396 0.016428895 -0.05845167 -0.005250296 -0.042055354 0.02313171 -0.054697458
0.0036906218 -0.018441433 0.012047156 -0.02986666 -0.02283499 -0.02588743 -0.012103195 0.0121336635
0.006519883 -0.016786227 -0.029238392 -0.02697578 -0.03275753 -0.039343126 -0.0258365 -0.05532961
-0.06417543 -0.028698485 -0.013624345 0.011949674 -0.03693707 -0.021950755 -0.019833885 -0.02004548
-0.029033165 -0.049595956 -0.037586592 -0.054447137 0.021706484 0.031624813 -0.0261549 -0.019132787
-0.02774108 -0.08353687 -0.03685705 -0.047160354 -0.057354566 -0.028617315 0.0017132317 -0.038083367
-0.059427023 -0.020254927 -0.03350898 0.028527277 0.013239 0.022102699 -0.027600668 0.0103253955
-0.03661134 0.035444554 0.030910809 -0.024052307 0.013483501 -0.025975076 -0.010465353 -0.027754173
-0.0037997498 -0.054523695 -0.020134993 -0.025737919 0.022949805 -0.0066707986 0.02948546 -0.0005326918
-0.029221913 -0.005532539 0.014832892 -0.039062563 -0.016484737 0.033864077 -0.026907984 -0.060035553
-0.03055663 0.029659456 -0.03287048 -0.026282104 0.020643057 0.037233427 0.017991245 -0.001384424
0.0128436 -0.009772393 -0.04181351 0.024074897 0.040465113 -0.028151667 -0.019980066 -0.047753144
0.012281873 -0.005657877 -0.0382148 -0.0046217423 0.007969992 0.009307345 0.022744602 -0.03830062
-0.06656055 -0.058951184 0.00052745454 -0.051312644 -0.05912098 -0.06451845 0.016187144 0.002590915
0.015522667 -0.007159968 -0.029321967 -0.026028983 -0.030943492 -0.05181622 0.0017010235 -0.051188786
0.034103632 -0.012709333 -0.052562516 0.002119083 -0.0011932839 0.0029710182 -0.015095257 -0.032268934
-0.047807727 0.0012035677 -0.017329514 -0.025679527 -0.00043841725 -0.010746284 -0.0005534567 0.014188534
0.030533008 -0.059168354 0.015527511 -0.051182866 -0.02696932 -0.009672574 -0.04804127 -0.0012375917

linear1.bias f4 [240]
00000000: 9184 69bd cb93 53bc a338 a4bd 0ab3 583e
00000010: 59b1 3abe 1045 ab3d f268 20bf bcd7 943e
00000020: 93fa 293e 93c7 8fbe 7605 833d 4ab0 fdbe
00000030: 2197 adbe 4789 29be 8805 03bf 87a2 be3d
00000040: d82c cf3e 61e4 58bd af0f 263b de82 a33d
00000050: 4ce3 08bd 39b2 84bc 6593 a7be 4157 c1bd
00000060: a022 3abe 5e11 83bc 09b9 aabe d761 d1bc
00000070: 8f6a 3fbe 86ad 813d 164f de3d 45e0 f73e
00000080: 96ac 10bf 152f bcbe b230 ecbd 17bf 5bbe
00000090: 1eaf 24bd db96 36bf f966 dd3d ac6a 89bc
000000a0: 8b39 0f3f 810d 323e 222b 41bd 21c9 3dbf
000000b0: cf36 07bf 7a3f 9ebd 0641 763e 411a fe3e
000000c0: 25bf 77bd cb16 a43e c3b3 efbc 505a 30bd
000000d0: 546b b3be 25eb ad3d 1de2 cb3c 05d3 03bc
000000e0: 039d 6abd 3fcd 0f3f 660c 213f 602d cfbd
000000f0: eb6f 223c a5b8 a5bc 403f 9fbe 76c9 d6be
00000100: 04e4 fbbc ebfd 7e3e 1f8f e53e 8255 4fba
00000110: 23e8 80bd bb73 28bf f813 983d 8e9a 77be
00000120: b8a8 d53e 0ecc 9cbd 177b 97bd cc15 98bd
00000130: 9f16 0ebf 75f8 3fbe eb05 d5be 0fc1 3b3e
00000140: 9df2 83be 36e5 99bd 515e 69bf 9906 37be
00000150: c478 7abd a3e8 8dbd 33e4 18bf f2bb 1b3e
00000160: 6ed7 983d 778a 843e eb9f 563e f1a6 d2bd
00000170: e3b2 83bc 0ec9 c83e 81d7 23be 2f12 b03e
00000180: 6da9 d83e 4b5a b73e 278b 4b3d c284 80be
00000190: 3764 50bd aead 70bd 6101 903e 2b01 11be
000001a0: 88b2 0b3f db55 e23e 00c0 b9be 2cc5 d4be
000001b0: faa7 57bc a7f8 ac3e 987e f1be cae0 a8be
000001c0: 23a7 a0bd 108e 79be 97fd a6be 5f8f 82be
000001d0: 5380 4e3e 973f f8be dccd 443e 4d88 6b3c
000001e0: f622 cd3d 4053 b0bd 8705 adbd 8c82 8fbe
000001f0: f691 cabe c3d2 043e e33d 2abc d140 a0be
00000200: 288c b73e 5080 963e 77db 82bc 30e0 043e
00000210: 93e4 fa3d 3f39 e6be c216 a4bc 194c bd3e
00000220: 3989 23bf 769b 27bf aef1 8dbe 4ee8 a33d
00000230: 83b8 f5bc afbf a8bd 57db 003e d533 45be
00000240: 23f0 01bd ae35 9bbe dc88 06bd f658 e8bc
00000250: c0c2 6d3c 499d e83b 240d 8cbe fd47 b0bd
00000260: 61ef 043f 66a8 b43e 075e a7be 278d 0d3f
00000270: 67e8 9d3e e1c7 b63e 1d3a 2abe e418 e93d
00000280: c09a b0bb 7042 77bd 0096 dabe 4209 463e
00000290: 1cd3 1dbe 5c7b ad3e 7a5b ae3d ebed a2bd
000002a0: d025 e1be 2460 303e 6e78 45bc 0285 eb3c
000002b0: 2001 d43d 3557 c53c 1fb5 a7be db64 a9be
000002c0: 952d c8bc 9d16 96be 095d 373e b2d3 7dbd
000002d0: 0e28 66bd b73d 91bd 86aa 5f3e d50f 133f
000002e0: 9c58 85be 88ec e03e 7685 ae3e 1d78 1ebe
000002f0: b156 33bd 8882 b4be 6937 0abf 23d7 82be
00000300: e41f bc3e 5fb2 c9be 64f9 4fbe 6698 89bd
00000310: 569e d2bd 9bae 8e3e 3f18 3c3b 8d67 84bd
00000320: f614 09bd f4cb 3bbd 7488 9ebe 7235 e03e
00000330: c353 4dbd d8ac c43e 3abd e13c bdc0 66bf
00000340: 9b6a a5bc a59c acbe 720b bcbe c4c4 f3be
00000350: cd4e 633c 3479 403b 5ccc f83e 5354 a93e
00000360: eb25 e13e cd2b 383f 090f 03be da30 d13d
00000370: e1bb e93c f3db 94bd f98e a4be 929c cd3e
00000380: 8dfd 633e 6128 dfbd ca92 873d e8a7 16bd
00000390: 1bd8 80bd c032 81bc b7f5 13bf 6f36 683e
000003a0: 7af9 f3bd 0710 f7be 6c6b 9fbe 7f49 163c
000003b0: 59a7 9f3e c395 bd3e 281a ef3e 5202 9dbe
-0.05701119 -0.012913655 -0.08018615 0.21162048 -0.18231715 0.08362782 -0.62660134 0.29070842
0.16599493 -0.2808195 0.06397526 -0.4954856 -0.33904365 -0.16556273 -0.51180315 0.093083434
0.404639 -0.052952174 0.0025338938 0.07983945 -0.033419892 -0.016198264 -0.3272964 -0.094404705
-0.18177271 -0.015999492 -0.33344296 -0.025559349 -0.18692993 0.06331925 0.10854928 0.48413292
-0.56513345 -0.3675467 -0.115327254 -0.21459614 -0.040206067 -0.7132394 0.10810656 -0.016774498
0.5594718 0.17387964 -0.047160275 -0.74135023 -0.52818006 -0.07726951 0.24048242 0.49629405
-0.060485024 0.3204864 -0.029260522 -0.04305488 -0.35042822 0.08492116 0.024888093 -0.008045916
-0.057278644 0.56172556 0.62909544 -0.101160765 0.009914379 -0.020229647 -0.31102943 -0.41950577
-0.030748375 0.2490155 0.44835755 -0.0007909165 -0.062942766 -0.6580159 0.07425684 -0.24180052
0.41730285 -0.07656108 -0.073965244 -0.074260324 -0.5550327 -0.18747123 -0.41606078 0.18335365
-0.25771037 -0.07514422 -0.9115954 -0.1787361 -0.061150327 -0.069291376 -0.59723204 0.15208414
0.07462965 0.2588689 0.20959441 -0.10285748 -0.01607651 0.39215893 -0.16000177 0.34388873
0.42316762 0.35811076 0.049693253 -0.25101286 -0.050876822 -0.058759384 0.28126052 -0.14160602
0.5456929 0.44206128 -0.36279297 -0.4155668 -0.013162607 0.33783457 -0.47166896 -0.32984
-0.07844379 -0.24370599 -0.3261535 -0.25500008 0.2016614 -0.48486015 0.19219154 0.014375758
0.10016434 -0.08609629 -0.0844832 -0.28029287 -0.39564484 0.12971024 -0.0103907315 -0.3129945
0.35849118 0.2939477 -0.01597379 0.12976146 0.12250628 -0.4496555 -0.020030383 0.3697212
-0.6388126 -0.6547159 -0.2772345 0.08003293 -0.029995209 -0.08239686 0.12583672 -0.19258054
-0.031723153 -0.30314392 -0.032845363 -0.028362732 0.014511764 0.007098828 -0.27353776 -0.08607481
0.51927763 0.35284728 -0.32688925 0.55293506 0.3084137 0.3569937 -0.16623731 0.11381701
-0.0053895414 -0.060366094 -0.42692566 0.19339469 -0.15412563 0.33883178 0.085135415 -0.079555355
-0.4397416 0.17224175 -0.012052638 0.028749947 0.10351777 0.024089435 -0.32755372 -0.3308476
-0.024435798 -0.29314128 0.17906584 -0.061969467 -0.056190543 -0.07091849 0.21842393 0.5744603
-0.26044166 0.4393046 0.34086198 -0.15475507 -0.043783847 -0.35255837 -0.539908 -0.2555476
0.3674308 -0.393939 -0.20309979 -0.06718521 -0.102841064 0.27867588 0.0028700975 -0.06465063
-0.033467256 -0.0458488 -0.3096348 0.43790776 -0.05012871 0.3841312 0.02755605 -0.90137845
-0.020192435 -0.3371326 -0.36727482 -0.47611058 0.013873768 0.0029369118 0.48593414 0.33072147
0.43974242 0.71941835 -0.12798704 0.10214396 0.02853197 -0.072685145 -0.3214033 0.40158516
0.2226469 -0.108963735 0.06619795 -0.03678122 -0.06291219 -0.01577127 -0.57796806 0.22677015
-0.11912818 -0.48254415 -0.31136644 0.009172796 0.31182364 0.37028322 0.46699643 -0.30665833

linear2.weight f4 [84, 240]
00000000: 3391 d33c 35e6 093c 7043 933c 4150 133f
00000010: 1c31 48bd 924e 05bd cbc9 9ebe 4203 e1bc
00000020: 85d0 d23d fcf3 a6be 5e40 333e 2c0d 7dbe
00000030: 2120 cabd 509d 923d e37c 193d 6510 9e3c
00000040: a317 0e3f 8860 81bc c798 aebd 1eae 803d
00000050: 2c74 afbc 4a96 b2bc 018f b13d ad2e b5be
00000060: ce6d 46be 842a 023c 82d7 71be bebb 8e3d
00000070: 37e4 a9be ccaf c4bd 8b3d 3b3e 6f00 953e
00000080: 997b e3bd 7ee6 15bf ac07 8a3e 5033 92bd
00000090: 20ae 31bd 75f7 4bbe 7962 573e a2b8 22bd
000000a0: 5fc4 cabd e155 573e a6b8 f9bb ff29 59be
000000b0: 182e c7be 1aa2 1a3d 513c 5dbe 807e 143e
000000c0: a7f4 60be 5866 ba3d d87d c53c 1eb0 3cbd
000000d0: 253f a83d 65a2 473e 0c7e c53b f403 1ebd
000000e0: 9125 6e3d 1818 3a3e 4afc d43d 75e7 3fbe
000000f0: 1738 32bd c9b6 1d3a a6d9 0ebf b0b6 0d3d
00000100: 27a0 de3c 7d04 d0bd c422 aa3e b9bb 8e3c
00000110: 7dcb 86bc 077f bbbe 9ebc 113e 7779 81bc
00000120: 7c8b 32bf 3a87 a1bd 1a02 8c3c 6e21 b1bc
00000130: ca19 b7be f2d5 58bd 6a9d fabe 6bc0 4f3f
00000140: 5110 c73d b295 c6be 7c7c b3bc 1dcd d4be
00000150: 95ce da3c 436b 783e 9c04 563e 3e9d bfbd
00000160: d895 9b3d 18f9 243e 4b5a 0b3f 9ec6 a33e
00000170: c2a5 d93b bcfb 51be c6f4 febd 37b0 afbd
00000180: 0a50 973d 2bdb 953e 1571 273e 9357 a7be
00000190: e4a1 383d db8a 92bd a178 4b3f 9de2 09be
000001a0: a519 09bf f156 063f 9f4f 01be f699 47be
000001b0: 83b6 ecbc f098 e33e 299c 08bf 9655 a13e
000001c0: bc4d c63d 33c9 9dbe 37b3 0a3f 30f1 8bbe
000001d0: 25a5 633e 3263 24bd 0ec9 553e 82ec 143e
000001e0: c49e d3be 1d57 12bd aad2 203a c736 b5bd
000001f0: 2bc9 01bf a1f4 98be edc9 18bd 93f4 393e
00000200: eec2 273e 2289 3b3e 452f b2bb 4a30 70be
00000210: 4732 c13d 8793 96bd 2989 313c 6393 d63e
00000220: b904 8dbe f5c6 f13d 9709 fd3d e5d4 d3be
00000230: 3829 36bd e616 a4bd f7c6 6b3f 6fcf 433e
00000240: ec87 dabd 905a ddbe 6ac5 673d ab56 4f3e
00000250: 5da3 723d 0f66 613c 9f2e 5cbd 5efd d43d
00000260: 651f b33e 3de0 7a3d 2817 f6be 5231 183f
00000270: b776 0b3e d576 6ebf 2014 b73c 14ef 9ebd
00000280: 2469 4f3d 2910 b7bc c822 c53e 1784 c43e
00000290: eb85 ad3d 9a49 103f 217b a6be c597 8b3e
000002a0: 2f91 313e d098 203e 5b07 0f3d 3e5d 363d
000002b0: 407a 373f 9408 f3be 62d9 08bc 4232 143e
000002c0: 7c5f 773c cf9d 12bf 56d2 97be da79 5abd
000002d0: f46d 0abd 29dc 823b 7da1 283f 9a69 24bd
000002e0: bb76 e23e d94d 5a3d bded 8f3d e3bf 233d
000002f0: 550b 973c a5c8 0cbf cf70 60bd 494d 83be
00000300: bdf8 083f 81d6 e23e 70f4 b8bd b7e9 d33e
00000310: b5a4 193c 324d f43d 4e11 6c3d 5a80 f23e
00000320: d589 353c 65be 813c cc03 c83e 659a e83e
00000330: d226 333e 3628 4b3e 0c1c 303e 7e98 cfbd
00000340: 8df7 713b 8a61 0cbd 21e9 99bc ebb5 01bf
00000350: c4d4 0fbd 36db 23bc 806d 883e 9842 1ebd
00000360: eb8c f73d c80f 92be fdd1 d7be dd6f 9a3e
00000370: 90ab 463e e3e9 073d 4de3 a7be 295a a93d
00000380: 654a 033f d471 f13e 1201 213f 446d 11bd
00000390: 1047 90be c229 f73c 0f51 6abc 198c 093e
000003a0: 85b9 70be 631d f6be 25da b1be 0553 6ebc
000003b0: e926 64be f05a 4b3e 20dc ec3d ac30 d83d
000003c0: e233 7bbc d386 8abc 040e 8cbb 80b1 f3be
000003d0: 8833 80be ffa1 3a3d 25eb 24be f742 3ebc
000003e0: 2382 893b 1832 dcbe 2502 60be ea5e e9bc
000003f0: bfb5 9abd 06f4 493d b215 733c bb2c bf3d
0.025826072 0.008416702 0.017976493 0.5754433 -0.04887496 -0.032545634 -0.3101333 -0.027467374
0.10293678 -0.3260802 0.17505023 -0.24712056 -0.09869409 0.07158911 0.037472617 0.019294927
0.55504817 -0.0157931 -0.08525234 0.0628321 -0.0214177 -0.021800179 0.08669854 -0.35387173
-0.19377825 0.007944707 -0.23617366 0.06969403 -0.33181927 -0.09603843 0.18285196 0.29101893
-0.11107559 -0.5855483 0.26958978 -0.07138693 -0.04337895 -0.19918616 0.21033658 -0.03972686
-0.09900736 0.21028854 -0.0076208888 -0.21207426 -0.38902354 0.03775225 -0.2160504 0.14501381
-0.21968327 0.09101552 0.024107859 -0.046066396 0.08215169 0.19495542 0.006026989 -0.03857799
0.058141295 0.18173254 0.10399683 -0.18740638 -0.043510523 0.0006016312 -0.55800855 0.034598053
0.027175976 -0.10157106 0.3322965 0.017423498 -0.016454453 -0.36620352 0.14232108 -0.01580499
-0.69744086 -0.078871205 0.017090846 -0.021622386 -0.35761863 -0.05293841 -0.48948222 0.8115298
0.09719909 -0.38786083 -0.021909945 -0.4156274 0.026709834 0.24259667 0.20900196 -0.093561634
0.0759694 0.16110647 0.5443465 0.3198747 0.0066420743 -0.20506185 -0.124490306 -0.08578532
0.07388313 0.29268774 0.16351731 -0.32684 0.045076266 -0.07155391 0.7948094 -0.13465352
-0.53554755 0.5247641 -0.1262803 -0.19492325 -0.028895622 0.4445262 -0.5336328 0.3151061
0.096827954 -0.30817565 0.5417971 -0.2733245 0.22230966 -0.040133663 0.20877478 0.14543346
-0.41332066 -0.03572761 0.0006134907 -0.088483386 -0.5069758 -0.29874137 -0.037301946 0.18159704
0.16382954 0.18314031 -0.005437764 -0.23455921 0.09433418 -0.07352357 0.010835924 0.41909322
-0.27542666 0.11805526 0.12355345 -0.41373363 -0.044472903 -0.0801218 0.9210047 0.19122098
-0.10670456 -0.43233156 0.056584753 0.20247905 0.059237827 0.013757243 -0.0537554 0.103998885
0.3498489 0.061249007 -0.48064542 0.59450257 0.13619505 -0.93150073 0.022348464 -0.07760444
0.05063738 -0.022346573 0.38503098 0.38382027 0.084728085 0.5636231 -0.32515815 0.27264228
0.1734054 0.15683293 0.034919124 0.044522516 0.71670914 -0.47467482 -0.008352609 0.14472297
0.015098449 -0.57272047 -0.2965266 -0.053338863 -0.033796266 0.0039935303 0.6587141 -0.040139772
0.4423121 0.053296898 0.07027767 0.03997792 0.01843802 -0.5499366 -0.054795083 -0.256449
0.53504544 0.44304278 -0.09030998 0.41389248 0.009377648 0.11928786 0.05763369 0.4736355
0.011080225 0.015837857 0.39065397 0.45430294 0.17495278 0.19839558 0.17198199 -0.101365075
0.0036921233 -0.034272708 -0.018787922 -0.5066821 -0.03511502 -0.010000994 0.26646042 -0.038637727
0.12087425 -0.28527665 -0.42152396 0.3016347 0.19401383 0.033182036 -0.32790604 0.0826915
0.5128539 0.47157156 0.6289226 -0.035504594 -0.28179216 0.030171279 -0.014301552 0.1343235
-0.2350827 -0.48069295 -0.34736744 -0.014546161 -0.22280468 0.19858909 0.11565423 0.105561584
-0.015332194 -0.016909992 -0.0042741317 -0.4759636 -0.25039315 0.045564648 -0.16105326 -0.011612645
0.0041964217 -0.43006968 -0.21875818 -0.028487641 -0.075541966 0.049304985 0.0148367155 0.093347035

linear2.bias f4 [84]
00000000: 30fa df3e 48b1 863e e9de c8be eec1 073f
00000010: e580 fc3e c10b 9a3d 1af3 29bf de84 fa3e
00000020: b8a3 81bd 4ae9 53be a933 b73f 6385 45bd
00000030: d28d 83bf 90c4 f9bd a745 9d3e 09e5 843f
00000040: 2ff6 6c3d 840e d0be 27c4 6c3e 65f5 8abe
00000050: d3dd 2b3c 870f e03e 7021 1fbe 245d 0abf
00000060: 3cdd c1bc 107b 363e afc5 153f 3484 0dbe
00000070: d56a 223f ccbd cfbd 27db 0a3f 7057 d53e
00000080: b61a f9bd 196b 9d3e b1c6 ffbd be75 45be
00000090: 69c7 323f 666e 3f3f c030 833d 60e0 523f
000000a0: 3f08 2c3f 0bcd 52be 105e 8bbe 8ee7 d6be
000000b0: cec2 eabb d1ef 6abf ae35 01bf f3f8 003e
000000c0: a855 4dbf a542 913e 4adb 14be 7ce5 13be
000000d0: 1ab5 c5bd 526d 9fbe bf6f 47be 9823 debd
000000e0: 4f40 75be 62e9 183f a3fa db3e e333 733f
000000f0: 840f a3be e00a 37bf bb0e a3bd 2081 31be
00000100: eb16 64be c9de 32bf 9b55 9b3e fad7 8bbe
00000110: 3e2e 4bbe ae7a 053f 215b 423e 4130 9e3e
00000120: 93d3 ddbd 4361 013e 7ff1 073f fb09 953e
00000130: cb46 94be b2a5 eb3d e3b4 a5be ed06 efbe
00000140: 603c 8c3e 0fb6 98bd 6760 0a3e 597e aebd
0.43745565 0.2630713 -0.39232567 0.5303029 0.4931709 0.07521773 -0.6638657 0.48929495
-0.06330055 -0.20694461 1.431264 -0.04822291 -1.0277655 -0.121956944 0.30717203 1.0382396
0.057851966 -0.40636075 0.23121701 -0.27140346 0.010489899 0.43761846 -0.15540099 -0.5404837
-0.023665063 0.17820382 0.58504766 -0.13819963 0.6344426 -0.10143623 0.5424065 0.41668272
-0.12163298 0.30745772 -0.12489069 -0.19283196 0.69835526 0.7477783 0.06405783 0.8237362
0.6720008 -0.2058603 -0.27220201 -0.41973537 -0.007164336 -0.9177218 -0.50472534 0.12594967
-0.80208826 0.28371158 -0.14536777 -0.1444301 -0.09653683 -0.31138092 -0.19476222 -0.10846633
-0.23950313 0.59731114 0.42964658 0.9500105 -0.31847775 -0.7150097 -0.07961794 -0.17334414
-0.22274368 -0.69871193 0.3033875 -0.27313215 -0.19841859 0.5214032 0.18980075 0.3089619
-0.1083137 0.12634759 0.5310287 0.29109177 -0.2896026 0.11506213 -0.32364568 -0.4668497
0.27389812 -0.074566 0.13513337 -0.08520193

linear3.weight f4 [10, 84]
00000000: 5a49 093d 7f3c 893e 9dad 553f 0abc dbbe
00000010: 7ec5 d6bd 1278 83be bc7b a63e 43a4 833e
00000020: b134 9d3e f008 093f 5b85 a6be da3f 9fbc
00000030: 8027 6e3e d49c 333e 5df7 6cbf 3b3b 0bbf
00000040: 5cdc 5f3d ff23 ac3e 4007 fabe da0b e03d
00000050: d00e 48bf 4829 53bf 2944 1e3e 9fa9 6b3d
00000060: b6c8 623d 0373 1dbe 9030 8f3e 2a07 05bf
00000070: cc55 a4be 7079 ea3e f305 a5be 2d85 c8be
00000080: f424 e7bc 15a7 183f 5249 eebe 5add 83be
00000090: c0cc a4be c3d8 2bbf 9a2e 48bf 7f2f 69be
000000a0: 6d53 033e 6c27 0dbf f44c eb3d 106a 663e
000000b0: 60b3 26bf 2a8e e7bd 457a 983e 7b73 7bbe
000000c0: e8c8 b63d b593 62be d276 403e 87e1 ba3e
000000d0: 2d94 0c3c 3ae2 d7be a15c d6be 27e9 fabd
000000e0: b863 d43e 54eb 01bf 1a8d a93e 5f50 06bf
000000f0: cf30 dbbc a772 acbe ea08 873d 3f64 b3be
00000100: 7f17 003e 75cb c2be 2518 013f ff80 90be
00000110: fabf 26be 8d48 1abf 81fa 0cbd 3393 a3bd
00000120: a998 f8bc 7b91 d9be d90f 81be f1e4 003e
00000130: 9dfb de3e 5bbc f73e 0d5e fc3c 3990 e03e
00000140: a39d 17be 548b 5b3e ac91 dd3e f93b 10bf
00000150: bb18 f0be d8be 2ebe 1ba9 0dbf 2fce 33bf
00000160: 5667 95be 764f e2be d855 863e 2d24 56bf
00000170: 036a d0bd 81c9 b13e f58c 4dbf ad1d c5bd
00000180: c79a 803e 77b2 a8be 5f69 3dbf 922f 0bbf
00000190: 3a88 ba3e 57d2 26bf a017 a33e b754 1f3e
000001a0: c342 ea3d ef45 bfbe e3b5 edbe c1aa 6e3e
000001b0: 57ee cd3c 2706 2cbe 77fe 17be b4e9 edbd
000001c0: 5571 f9be da85 6cbe 3e97 013f 9f1a 0abf
000001d0: a517 793d 8185 04bf 455a b7bc e930 b6bc
000001e0: 1bea bebd 6d0a 3ebe 7c71 28be 686b d83d
000001f0: e863 16bf c62e a53e 4edc 2f3e 2677 f1be
00000200: 8a43 5cbc 37d0 a93e 4795 a2be 91a0 37bd
00000210: b959 ea3e 5747 71be e5ca a53e 2b65 b8be
00000220: f5ca 44bd b8a1 e8bd ee40 5dbe 26ac ccbe
00000230: 69d1 efbe 8d82 cabd 63f7 15bf 76de f0be
00000240: c38a fc3e d3e9 a13e 0069 bebd cb2d 9d3e
00000250: 244e 553e 03e0 243f 1943 39bf 5c5d 8bbc
00000260: f872 8fbe a3e6 ed3c 2ada 803e 9a84 bcbe
00000270: 4385 f4bd e7ed 10be 923e 9d3e 049d 01bf
00000280: 480b 053f 3f30 18bc fbe1 15bd 58e0 8abe
00000290: ddba 4f3e dbb1 a03e 4a0e 5cbe da08 a03e
000002a0: 18a1 6f3c a7ea c8be 2a67 aabe 8c63 023e
000002b0: b8d6 5b3e e795 dd3d aace 483e 3b6b e03d
000002c0: 5505 b43c 94e0 aabe dc38 17bf e59c 15be
000002d0: 5178 633e 64d1 a33e ee2c 933e 1c7e a6be
000002e0: af67 b0be 16ef a13e 8932 ec3d a9a8 2d3e
000002f0: ea43 4cbe 111a abbe 1dfe 9bbe a4bc 17be
00000300: 5769 063c 8c10 4fbe 0ec2 5fbe 00c1 ae3e
00000310: 4fef 2dbf dc56 bfbe a95c 193d d9c6 213e
00000320: 730b babb b4fd a1be bab6 9dbe 075d 88be
00000330: 50b5 e2be a49b 5abe 516a ad3d d7df 83bf
00000340: 1cbd 073e ec0c 753e 56ad ed3c b32a b83e
00000350: 0bd8 f7bd 9e0c ea3e e8a8 433e 5dd5 22bf
00000360: 0122 023f 0535 56bf 157d 36bf fa0e 8a3e
00000370: 2891 453c 5b92 96bd 563a ef3e 204d d53e
00000380: 1ebb 06bd 7180 cfbe a043 2dbd 90c3 e23d
00000390: 440c 15bf 8bff 263f ec27 acbc 5a03 a7be
000003a0: 3055 453e f56e aa3e ca82 dcbd aece b33e
000003b0: 0bb6 573f 0744 7d3d 1847 0fbf 5d54 803e
000003c0: ce80 32bd 15ba 883c 7f4c babe 4957 7e3e
000003d0: 9d63 d9be 2749 c4be ffe9 b2be 9967 913e
000003e0: ffc5 59bf c1bb 13be f01e bc3d a3fa 853e
000003f0: a830 693d 4140 1ebf 4b8f 053f 6f58 3e3e
0.03351722 0.26803967 0.8346804 -0.429169 -0.104868874 -0.25677544 0.32516277 0.2571126
0.30704263 0.5352926 -0.32523617 -0.019439626 0.23257256 0.17540294 -0.92564946 -0.54387254
0.05465351 0.33621213 -0.48833656 0.109397605 -0.781476 -0.82484865 0.15455689 0.05753481
0.055367194 -0.15375905 0.27966738 -0.51964056 -0.32096708 0.45795774 -0.322311 -0.39164105
-0.028215863 0.59629947 -0.46540314 -0.25754815 -0.32187462 -0.6712763 -0.7819611 -0.22772025
0.12824793 -0.5513828 0.11489287 0.22501397 -0.65117455 -0.113064125 0.29780784 -0.24555771
0.089250386 -0.22126658 0.18795326 0.3650019 0.00858025 -0.42164785 -0.41867545 -0.122515015
0.4148233 -0.5074971 0.33115464 -0.52466387 -0.026756672 -0.33681223 0.06593497 -0.3503742
0.12508963 -0.3804585 0.50427467 -0.28223416 -0.16284171 -0.60266954 -0.034418587 -0.079870604
-0.030346232 -0.42493805 -0.25207403 0.12587334 0.4355134 0.4838589 0.030806566 0.43860033
-0.14806227 0.21439868 0.432752 -0.5634151 -0.46893868 -0.17064989 -0.5533616 -0.70236486
-0.29180402 -0.4420125 0.2623737 -0.8364895 -0.1017647 0.34724048 -0.8029321 -0.09624801
0.25118086 -0.32948658 -0.7398891 -0.5436946 0.36432058 -0.65164703 0.31853962 0.1555966
0.11438515 -0.37358043 -0.4642783 0.23307325 0.025138063 -0.16799222 -0.14843164 -0.11616841
-0.48719278 -0.23097935 0.506214 -0.5394687 0.060813565 -0.5176621 -0.022381911 -0.022240119
-0.09321996 -0.18558665 -0.16449541 0.10567361 -0.58746195 0.32262248 0.17173883 -0.47161216
-0.013443837 0.33166668 -0.31754515 -0.044830862 0.45771578 -0.2356237 0.3238136 -0.36014685
-0.048045117 -0.113589704 -0.216068 -0.3997509 -0.46839455 -0.09888182 -0.5858061 -0.47044724
0.49324617 0.31623706 -0.09297371 0.30699 0.2083059 0.64404315 -0.7236801 -0.01701229
-0.28017402 0.02904064 0.25166446 -0.36819917 -0.1193948 -0.14153253 0.307118 -0.5063021
0.5197034 -0.0092888465 -0.036592465 -0.27124286 0.20286126 0.31385693 -0.21489826 0.31256753
0.01462581 -0.39241526 -0.33281833 0.12733287 0.21468627 0.10819607 0.19610086 0.109579526
0.021975199 -0.33374465 -0.59071136 -0.14610632 0.22213866 0.3199569 0.28745216 -0.3251809
-0.34454104 0.3162772 0.11533076 0.1695887 -0.19947782 -0.33418325 -0.3046731 -0.14818054
0.008203826 -0.20221156 -0.2185137 0.34131622 -0.6794328 -0.37370956 0.037441883 0.1579851
-0.0056776344 -0.31638873 -0.30803472 -0.26633474 -0.44278955 -0.21348435 0.08467544 -1.0302685
0.13255733 0.2393071 0.029013317 0.35970077 -0.12101754 0.4571275 0.19107401 -0.63606817
0.50833136 -0.8367465 -0.7128461 0.2696455 0.012058534 -0.07352134 0.46724194 0.41660404
-0.032893293 -0.4052768 -0.04230082 0.11072457 -0.5822184 0.6523368 -0.02101513 -0.32619745
0.19270778 0.33287778 -0.107671335 0.35118622 0.8426215 0.061832454 -0.55967855 0.25064364
-0.04357987 0.016690293 -0.36386487 0.24837984 -0.4245881 -0.3833706 -0.3494415 0.2839935
-0.85067743 -0.14427091 0.09185588 0.26167783 0.056931168 -0.61816794 0.5217177 0.18588422

linear3.bias f4 [10]
00000000: a15d ebbd 5c39 60bf f8c8 50bf 50e4 b23e
00000010: cf14 633f 5bc0 073e 239d d13e 02d0 d1bd
00000020: 3b11 b2bc 279a bb3e
-0.11492468 -0.87587523 -0.81556654 0.34939814 0.88703626 0.13256972 0.40940198 -0.102447525
-0.021736732 0.36641046
