models/gtsrb_ann_model/model/model.pth (torch, 679318 bytes, 22 tensors)

conv_net.0.weight f4 [40, 3, 5, 5]
0	0xbd3169f9	-0.043313954
1	0xbbcd2a38	-0.0062611364
2	0xbdae114a	-0.084993914
3	0xbe0c3cec	-0.13695115
4	0xbdc5dfcf	-0.09661829
5	0x3e0605a3	0.13088088
6	0x3dc6d8c6	0.09709315
7	0x3d83c085	0.064332046
8	0xbd5d3b2d	-0.054011513
9	0xbc60412f	-0.013687416
10	0xbbf5aa9e	-0.007497146
11	0x3d4447e3	0.04792012
12	0xbde5f500	-0.11228371
13	0xbe388eed	-0.18023272
14	0x3d1f7b2b	0.03893582
15	0x3c92fdd2	0.017943297
16	0x3d8ad16a	0.06778224
17	0xbdfffef1	-0.12499798
18	0xbd5acd44	-0.053418413
19	0x3a8dc862	0.0010817165
20	0x3d80fcda	0.062982276
21	0x3df416b4	0.11918393
22	0x3d2dfe81	0.042479042
23	0xbd6ab326	-0.057299756
24	0x3d5eeb4a	0.054423608
25	0x3daf4405	0.085578956
26	0x3e40003d	0.18750091
27	0xbd0f1b19	-0.03493795
28	0xbd7c0d01	-0.06153584
29	0x3ba49eb6	0.0050238026
30	0xbbcf9626	-0.0063350378
31	0x3dc53f6c	0.096312374
32	0x3d42072f	0.047370132
33	0xbdd8d700	-0.10587883
34	0x3d6991dd	0.05702387
35	0x3d8d3882	0.06895544
36	0x3c69a230	0.01425986
37	0xbccc8b08	-0.024968639
38	0xbe0dcea7	-0.13848363
39	0x3d1b0898	0.037849993
40	0xbd45721b	-0.048204523
41	0x3c7b3fac	0.015335005
42	0xbdee656c	-0.116404384
43	0xbdec55c1	-0.11539794
44	0x3dddbc03	0.10826876
45	0xbd0066c6	-0.031348012
46	0x3df84185	0.12121872
47	0xbd4b18bf	-0.049584147
48	0x3db83f7f	0.08996486
49	0xbd811efc	-0.06304738
50	0x3e04ecd2	0.12980965
51	0x3e167c61	0.14695884
52	0xbd1e41a9	-0.038636837
53	0xbe2411ad	-0.16022368
54	0xbdfb7df1	-0.12279881
55	0x3d1af66d	0.037832666
56	0x3e0b64fb	0.1361274
57	0xbcbf25cc	-0.023333453
58	0xbe12f107	-0.14349757
59	0xbe3e24d5	-0.18568738
60	0x3defba1d	0.1170542
61	0xbbf7ab85	-0.0075582885
62	0xbe1b84b0	-0.15187335
63	0xbcb5169b	-0.022105506
64	0xbd7040ef	-0.058655676
65	0xbd64cf1c	-0.055861577
66	0xbcc9a9c1	-0.024617078
67	0x3d0ca595	0.0343376
68	0xbd86c03f	-0.06579637
69	0x3df30275	0.11865703
70	0xbdc5a693	-0.09650912
71	0x3ddf65fc	0.10908124
72	0xbc86653e	-0.016405698
73	0xbdb19f69	-0.08672983
74	0x3c8b6e15	0.017020265
75	0xbc630cbe	-0.013858018
76	0xbd7513db	-0.05983339
77	0xbcf177f1	-0.029476138
78	0xbd07c690	-0.03314835
79	0x3df3294b	0.118731104
80	0xbd7f0466	-0.062260054
81	0x3cce7845	0.025203833
82	0x3dc94ac0	0.098287106
83	0xbd8a64b0	-0.06757486
84	0x3de37678	0.111065805
85	0x3d1c72bd	0.03819536
86	0xbaa9cf09	-0.0012955378
87	0xbd0a88ce	-0.033821873
88	0x3d06db96	0.032924257
89	0x3d947a65	0.072499074
90	0x3e0d384f	0.13791011
91	0xbc7a90b4	-0.015293289
92	0x3dbd81e1	0.09253288
93	0x3d85741e	0.06516288
94	0x3dbafea9	0.09130604
95	0x3e05ff0c	0.13085574
96	0x3e31e019	0.17370643
97	0x3d75992d	0.059960533
98	0x3dc15025	0.094391145
99	0x3dc80f6b	0.09768566
100	0x3d2b0e6c	0.0417618
101	0xbdd3d86e	-0.10344015
102	0xbd1d75a2	-0.03844226
103	0xbd1ef078	-0.038803548
104	0xbe310d26	-0.17290172
105	0xbcadec03	-0.021230703
106	0xbddfc46e	-0.10926138
107	0x3d1aa8a9	0.037758503
108	0xbe42ef32	-0.19036558
109	0xbdfb2f49	-0.12264878
110	0x3db27312	0.08713354
111	0xbdbd2ea2	-0.0923741
112	0x3c46348d	0.01209749
113	0x3c5db929	0.013532915
114	0xbdf2e642	-0.118603244
115	0x3dba7838	0.09104961
116	0xbdcabed8	-0.09899682
117	0xbe1a868b	-0.15090387
118	0xbcdd95f8	-0.02704905
119	0x3d3c3d25	0.04595675
120	0xbe093957	-0.1340078
121	0xbe10cc8b	-0.14140527
122	0xbe2750b4	-0.1633938
123	0xbd11a81a	-0.035560705
124	0xbdf433c6	-0.119239375
125	0xbcd7bec7	-0.026336087
126	0x3d3ff526	0.04686465
127	0x3c220e64	0.009891126
128	0xbd2a856a	-0.04163114
129	0x3c5e50fb	0.013569112
130	0x3cdaafd0	0.026695162
131	0x3c4da39e	0.012551216
132	0x3d2a3f2a	0.041564144
133	0x3cdfb2b7	0.027306898
134	0xbc0083aa	-0.007843891
135	0xbd4cbee6	-0.049986742
136	0xbe04e38e	-0.1297743
137	0xbdc9dab1	-0.09856165
138	0xbde2a6f7	-0.11067002
139	0xbd558498	-0.052128404
140	0xbdd1a522	-0.10236575
141	0xbbf29024	-0.007402437
142	0xbcfc26a9	-0.030780153
143	0x3c6fa632	0.014627026
144	0x3cabe472	0.020982955
145	0x3da86a7c	0.08223435
146	0xbde146e5	-0.1099985
147	0xbdd5487e	-0.104142174
148	0x3dbbd6ce	0.0917183
149	0x3cf385bd	0.029726857
150	0x3da7e0a9	0.081971474
151	0xbd55fa27	-0.052240517
152	0x3dbe9d33	0.09307327
153	0xbdb44bcb	-0.08803519
154	0x3d80cc1f	0.06288933
155	0x3d248170	0.040162504
156	0xbdd80155	-0.10547129
157	0xbd91aca0	-0.07113004
158	0xbd87e946	-0.0663629
159	0xbde1dddc	-0.110286444
160	0xbd91835f	-0.07105135
161	0xbd668a16	-0.056284033
162	0x3d9252cf	0.07144701
163	0xbdbb6f37	-0.09152072
164	0x3cdeb294	0.027184762
165	0x3da3a110	0.079897046
166	0x3db97072	0.0905465
167	0x3c6e3efc	0.014541384
168	0x3dd7b475	0.10532466
169	0x3d68ba29	0.05681816
170	0x3d8f8f94	0.07009807
171	0xbcba9b9d	-0.02277928
172	0x3b91e8a7	0.004452783
173	0x3b6853c8	0.0035450328
174	0x3d2c546d	0.042072702
175	0x3dcf6d20	0.10128236
176	0xbd547a8b	-0.05187468
177	0x3d6b1757	0.057395305
178	0x3d974fac	0.07388243
179	0xbc7fb830	-0.015607879
180	0x3d6693a6	0.056293152
181	0x3dbfeccc	0.09371337
182	0xbc3aeed7	-0.011409483
183	0xbd1c55d6	-0.038167797
184	0x3d84580d	0.06462107
185	0x3d31cb4a	0.043406762
186	0xbc010306	-0.007874256
187	0x3c950b40	0.018193841
188	0x3d9492aa	0.072545364
189	0x3db1502a	0.08657868
190	0x3a4e2cd6	0.00078649574
191	0xbdf81d56	-0.121149704
192	0x3c8e3877	0.017360909
193	0xbdc97db2	-0.098384276
194	0x3ddbd2c0	0.10733557
195	0xbd942495	-0.0723354
196	0xbdb61160	-0.08890033
197	0x3df5031c	0.11963484
198	0x3c8fbfc9	0.017547505
199	0x3c987439	0.018610107
200	0xbd15bdfa	-0.03655813
201	0x3b0dbe77	0.0021628418
202	0xbd954f9a	-0.072905734
203	0x3d21533c	0.03938602
204	0x3d2cd061	0.042190913
205	0xbdff60b7	-0.12469619
206	0xbe1bcf40	-0.15215778
207	0xbdcc9004	-0.09988406
208	0xbdfc08d3	-0.123063706
209	0xbcb65279	-0.022256123
210	0xbe15012b	-0.14551227
211	0xbe1a9d6b	-0.15099113
212	0xbe6845c1	-0.22682859
213	0xbe103f1b	-0.14086573
214	0xbd74e397	-0.05978736
215	0xbde231d3	-0.110446595
216	0xbeab90c1	-0.33508876
217	0xbe6ad925	-0.22934397
218	0xbe05bde5	-0.1306072
219	0x3d19101a	0.03736887
220	0xbd50be17	-0.050962534
221	0xbd34a168	-0.04409924
222	0xbe182e05	-0.14861305
223	0xbde27549	-0.110575266
224	0x3cbe5682	0.02323461
225	0x3ddbac88	0.10726267
226	0xbd89c739	-0.06727452
227	0xbb95040f	-0.004547603
228	0xbe585c78	-0.21129024
229	0xbd4262c8	-0.047457486
230	0xbd9fdb47	-0.07805496
231	0xbe0a77d9	-0.13522281
232	0x3d295d51	0.04134876
233	0xbd4821bf	-0.048860308
234	0xbe4b6dda	-0.19866124
235	0xbcf07221	-0.029351296
236	0xbdd9ca0c	-0.106342405
237	0xbc0918a2	-0.008367689
238	0xbc9605e0	-0.018313348
239	0xbcd562bc	-0.026048057
240	0x3d87add0	0.06624949
241	0x3e07b028	0.13250792
242	0x3be584cb	0.0070043555
243	0x3d8451ed	0.064609386
244	0x3d89ce23	0.067287706
245	0xbe0cb160	-0.13739538
246	0x3dba3cb4	0.090936095
247	0xbdb582f3	-0.08862867
248	0x3c912742	0.017718915
249	0xbe04fbe2	-0.1298671
250	0x3da83448	0.08213097
251	0xbd9c066d	-0.07618413
252	0xbd00fae5	-0.03148927
253	0xbd6f7c89	-0.058468375
254	0xbd0ffabe	-0.035151236
255	0xbe04294f	-0.12906383

conv_net.0.bias f4 [40]
0	0x3d9384fe	0.072031006
1	0xbbae1753	-0.005312839
2	0x3d68a285	0.056795616
3	0xbb7bbc25	-0.0038411703
4	0xbc9e4cc7	-0.01932372
5	0xbc15d3a1	-0.009144695
6	0xbd03f7f5	-0.032218892
7	0xbd08d019	-0.033401582
8	0x3c7162d8	0.014733039
9	0x3e0db0c3	0.1383696
10	0x3de6dc56	0.112724945
11	0xbdcf36cf	-0.10117876
12	0x3c46c305	0.012131457
13	0x3dfa9011	0.1223451
14	0xbd646144	-0.055756822
15	0xbd1d3906	-0.03838446
16	0x3d200561	0.03906763
17	0xbdb9f156	-0.09079234
18	0xbd837659	-0.064190574
19	0xbd692312	-0.05691821
20	0x3de4fc3d	0.11180923
21	0x3db01741	0.08598185
22	0xbdd0c005	-0.10192875
23	0x3d822a22	0.063556924
24	0x3b8e9d49	0.004352246
25	0xbdddd493	-0.10831561
26	0xbbf35527	-0.0074259224
27	0x3cc5556b	0.024088582
28	0xbc913af6	-0.01772831
29	0xbd840e11	-0.064479955
30	0x3c8e9e52	0.017409477
31	0xbdb787c9	-0.08961446
32	0xbda788a6	-0.081803605
33	0x3dd3431d	0.10315535
34	0xbdfc84b2	-0.12329997
35	0xbdc4dce3	-0.09612443
36	0x3df6d399	0.12052078
37	0x3d5a88c2	0.05335308
38	0xbdec8da8	-0.11550456
39	0x3c9eae3f	0.019370196

conv_net.1.weight f4 [40]
0	0x3f92226e	1.1416757
1	0x3f4faa2a	0.81119025
2	0x3f59e886	0.8512043
3	0x3f748317	0.9551253
4	0x3f561855	0.8363088
5	0x3f8480d0	1.035181
6	0x3f94bce6	1.1620147
7	0x3f7e9ff0	0.99462795
8	0x3f7b3547	0.9812817
9	0x3f4e8d5c	0.8068445
10	0x3f87b55d	1.0602223
11	0x3f7ae0cc	0.9799926
12	0x3f84b0f9	1.0366508
13	0x3fa40241	1.2813188
14	0x3f373069	0.71558243
15	0x3f955d34	1.1669068
16	0x3f8f08f0	1.1174603
17	0x3f8f5e85	1.120072
18	0x3f865511	1.049471
19	0x3f8aa5b3	1.0831817
20	0x3f8545a3	1.0411876
21	0x3f6de53b	0.929279
22	0x3f92c7ad	1.1467186
23	0x3f6a8776	0.91612947
24	0x3f6c3415	0.9226697
25	0x3f57497e	0.84096515
26	0x3f410710	0.754014
27	0x3f620c54	0.8830006
28	0x3f85b648	1.0446253
29	0x3f6e6797	0.93126816
30	0x3f913b01	1.1346132
31	0x3f61051d	0.8789843
32	0x3f7be3a2	0.98394215
33	0x3f4f7e8a	0.8105246
34	0x3f2f9bc9	0.68597084
35	0x3f81bcbd	1.0135723
36	0x3f817496	1.0113704
37	0x3f9c8f6b	1.2231268
38	0x3f776073	0.96631545
39	0x3f728d9f	0.94747347

conv_net.1.bias f4 [40]
0	0x3e80f238	0.25184798
1	0xbe5882e0	-0.21143675
2	0xbe8769e0	-0.26447964
3	0x3d1ba18e	0.037995867
4	0x3d6a4a24	0.057199612
5	0x3d8cd6a8	0.0687688
6	0x3e939b0b	0.28829226
7	0x3d1fec28	0.039043576
8	0xbd474d85	-0.048657913
9	0xbe980536	-0.29691476
10	0x3e3610f8	0.1777991
11	0x3e06ad43	0.13152032
12	0x3dc747f9	0.097305246
13	0x3e25e015	0.16198762
14	0xbeba9d8e	-0.3644833
15	0x3cb739ed	0.022366488
16	0x3e1a45d4	0.150657
17	0x3e285bca	0.16441265
18	0x3de47efb	0.11157032
19	0xbe14c244	-0.14527231
20	0x3d913828	0.07090789
21	0xbe744e4e	-0.23857996
22	0x3db96916	0.09053247
23	0x3dd272ea	0.10275824
24	0xbb9a49b1	-0.0047084917
25	0x3d2b655d	0.041844714
26	0xbe4b98e6	-0.19882545
27	0x3e2c8e14	0.16851074
28	0x3d7e64ed	0.06210797
29	0x3dba8480	0.091073036
30	0x3d60238c	0.0547214
31	0xbe42d400	-0.19026184
32	0xbe29f6af	-0.16598009
33	0xbd149054	-0.036270455
34	0xbe543df0	-0.20726752
35	0xbbdd5c9d	-0.006755425
36	0xbdb0bd51	-0.08629859
37	0x3e51191d	0.20419736
38	0x3e90ab10	0.2825551
39	0xbd8d9570	-0.069132686

conv_net.1.running_mean f4 [40]
0	0x3b49c3d0	0.003078688
1	0xbe73cd74	-0.23808843
2	0xbeebd00c	-0.46057165
3	0xbe2ca155	-0.16858418
4	0xbdcddd99	-0.10052032
5	0xbdb3efb4	-0.08785954
6	0xbd2a22a8	-0.041536957
7	0xbde7b912	-0.11314596
8	0xbdb232a4	-0.08701065
9	0xbd9556fc	-0.072919816
10	0xbcec87a6	-0.028873276
11	0xbe8a1374	-0.26967967
12	0xbdc24102	-0.094850555
13	0x3d2716ea	0.040793337
14	0x3f328f1c	0.6974962
15	0xbe115237	-0.14191519
16	0x3df1a2d2	0.11798634
17	0xbe21554a	-0.15755191
18	0xbe08f53e	-0.13374802
19	0xbe76fe3d	-0.24120422
20	0x3b079166	0.002068603
21	0xbe02d791	-0.12777545
22	0xbe500d3d	-0.2031755
23	0xbe19bd94	-0.15013725
24	0xbde986c5	-0.114026584
25	0xbe4fbce8	-0.20286906
26	0xbd5dd2aa	-0.054155983
27	0x3dd9efb9	0.106414266
28	0xbdde62a8	-0.10858661
29	0xbe2eac8a	-0.17058006
30	0xbd681fd3	-0.056670975
31	0xbe6c9c25	-0.2310644
32	0xbe7a121d	-0.24420972
33	0xbdd79fb2	-0.10528506
34	0xbe923cec	-0.28562105
35	0xbe00f9f8	-0.12595356
36	0x3d88c23a	0.06677671
37	0xbd0621b2	-0.032746978
38	0xbd9ab222	-0.075535074
39	0xbdb854a2	-0.090005174

conv_net.1.running_var f4 [40]
0	0x3d1656bd	0.036703814
1	0x3d567217	0.0523549
2	0x3e37c00f	0.17944358
3	0x3d317fbb	0.043334704
4	0x3cab22b8	0.020890579
5	0x3cb3f52e	0.021967497
6	0x3d500a66	0.050791167
7	0x3c8b3008	0.016990677
8	0x3ce553a8	0.027993992
9	0x3d6e7d8a	0.058225192
10	0x3d11e7ff	0.03562164
11	0x3d7e4a70	0.062082708
12	0x3d9877a7	0.07444697
13	0x3cc75b58	0.024335548
14	0x3e9f9567	0.31168672
15	0x3d1d93c9	0.038471017
16	0x3c933bc0	0.017972827
17	0x3cecd870	0.0289118
18	0x3cf7208d	0.030166889
19	0x3d856685	0.06513695
20	0x3cd9a527	0.026568009
21	0x3d63228b	0.055452865
22	0x3d011080	0.031509876
23	0x3d7f0094	0.06225641
24	0x3d4f64dc	0.050633296
25	0x3ce203a8	0.027589634
26	0x3c96796f	0.01836845
27	0x3cddbf77	0.027068837
28	0x3ca891d2	0.020577345
29	0x3d209838	0.039207667
30	0x3cf013e5	0.029306361
31	0x3cd887ce	0.026431944
32	0x3d5d700d	0.054061938
33	0x3d836c6b	0.064171635
34	0x3d58291d	0.052773584
35	0x3c86930e	0.016427543
36	0x3cac6c48	0.021047726
37	0x3d25297b	0.040322762
38	0x3c994d5f	0.018713651
39	0x3d4527a7	0.04813352

conv_net.4.weight f4 [20, 40, 5, 5]
0	0xbd7ecd3c	-0.062207446
1	0x3d1f464c	0.0388854
2	0xbd6e6fd3	-0.058212113
3	0xbd9d9e65	-0.07696227
4	0xbd218ec9	-0.03944281
5	0x3c5c3a86	0.013441687
6	0xbcb94c77	-0.02261947
7	0xbd382243	-0.04495455
8	0x3d93e248	0.07220894
9	0xbc81b95d	-0.015835458
10	0x3d7f9b07	0.062403705
11	0xbd403423	-0.04692472
12	0x3c18ca8d	0.009325636
13	0x3d61d16d	0.055131365
14	0x3b9ac7e2	0.004723535
15	0x3daa4af3	0.08315077
16	0xbd87c0ee	-0.06628595
17	0x3d607960	0.054803252
18	0x3dcdcc79	0.10048766
19	0x3c2cd903	0.0105497865
20	0xbccc082e	-0.024906244
21	0xbdbb4262	-0.09143521
22	0x3d359101	0.04432774
23	0x3daad03f	0.08340501
24	0x3d455b1a	0.048182584
25	0xb90bca3c	-0.00013331411
26	0x3cd3edc2	0.025870208
27	0xbd720555	-0.059087116
28	0x3cdc436f	0.026887624
29	0x3d9a6c24	0.075401574
30	0xbc981a6c	-0.018567286
31	0xbca5f393	-0.020257747
32	0xbd98768c	-0.07444486
33	0xbd3d7060	-0.046249747
34	0x3d2f3270	0.04277271
35	0xbd170b04	-0.03687574
36	0x3b87f35f	0.004148885
37	0xbd67276b	-0.056434076
38	0xbd067d32	-0.03283424
39	0x38f2f998	0.0001158595
40	0xbd17ec95	-0.037090857
41	0xbc2a385a	-0.010389412
42	0x3b9dfcad	0.004821381
43	0x3d94c8ae	0.07264839
44	0x3ded8b0d	0.115987875
45	0xbd2be969	-0.041970644
46	0xbc44aa36	-0.012003472
47	0xbd2f3168	-0.042771727
48	0x3da0943d	0.07840774
49	0x3d964c79	0.07338805
50	0x3d3bce2f	0.04585093
51	0x3d483891	0.04888207
52	0x3d438e9f	0.047743436
53	0x3cf5752d	0.0299631
54	0x3d959f15	0.07305733
55	0x3cf842ae	0.030305233
56	0x3b0d8bb2	0.0021598157
57	0xbb599cc4	-0.0033205012
58	0x3ce793ae	0.028268661
59	0x3d72dbc7	0.059291627
60	0xbcb58302	-0.022157196
61	0x3cc2d72d	0.023784244
62	0xbbe8279e	-0.007084801
63	0x3d8cf103	0.06881907
64	0x3cc82527	0.024431778
65	0xbca1cb6c	-0.01975032
66	0x3d2271c4	0.039659277
67	0x3d56614e	0.05233889
68	0x3db54252	0.0885054
69	0x3d3a933b	0.045550566
70	0xbd11b0ff	-0.035569187
71	0x3b9dbe0b	0.0048139147
72	0x3d846c56	0.06465976
73	0x3dbfb82e	0.09361301
74	0x3d368925	0.044564385
75	0x3b3823be	0.0028097476
76	0x3d9a6598	0.07538909
77	0x3e024d2a	0.12724748
78	0x3d5e776d	0.054313112
79	0x3c33f53d	0.010983762
80	0xbb6e0590	-0.0036319233
81	0x3d470ede	0.048598163
82	0x3df619e2	0.120166555
83	0x3cd49e2f	0.025954334
84	0xbd917c18	-0.07103747
85	0xbd2580d7	-0.040406074
86	0xbd885953	-0.06657662
87	0x3a9a4667	0.0011770249
88	0xbcdfd864	-0.027324863
89	0xbdcc2608	-0.099681914
90	0xbd870f12	-0.06594671
91	0xbd78f250	-0.060777962
92	0x3d99c812	0.075088635
93	0xbd010a32	-0.031503864
94	0xbd9738e6	-0.073838994
95	0x3d8b2b0a	0.067953184
96	0x3c926dca	0.017874617
97	0x3d028eff	0.031874653
98	0x3d054d16	0.032544218
99	0x3c8aa0f1	0.016922446
100	0x3c807e2a	0.01568516
101	0x3d1a1f76	0.03762766
102	0x3aa8639d	0.001284707
103	0x3c0260dc	0.007957663
104	0x3d21d029	0.039505158
105	0xbd13f7c6	-0.036124967
106	0xbd7e14dd	-0.062031616
107	0xbd906c7d	-0.070519425
108	0x3c128efa	0.008945221
109	0x3ccc8afa	0.024968613
110	0xbcc9a86b	-0.02461644
111	0x3cf06654	0.029345669
112	0xbd547a7d	-0.051874626
113	0x3d125a57	0.035730686
114	0x3d850bef	0.06496417
115	0x3a0ef6fc	0.00054536737
116	0xbb05dfb6	-0.0020427532
117	0xbd2aea63	-0.041727435
118	0x3d16f138	0.036851138
119	0x3e002e42	0.12517646
120	0x3a9e040b	0.0012055648
121	0xbdb6ad61	-0.08919788
122	0xbdb3d304	-0.087804824
123	0x3da9d378	0.082922876
124	0x3d821e85	0.063534774
125	0x3d6f7ddc	0.05846964
126	0x3c7ad09f	0.015308528
127	0xbd6d777c	-0.057975277
128	0xbd97d684	-0.074139625
129	0x3bdebf50	0.0067977086
130	0xbdd4f7a7	-0.103987984
131	0x3c02cadf	0.007982939
132	0xbe1cc36d	-0.15308924
133	0xbd5bf4f7	-0.053700414
134	0x3ca4e144	0.020126946
135	0xbdb5ba79	-0.088734575
136	0xbd384e6c	-0.044996664
137	0xbdbb52a9	-0.091466255
138	0x3cc318f7	0.023815615
139	0x3db42e43	0.08797886
140	0xbc377a13	-0.011198538
141	0x3d258865	0.04041328
142	0x3c7e4044	0.015518252
143	0xbb11cd72	-0.00222477
144	0x3d47326c	0.04863207
145	0x3d780f1c	0.060561284
146	0x3da01a07	0.07817464
147	0x3dc3609f	0.095399134
148	0x3d25779e	0.04039728
149	0x3d09d0c9	0.03364638
150	0xbd08336c	-0.033252165
151	0xbcbb567e	-0.022868391
152	0x3d195b4b	0.03744058
153	0xbb9d7f45	-0.0048064315
154	0x3c9b8a6a	0.0189869
155	0x3c1dc0b3	0.009628463
156	0x3e1e057b	0.15431778
157	0x3cd4d7db	0.025981834
158	0xbdedcc7b	-0.11611267
159	0xbd252f7c	-0.040328488
160	0x3d09997c	0.03359364
161	0x3dc95a08	0.09831625
162	0x3bf2874d	0.007401383
163	0xbe14c44f	-0.14528011
164	0xbac5f8c6	-0.0015104047
165	0x3da20451	0.079109795
166	0x3d56e7db	0.05246721
167	0xbc560933	-0.013063717
168	0xbd6d0631	-0.057867233
169	0x3d6f5b22	0.05843652
170	0xbc74ed77	-0.014949194
171	0xbd46458a	-0.04840616
172	0xbdf33b61	-0.1187656
173	0xbd336c7a	-0.043804623
174	0x3c0ba98a	0.008524308
175	0xbd00c3db	-0.031436782
176	0xbbf8f428	-0.007597465
177	0xbdffef4e	-0.124968156
178	0x3cd3e601	0.02586651
179	0x3d333c6a	0.043758787
180	0x39bd0e68	0.00036059623
181	0x3ccaa2a0	0.024735749
182	0xbdee1736	-0.11625521
183	0xbb22f02c	-0.0024862392
184	0x3cca6001	0.024703981
185	0x3d29dffa	0.041473366
186	0x3d29bd7e	0.04144048
187	0xbe0b987c	-0.13632387
188	0xbcdb51aa	-0.026772339
189	0x3d078854	0.033088997
190	0x3de45575	0.11149112
191	0x3dcb5ab1	0.099294074
192	0xbda72352	-0.08161034
193	0x3d941fdb	0.072326384
194	0x3dab0c75	0.08351985
195	0x3b1304bd	0.0022433244
196	0x3d456f47	0.048201825
197	0xbd861cd2	-0.06548466
198	0x3d4dd98d	0.0502563
199	0x3d273e6b	0.04083101
200	0x3c9b20bd	0.01893651
201	0x3dadab64	0.08479956
202	0x3d778d11	0.060437266
203	0x3d7abb95	0.06121405
204	0x3d013dfa	0.031553246
205	0xbbec15e7	-0.0072047594
206	0x3d0a15ef	0.033712324
207	0xbd171054	-0.036880806
208	0xbd58fdd4	-0.052976444
209	0xbe0e42ae	-0.13892624
210	0xbc552aa2	-0.013010653
211	0x3904ccd0	0.000126648
212	0xbd85e491	-0.06537736
213	0xbd218ccc	-0.039440915
214	0x3dbd9a55	0.09257952
215	0xbdc80fc3	-0.09768631
216	0xbd30bc5a	-0.043148376
217	0xbde5e551	-0.11225379
218	0x3d323bda	0.04351411
219	0x3df45dc0	0.11931944
220	0x3da614a9	0.08109409
221	0x3d84e721	0.06489397
222	0x3cef323a	0.029198755
223	0x3ce01bc7	0.027356995
224	0xbba16b1a	-0.0049260976
225	0x3b3084e5	0.002693468
226	0xbc5cac53	-0.01346882
227	0xbd934084	-0.0719004
228	0xbd5b9c5f	-0.053615924
229	0x3c76c645	0.01506192
230	0xbd002a6f	-0.031290468
231	0xbcc1f7eb	-0.023677787
232	0x3cc1f5d5	0.023676792
233	0x3d234d2d	0.039868522
234	0x3d85caa1	0.06532789
235	0xbd663ba8	-0.056209236
236	0xbd6a0a84	-0.057138935
237	0xbcc01d71	-0.023451539
238	0x3d86682d	0.06562839
239	0x3dbb0fe0	0.09133887
240	0x3aa90911	0.0012896379
241	0x3d0f6dbf	0.03501677
242	0xbcb517d0	-0.022106081
243	0xbbbda0ea	-0.0057870047
244	0x3d959c0f	0.073051564
245	0xbceda130	-0.029007524
246	0xbbd7e0fd	-0.0065881
247	0x3c3441fb	0.011002059
248	0x3cc2adc7	0.023764504
249	0xbc6958c5	-0.014242356
250	0x3d713c4d	0.058895398
251	0x3d79fb9c	0.06103097
252	0x3d447ae5	0.047968764
253	0xbd753664	-0.059866324
254	0xbcbfaad2	-0.023396883
255	0x3c09fca8	0.008422054

conv_net.4.bias f4 [20]
0	0x3d01edca	0.031720914
1	0x3c05c24b	0.008163999
2	0xbbcd2814	-0.006260881
3	0x3c95159a	0.018198777
4	0xbbdf7154	-0.0068189297
5	0xbc2b6aea	-0.010462502
6	0x3ce8de6f	0.028426377
7	0x3cfdb082	0.030967955
8	0x3c28a08c	0.010292184
9	0xb9e569a7	-0.00043757
10	0x3ce47fe1	0.027893009
11	0x3ce17704	0.027522571
12	0x3c97cdc6	0.018530738
13	0x3b88924e	0.0041678315
14	0xbc9da6ff	-0.019244669
15	0x3cac8074	0.021057345
16	0x3ca659d5	0.020306507
17	0xbc83b6e2	-0.016078416
18	0x3c9e3a3c	0.019314878
19	0x3d0215f3	0.031759214

conv_net.5.weight f4 [20]
0	0x3f8043b8	1.0020666
1	0x3f73c070	0.9521551
2	0x3f8ab13c	1.0835338
3	0x3f8525b1	1.0402128
4	0x3f7a4f28	0.9777703
5	0x3f65e37d	0.89800245
6	0x3f4a5d05	0.79048187
7	0x3f68a1f7	0.9087214
8	0x3f80a0c6	1.0049064
9	0x3f663bd4	0.8993504
10	0x3f873bd7	1.0565137
11	0x3f8b80fc	1.0898738
12	0x3f3eb0b7	0.74488395
13	0x3f96d116	1.1782558
14	0x3f6002da	0.8750435
15	0x3f6302f9	0.8867641
16	0x3f6524f9	0.8950954
17	0x3f59fc44	0.8515055
18	0x3f822635	1.016791
19	0x3f5e90c2	0.8693963

conv_net.5.bias f4 [20]
0	0xbe6d2f26	-0.23162517
1	0xbe7cc7b7	-0.2468556
2	0xbe2d9b5e	-0.16953799
3	0xbe9455bb	-0.28971657
4	0xbe356928	-0.17715895
5	0xbe93f260	-0.28895855
6	0xbe7f51d9	-0.24933566
7	0xbe6885b0	-0.22707248
8	0xbe822af2	-0.2542339
9	0xbe48646e	-0.19569561
10	0xbe6dff53	-0.2324193
11	0xbe92bb18	-0.28658366
12	0xbe913f24	-0.28368485
13	0xbe648b08	-0.22318661
14	0xbe7b3ca3	-0.2453485
15	0xbe670518	-0.22560537
16	0xbe555dc2	-0.20836547
17	0xbe93b7f9	-0.28851297
18	0xbe8ff513	-0.28116664
19	0xbe5bc3a8	-0.21461356

conv_net.5.running_mean f4 [20]
0	0x3f699d18	0.9125533
1	0xbfbf04e3	-1.4923366
2	0xbe5bfbb5	-0.21482737
3	0xbf77b358	-0.9675803
4	0xbfc79d8b	-1.5594953
5	0xbf55d895	-0.835336
6	0x40b85f38	5.7616234
7	0xbfa1da21	-1.2644693
8	0xbf9d8d49	-1.2308742
9	0xbfbfcc5b	-1.4984239
10	0xbf022744	-0.50841165
11	0xc0397456	-2.8977256
12	0x407be49b	3.935828
13	0xbed71399	-0.4200714
14	0xbf7b0c9b	-0.9806611
15	0xbfdee575	-1.7413775
16	0xbecccd99	-0.4000061
17	0xbf9f25eb	-1.2433447
18	0xbfe40178	-1.7812948
19	0xbfdfb69f	-1.7477607

conv_net.5.running_var f4 [20]
0	0x4174232d	15.258588
1	0x419153e2	18.165958
2	0x418e7ae2	17.810001
3	0x418ce8f2	17.613743
4	0x4142ad90	12.167374
5	0x41811042	16.132938
6	0x41cb08af	25.37924
7	0x419effff	19.874998
8	0x41307057	11.027427
9	0x41ac1632	21.510838
10	0x418825c4	17.01844
11	0x415f54fc	13.958248
12	0x424cb49c	51.176376
13	0x41426bc3	12.151309
14	0x4131c8e4	11.111546
15	0x41e681e5	28.813425
16	0x415d3042	13.824282
17	0x418165e0	16.174744
18	0x41393e4e	11.577711
19	0x418be67e	17.487545

linear1.weight f4 [240, 500]
0	0x3cea850a	0.028627891
1	0x3cbd381b	0.023098042
2	0x3cada442	0.021196488
3	0xbd51f80b	-0.051261943
4	0xbdf341c8	-0.11877781
5	0x3de09fa6	0.109679505
6	0x3bc7203e	0.0060768416
7	0xbdf04389	-0.11731631
8	0xbdd1a817	-0.10237139
9	0xbd4133f6	-0.047168694
10	0x3cdb8779	0.026797997
11	0x3dcfe786	0.101515815
12	0xbccff3d1	-0.025384815
13	0xbe1839b1	-0.14865758
14	0x3d5ad36f	0.053424295
15	0x3d6ef95c	0.058343276
16	0xbcad89c8	-0.021183863
17	0x3d5545e6	0.052068613
18	0x3cba1e0a	0.022719402
19	0x3cb86f67	0.022514058
20	0x3d21c839	0.039497588
21	0x3d4e8813	0.05042274
22	0x3dbc8e5e	0.09206842
23	0x3e4a8ac5	0.19779499
24	0xbd73e785	-0.059546966
25	0x3d45059c	0.048101053
26	0x3c2b4cab	0.010455291
27	0xbc50ab57	-0.012736163
28	0xbda6cb5a	-0.08144255
29	0xbc8e3855	-0.017360846
30	0x3d6249b5	0.055246074
31	0x3d29860a	0.041387595
32	0x3dd64ae0	0.104635
33	0x3d65db4a	0.056117333
34	0x3d888a60	0.06667018
35	0xbc8bb9e2	-0.01705641
36	0xbcb23be4	-0.021757074
37	0x3e05ad72	0.13054445
38	0x3d92c478	0.0716638
39	0x3d22c1b8	0.039735526
40	0xbc1d3588	-0.009595282
41	0x3bd090d6	0.006364922
42	0x3dff9dcb	0.124812685
43	0x3e0acbf5	0.13554366
44	0x3bc7181f	0.0060758735
45	0xbca8b9bf	-0.020596383
46	0xbd410eb1	-0.04713315
47	0xbdf75d0b	-0.120782934
48	0x3bf62c12	0.007512578
49	0x3c8f7350	0.01751104
50	0xbd88f0a6	-0.06686525
51	0xbd2c4642	-0.04205919
52	0xbc3a4e44	-0.011371199
53	0x3c1fa9ac	0.009745043
54	0xbd91afe0	-0.071136236
55	0x3c0717fd	0.008245465
56	0x3e155bf1	0.14585854
57	0x3e0469cd	0.12930985
58	0xbd47aaaa	-0.048746742
59	0xbd772a7b	-0.060343247
60	0x3c2e3859	0.0106335515
61	0xbe02e52f	-0.12782739
62	0x3e0f02f7	0.13965975
63	0x3dd990a0	0.10623288
64	0x3e034082	0.12817577
65	0xbcd9f953	-0.026608145
66	0x3d0c5e74	0.034269765
67	0x3d64e83f	0.05588555
68	0xbd8f63dc	-0.070014685
69	0x3d0ac145	0.033875722
70	0x3c725099	0.014789724
71	0xbd45a7ce	-0.048255734
72	0xbbf39bfc	-0.0074343663
73	0xbca34eb4	-0.01993499
74	0x3bc8f13e	0.006132274
75	0x3c55c952	0.013048487
76	0xbcb49ff6	-0.022048932
77	0xbd577675	-0.052603204
78	0xbc9cd9f7	-0.019146902
79	0xbd8975a0	-0.06711888
80	0x3d080c45	0.033214826
81	0x3da1131a	0.078649715
82	0x3bc1d797	0.005915593
83	0x3d8c8d0f	0.06862842
84	0x3ba21f3f	0.0049475725
85	0x3cf47e9d	0.02984553
86	0x3bc8e61f	0.006130948
87	0xbb2fc19b	-0.0026818279
88	0x3cab847c	0.020937197
89	0x3e1d4004	0.15356451
90	0x3d6680b1	0.056275073
91	0x3d0f64ed	0.03500836
92	0x3d381bbb	0.04494832
93	0x3d952cfb	0.0728397
94	0x3d8f4099	0.06994743
95	0x3d64812e	0.055787258
96	0xbd8b24aa	-0.067941025
97	0xbd7d368e	-0.061819606
98	0xbc5ebe35	-0.013595154
99	0x3cd6396c	0.026150428
100	0x3d76bd6a	0.060239233
101	0x3d938679	0.07203383
102	0x3bf70a51	0.0075390716
103	0x3cd203cf	0.025636582
104	0x3d8f264e	0.06989728
105	0x3d84a91c	0.064775676
106	0x3c189ca0	0.009314686
107	0x3d035582	0.03206397
108	0x3cbfae80	0.023398638
109	0x3c9d7c7b	0.019224396
110	0xbbdd044f	-0.0067448984
111	0x3e1e3739	0.15450753
112	0xbda22d54	-0.07918802
113	0xbe10b3ba	-0.1413106
114	0x3dbd13c0	0.09232283
115	0x3dd3a4d3	0.10334172
116	0x3d48f87a	0.04906509
117	0x3d865660	0.065594435
118	0x3cd333a1	0.025781455
119	0x3d7659ed	0.060144354
120	0x3de2afef	0.11068713
121	0x3d86df6f	0.06585585
122	0x3ca953a4	0.020669766
123	0xbb2ad8b6	-0.0026069111
124	0x3cf9afa4	0.03047926
125	0x3d6e6eae	0.05821102
126	0x3d25845d	0.040409435
127	0xbccfe132	-0.025375936
128	0xbd949b9c	-0.07256243
129	0x3d072d31	0.033002082
130	0xbc3b1eb3	-0.0114208935
131	0xbdf88cf1	-0.121362574
132	0xbd296a97	-0.041361418
133	0xbdb26340	-0.08710337
134	0x3d01d033	0.031692695
135	0xbd3f8d80	-0.046765804
136	0xbcf74625	-0.030184815
137	0xbd58a42c	-0.05289094
138	0xbdfb963a	-0.12284513
139	0xbdfdeb9b	-0.12398454
140	0x3ca4c22c	0.02011212
141	0x3dbcfd34	0.09227982
142	0x3d07106f	0.032974657
143	0x3d0e98d8	0.034813732
144	0x3cb07934	0.02154217
145	0xbbc7c266	-0.006096172
146	0xbd10ad3b	-0.035321455
147	0x3ddfa59f	0.109202616
148	0x3ddf2d47	0.10897308
149	0x3cb29c99	0.021803187
150	0xbd25a2ff	-0.04043865
151	0x3a99f6ad	0.0011746489
152	0x3c4202f3	0.011841523
153	0x3c067d4a	0.008208582
154	0xbcfa3f81	-0.03054786
155	0xbdd88688	-0.10572535
156	0x3c996d46	0.018728863
157	0x3d187ad7	0.037226524
158	0xbbba496f	-0.0056850235
159	0x3cd5d61f	0.026103077
160	0xbd897fe4	-0.06713846
161	0x3c63cb0f	0.013903393
162	0x3cddfa31	0.02709684
163	0xbd307340	-0.04307866
164	0x3cced9d6	0.025250357
165	0xbcd939f7	-0.026516898
166	0xbd19db09	-0.037562404
167	0x3cf0d29f	0.029397307
168	0xbd4e9a2d	-0.050440002
169	0xbddba063	-0.10723951
170	0x3d865d49	0.065607615
171	0x3c4e08a5	0.012575303
172	0x3de63e64	0.11242369
173	0x3d388513	0.045048784
174	0x3c02155f	0.007939666
175	0xbc427dbf	-0.0118708005
176	0xbd24ace1	-0.040203933
177	0xbc073615	-0.00825264
178	0xbd039b1f	-0.032130357
179	0xbd74e7e1	-0.05979145
180	0x3d542f9e	0.051803224
181	0x3dae10b6	0.08499281
182	0x3dc28d6a	0.09499629
183	0x3e0ebf34	0.13940126
184	0x3dcd2b21	0.10017992
185	0x3b6925f7	0.0035575607
186	0xbc9e60bf	-0.019333242
187	0x3e8108e6	0.252021
188	0x3e2188fd	0.15774913
189	0x3cd982aa	0.026551563
190	0x3d387cad	0.045040775
191	0x3d3a4461	0.045475367
192	0x3e0bea0a	0.13663498
193	0xbb918993	-0.004441449
194	0x3c907337	0.017633064
195	0xbd4e8b6e	-0.05042594
196	0xbe21ca9a	-0.15799943
197	0xbdde6840	-0.10859728
198	0xbd8ab719	-0.06773204
199	0xbd2249e8	-0.039621264
200	0xbd59ab97	-0.053142156
201	0x3c494f36	0.012286952
202	0xbdc41df1	-0.09576023
203	0x3d9c092a	0.076189354
204	0x3d4eccdb	0.050488334
205	0xbbc35f1e	-0.0059622666
206	0x3d768aa6	0.06019082
207	0xbca56b96	-0.020192903
208	0xba55f730	-0.0008162139
209	0xbd1fb998	-0.038995355
210	0x3d8434e1	0.06455398
211	0x3ddf7b8f	0.10912239
212	0x3de70665	0.112805165
213	0xbdd107e9	-0.10206587
214	0xbcb4108b	-0.021980545
215	0xbd5f6d5d	-0.054547656
216	0xbcebd496	-0.028787892
217	0x3db74ef3	0.08950605
218	0xbe0ffc75	-0.14061148
219	0x3db8a354	0.09015527
220	0x3d0b90e6	0.034073733
221	0xbd872ef7	-0.06600755
222	0xbd51506c	-0.051102087
223	0x3db843bb	0.089972936
224	0x3d5e15d8	0.05422005
225	0xbd52e31f	-0.05148613
226	0xbbf0d9b6	-0.007350172
227	0x3c1faf83	0.009746435
228	0xbcaeb06d	-0.02132436
229	0x3c4072f7	0.01174616
230	0x3b9b6839	0.004742649
231	0xbd58239a	-0.052768327
232	0xbd8ff7fa	-0.0702972
233	0xbd421f43	-0.047393095
234	0x3d93a1d6	0.07208602
235	0x3dfccf13	0.12344184
236	0x3ce69942	0.02814925
237	0xbdea4318	-0.11438578
238	0xbd01d3a1	-0.031695966
239	0x3ccb275f	0.024799047
240	0x3d7f3e76	0.062315427
241	0x3dba7ffb	0.091064416
242	0xbdb15c71	-0.0866021
243	0x3cfaf633	0.030634975
244	0x3d8b81e9	0.06811888
245	0xbd05da70	-0.03267902
246	0x3cb8668d	0.022509838
247	0xbd9f1b02	-0.07768823
248	0x3d8891fc	0.06668469
249	0x3cb073a9	0.021539526
250	0xbd230543	-0.03979994
251	0x3d248437	0.040165152
252	0x3cfe477c	0.031039946
253	0xbd09be81	-0.033628944
254	0xbd4ffa1f	-0.050775643
255	0x3c8e2487	0.017351402

linear1.bias f4 [240]
0	0xbca66175	-0.020310143
1	0x3d52bd3b	0.051449995
2	0x3c2832e6	0.010266041
3	0xbcf28d43	-0.029608374
4	0xbd3f07b3	-0.046638202
5	0x3d626670	0.055273473
6	0x3c504608	0.012712009
7	0x3ce63623	0.028101986
8	0xbc822e4c	-0.015891217
9	0xbc918229	-0.01776226
10	0x3ccb2197	0.02479629
11	0xbc5d34fe	-0.013501404
12	0x3c824a1f	0.015904484
13	0xbadc6cd5	-0.0016817102
14	0xbd2f2bf4	-0.042766526
15	0x3d68d453	0.056843113
16	0x3c870464	0.016481586
17	0x3b3ab045	0.0028486412
18	0x3d484a7e	0.048899166
19	0x3da42ebf	0.080167286
20	0x3ccb6ff4	0.024833657
21	0x3dc8c79e	0.09803699
22	0xbca2a9db	-0.019856384
23	0xbd8cf755	-0.06883112
24	0x3d011563	0.031514537
25	0xbd622174	-0.055207685
26	0xbd32c7c5	-0.043647546
27	0xbc8ef054	-0.017448582
28	0xbc80714c	-0.015679024
29	0x3c6dd494	0.014516015
30	0x3d61c384	0.0551181
31	0x3c5ea3a4	0.01358882
32	0x3da3f65e	0.08005975
33	0xbbd8d8b3	-0.0066176294
34	0x3c84b64e	0.01620021
35	0xbd08c0a5	-0.033386845
36	0x3d134845	0.035957593
37	0xbbc298e9	-0.0059386385
38	0xbd08f161	-0.033433322
39	0x3d5efadd	0.05443846
40	0x3d552cd7	0.052044716
41	0x3c93a13e	0.018021222
42	0x3dbd13b1	0.092322715
43	0xbda9e1cb	-0.0829502
44	0x3cfdda64	0.030987926
45	0xbc9032b9	-0.017602311
46	0x3d990517	0.07471674
47	0x3ca0ae0b	0.01961424
48	0x3dfa746e	0.122292385
49	0xbccb1092	-0.024788175
50	0xbc5b5a89	-0.0133882845
51	0x3d158d7e	0.03651189
52	0xbc7aa39b	-0.015297796
53	0x3d955f10	0.07293522
54	0x3d29aa17	0.041421976
55	0x3c98c7ab	0.018649897
56	0xbc051bbe	-0.00812429
57	0x3cb58a73	0.022160744
58	0x3cf1280f	0.029438047
59	0x3d00f7aa	0.03148619
60	0xbdcef3e1	-0.1010511
61	0x3c8f2efb	0.017478457
62	0xbca15d94	-0.019697942
63	0xbc970599	-0.018435286
64	0x3d8106f0	0.06300151
65	0x3cd1e9ba	0.025624145
66	0x3c003d42	0.007827105
67	0xbd10096e	-0.035165243
68	0x3d4390d8	0.047745556
69	0x3d8dce1b	0.06924077
70	0xbcf62012	-0.03004459
71	0x3a9e9d66	0.0012101352
72	0x3d433700	0.047659874
73	0xbd8ab515	-0.0677282
74	0xbc7ebcc3	-0.015547934
75	0x3dbf5973	0.09343233
76	0x3c54a789	0.012979397
77	0xbc00b42b	-0.007855455
78	0xbd82a31a	-0.063787654
79	0x3db19bc8	0.08672291
80	0xbd5e76ef	-0.054312643
81	0x3cf63877	0.030056221
82	0xbc8ad2c6	-0.016946208
83	0x3c258db4	0.010104585
84	0x3da6cccb	0.0814453
85	0xbcb2577c	-0.021770231
86	0x3ce497c0	0.027904391
87	0xbd31b24f	-0.04338294
88	0xbadcc8dd	-0.001684453
89	0x3b091370	0.0020916127
90	0x3d933c11	0.07189191
91	0x3ca6cbcd	0.020360852
92	0x3dc8d6a1	0.09806562
93	0x3d355c11	0.044277254
94	0x3bdb46c7	0.006691787
95	0x3cd53ce8	0.026030019
96	0x3d15edfa	0.036603905
97	0x3a96ee37	0.0011515085
98	0xbd195e64	-0.037443534
99	0xbd42d390	-0.047565043
100	0x3c9b13d9	0.018930363
101	0x3c77e022	0.015129121
102	0x3e079b96	0.13242945
103	0x3bacab1e	0.005269422
104	0xbcf917ab	-0.030406794
105	0xbc32e8d5	-0.010919769
106	0x3cde828c	0.027161859
107	0x3d991211	0.07474149
108	0x3dbb03f1	0.09131611
109	0xbcf931a6	-0.030419182
110	0x3d0194e2	0.031636126
111	0x3c603c75	0.013686289
112	0x3d80dbc5	0.06291918
113	0x3c859c0f	0.016309766
114	0x3d1d98ed	0.03847592
115	0x3d18b4be	0.037281744
116	0x3cd591ac	0.026070438
117	0x3d391016	0.045181356
118	0x3a1f5167	0.00060774985
119	0x3cde71ce	0.027153876
120	0x3cda4476	0.026643973
121	0x3d47e77b	0.04880474
122	0x3d9b0a2d	0.075703
123	0xbda9d42d	-0.082924224
124	0x3d6fa331	0.05850524
125	0xbc93c847	-0.018039836
126	0x3d6ace5a	0.0573257
127	0xbc8a1d0b	-0.016859552
128	0x3d54c6d3	0.051947426
129	0xbbd90571	-0.006622963
130	0xbd5d2e03	-0.05399896
131	0xbc8d6c04	-0.01726342
132	0xbcc713d5	-0.024301449
133	0x3ceada12	0.028668437
134	0x3a79e3ef	0.0009532561
135	0x3d4449c3	0.047921907
136	0x3c75b180	0.014995933
137	0x3d51f99c	0.051263437
138	0x3daa1e3e	0.083065495
139	0x3c9b7824	0.018978186
140	0x3d0b5adf	0.03402221
141	0x3c2288a2	0.009920271
142	0x3db6ad53	0.08919778
143	0x3cb0aeea	0.02156778
144	0x3d2d0888	0.042244464
145	0x3da95a46	0.082691714
146	0x3ae8fc43	0.0017775375
147	0x3c0b5e36	0.008506348
148	0xbd4013fd	-0.046894062
149	0x3cbdb9fe	0.023159977
150	0xbbac4ac6	-0.005257937
151	0xba71f635	-0.0009230108
152	0x3d3fb268	0.046801
153	0xbd74ab39	-0.059733603
154	0x3d7c8d5c	0.06165825
155	0x3d14a5bb	0.036290865
156	0xbc3a0b8c	-0.011355292
157	0x3dc5803d	0.096436
158	0x3c18c7f4	0.009325016
159	0xbc4fb0a9	-0.012676396
160	0x3d9186be	0.07105778
161	0xbd3a63ed	-0.045505453
162	0x3d116e38	0.035505503
163	0xbd21a656	-0.03946527
164	0xbcb61dc7	-0.022230996
165	0x3ce414a8	0.02784188
166	0xbd30f08a	-0.043198146
167	0x3d8c9a88	0.06865412
168	0xbd03117b	-0.031999093
169	0x3d171aef	0.03689092
170	0x3dbc42fc	0.09192464
171	0x3c6aa992	0.014322655
172	0xbc2443f5	-0.010025968
173	0x3d1be41f	0.03805935
174	0x3c552c0d	0.013010991
175	0xbcf9a01b	-0.030471852
176	0x3d27b093	0.04093988
177	0x3d4accaf	0.049511608
178	0xbbe824a9	-0.0070844484
179	0xbd01f472	-0.03172726
180	0x3d636b6d	0.05552237
181	0xbcea36f8	-0.028590664
182	0xbd922705	-0.07136349
183	0x3dc5099a	0.09620972
184	0x3b8d4395	0.004311035
185	0x3be71d17	0.0070530283
186	0x3d99ef8f	0.07516395
187	0x3cfebe82	0.0310967
188	0xbdb53a28	-0.08848983
189	0x3d8bb06c	0.06820759
190	0x3d427e89	0.047483955
191	0xbc8323f0	-0.016008347
192	0x3db8ad9f	0.090174906
193	0x3c1c5c96	0.009543559
194	0x3d000678	0.03125617
195	0x3becc873	0.007226044
196	0x3c5f6054	0.013633806
197	0x3d410939	0.047127936
198	0x3c3fae0a	0.011699209
199	0x3b8c45bd	0.0042807744
200	0x3da1cae3	0.07900026
201	0xbd3d2665	-0.046179194
202	0x3d42ea22	0.047586568
203	0x3d2534d3	0.04033358
204	0x3d33b9d1	0.04387838
205	0x3d025d8b	0.03182749
206	0x3d9ad5ff	0.07560348
207	0x3d806800	0.062698364
208	0x3d175586	0.036946796
209	0x3d5cb1b5	0.053880412
210	0xbd51ddb4	-0.051236823
211	0xbd451a29	-0.04812065
212	0x3d1bde05	0.03805353
213	0xbcf82cbe	-0.030294772
214	0xbd7cad18	-0.061688513
215	0x3d479381	0.048724655
216	0x3dc0de37	0.09417384
217	0xbbf21096	-0.007387231
218	0xbcdfb45c	-0.027307682
219	0xbbb208c4	-0.005433174
220	0xbd13c57e	-0.036077015
221	0x3d419dd9	0.047269676
222	0x3ce7343e	0.028223153
223	0x3d685f3e	0.056731455
224	0x3c9ae39e	0.018907364
225	0x39334265	0.00017095504
226	0x3c826b3d	0.015920276
227	0xbd9822ad	-0.07428489
228	0xbd1d1a95	-0.03835543
229	0x3c49a2de	0.012306897
230	0x3ca06984	0.019581564
231	0x3d810961	0.06300617
232	0x3cfe4995	0.031040946
233	0xbd8527b2	-0.06501712
234	0xbde605ad	-0.11231551
235	0xbc594a3d	-0.013262329
236	0xbda6a99a	-0.08137818
237	0x3d1b19cb	0.037866395
238	0x3d77e563	0.060521495
239	0x3cfb7248	0.030694142

linear2.weight f4 [84, 240]
0	0x3cb98b32	0.022649381
1	0x3ddb3809	0.10704047
2	0x3de4356b	0.11143001
3	0xbb1cd28c	-0.0023929207
4	0x3d493038	0.04911825
5	0xbd706367	-0.058688547
6	0xbe132478	-0.1436938
7	0xbde73b6a	-0.11290629
8	0x3b16789c	0.0022960072
9	0xbc34c6bf	-0.011033713
10	0x3b0fe1af	0.0021954586
11	0x3c7867e6	0.01516149
12	0xba9ad403	-0.0011812452
13	0x3e18ea68	0.14933169
14	0x3d94b6d0	0.07261431
15	0x3b60ea7d	0.0034319453
16	0xbd143f4d	-0.03619318
17	0x3c297f72	0.010345327
18	0x3d8827c6	0.06648211
19	0xbcaa9136	-0.020821195
20	0xbdb8d01a	-0.09024067
21	0xbdb48f58	-0.08816403
22	0x3d262609	0.040563617
23	0xbde29700	-0.11063957
24	0x3c3f0673	0.011659252
25	0xbdaea44f	-0.08527433
26	0xbe227681	-0.15865518
27	0xbbbe9aa2	-0.0058167735
28	0x3e18efbe	0.14935204
29	0xbd78812a	-0.060670055
30	0x3e321b96	0.17393336
31	0x3d4badbc	0.049726233
32	0x3defb168	0.117037594
33	0xbc8b5f47	-0.017013205
34	0xbb6f64eb	-0.0036528658
35	0xbe107b12	-0.14109448
36	0x3d9614f7	0.073282175
37	0xbca95dc0	-0.020674586
38	0x3d257f64	0.040404692
39	0xb911528c	-0.00013859029
40	0x3db2eb13	0.08736243
41	0x3e0b84bc	0.13624853
42	0xbd6757a7	-0.056480076
43	0xbd9cce77	-0.076565675
44	0xbe21c91a	-0.1579937
45	0xbd65d776	-0.056113683
46	0x3da8d10b	0.08242997
47	0xbe0ccacf	-0.1374924
48	0xbcbe76e0	-0.023250043
49	0xbd2540ff	-0.04034519
50	0xbda12262	-0.07867886
51	0x3d54f779	0.05199382
52	0xbd2318dc	-0.03981863
53	0xbd49c2f1	-0.049258176
54	0x3d824786	0.06361298
55	0x3d11b4c7	0.035572793
56	0x3dc11c11	0.09429181
57	0xbd3b5143	-0.045731794
58	0x3dd4c3b9	0.10388894
59	0xbe22dc64	-0.15904385
60	0xbe8a87d2	-0.27056748
61	0x3e29454d	0.16530342
62	0x3dd3df62	0.10345341
63	0x3d46141e	0.04835903
64	0x3da3e504	0.08002666
65	0xbd9d6795	-0.07685772
66	0x3d73994b	0.059472363
67	0x3c640cd8	0.013919078
68	0xbc6e766c	-0.014554601
69	0x3d425285	0.047441978
70	0xbd3a3af8	-0.045466393
71	0xbcbbecb7	-0.022940023
72	0xbba51d64	-0.005038904
73	0x3cd67324	0.02617795
74	0xbd85416c	-0.06506619
75	0x3d39aad0	0.045328915
76	0xbe29f541	-0.16597463
77	0x3d450381	0.048099045
78	0xba91a3de	-0.0011111458
79	0x3d41c367	0.04730549
80	0x3e023f02	0.12719348
81	0xbdacaf9c	-0.08431932
82	0xbe084387	-0.1330701
83	0xbcdfc890	-0.027317315
84	0xbdc4dc68	-0.09612352
85	0xbd1454ef	-0.03621381
86	0xbe0c9a13	-0.1373065
87	0x3c112303	0.008858445
88	0x3d891e9c	0.066952914
89	0x3ced961f	0.029002247
90	0x3c1e2454	0.009652216
91	0x3c2a25e8	0.010385014
92	0xbd4dc20b	-0.050233882
93	0x3e14ce5e	0.14531848
94	0x3d3b2832	0.04569263
95	0xbdf10ca0	-0.11769986
96	0x3d039419	0.03212366
97	0xbc158fee	-0.009128554
98	0x3c903a60	0.01760596
99	0x3d997879	0.074936815
100	0x3cb3d9db	0.021954468
101	0xbd30bb4e	-0.043147378
102	0xbc898648	-0.016787663
103	0x3d500572	0.050786443
104	0xbcf0593a	-0.029339422
105	0x3dc17938	0.09446949
106	0x3d741ff1	0.059600774
107	0x3dce692f	0.10078656
108	0x3c5d488b	0.013506065
109	0xbd93f3e6	-0.07224254
110	0xbdcf2fff	-0.101165764
111	0x3c81298e	0.015766885
112	0x3ba93879	0.005164203
113	0xbd1bc3f8	-0.038028687
114	0x3d45fefe	0.048338883
115	0x3d7b1223	0.061296593
116	0x3de6a580	0.11262035
117	0x3e0c8092	0.1372092
118	0xbc60a6da	-0.0137116555
119	0x3c0b702a	0.008510629
120	0xbc5d4a23	-0.013506445
121	0x3dd2482b	0.10267671
122	0xbb84764a	-0.0040424215
123	0xbd2abc71	-0.041683618
124	0x3e165c82	0.14683726
125	0xbd8dc50a	-0.06922348
126	0x397164df	0.00023021128
127	0xbd9cf9a5	-0.076648034
128	0xbc41e27a	-0.011833781
129	0xbc6294e5	-0.013829445
130	0xbd8c3e84	-0.068478614
131	0x3c44d657	0.012013993
132	0x3de4de4f	0.111752145
133	0xbd61b32f	-0.055102523
134	0xbd73e6da	-0.05954633
135	0x3d7ccf02	0.061720856
136	0xbd6b0fbf	-0.057388064
137	0x3da31b98	0.079642475
138	0xbc783d0c	-0.015151273
139	0xbcd3a4c4	-0.025835402
140	0x3d5d3c78	0.054012746
141	0x3c3cff9e	0.011535553
142	0x3dc24543	0.09485867
143	0xbd88c0a6	-0.0667737
144	0xbd5c5bc3	-0.05379845
145	0x3d67cfe8	0.05659476
146	0xbc01d549	-0.007924386
147	0x3cceaf01	0.025229933
148	0xbe1c6f82	-0.15276912
149	0xbdd375b5	-0.10325185
150	0xbdfbf02c	-0.123016685
151	0xbc100492	-0.008790152
152	0x3d8c98df	0.06865095
153	0xbdd209bb	-0.10255762
154	0x3d81cfa7	0.06338435
155	0x3e42d604	0.19026953
156	0x3d3249da	0.04352746
157	0xbdad7cc2	-0.08471061
158	0x3d505938	0.050866336
159	0x3c81d4ab	0.015848478
160	0x3c6b391a	0.014356876
161	0xbc4529f1	-0.012033925
162	0xbccf82c3	-0.025330907
163	0xbc9206df	-0.017825542
164	0x3dbda0db	0.09259196
165	0x3d936c41	0.07198382
166	0x3d459dff	0.04824638
167	0xbc0816aa	-0.008306185
168	0x3c58c5bb	0.013230736
169	0x3d8fd404	0.07022861
170	0x3db141b0	0.08655107
171	0xbd2784c6	-0.040898107
172	0x3b854765	0.004067349
173	0x3da900c5	0.082521
174	0x3dd84f5e	0.10562013
175	0x3cf0d2e1	0.02939743
176	0xbd4b41e3	-0.04962338
177	0x3d6a2cc0	0.057171583
178	0x3d7080f8	0.058716744
179	0x3d9cc322	0.07654406
180	0x3d95a887	0.07307535
181	0xbdeee0e2	-0.11663987
182	0xbd3cf634	-0.046133235
183	0xbcf439fd	-0.029812807
184	0x3dad2779	0.084547944
185	0xbd93c5f3	-0.0721549
186	0x3d95f229	0.07321579
187	0xbd252ca4	-0.040325776
188	0xbdb89d80	-0.09014416
189	0xbd3914d7	-0.04518589
190	0x3cb2b514	0.02181486
191	0xbd7dd9da	-0.061975338
192	0x3d237e4d	0.03991537
193	0x3c9ff1d9	0.019524502
194	0x3d55397c	0.052056774
195	0x3d8f8dff	0.070095055
196	0xbd1405de	-0.036138408
197	0x3be72787	0.0070542726
198	0x3da753cb	0.08170279
199	0x39dc40f3	0.0004201006
200	0xbdbc3002	-0.09188844
201	0xbdfb1ab9	-0.12260956
202	0x3d221bbf	0.039577242
203	0xbd8f8839	-0.07008404
204	0x3dd4cf66	0.103911206
205	0x3c976555	0.018480936
206	0x3dd0d82d	0.10197482
207	0xbd3173d9	-0.04332337
208	0x3d3bd3a6	0.04585614
209	0xbd26d498	-0.04073009
210	0x3acfc92c	0.00158528
211	0xbc8da592	-0.017290864
212	0xbda97620	-0.08274484
213	0x3cea0a6f	0.028569428
214	0x3db430ce	0.08798371
215	0x3c44eaf0	0.012018904
216	0xbc6f5b32	-0.014609145
217	0x3db5121a	0.08841343
218	0x3cad64ea	0.021166284
219	0xbcaca579	-0.021074997
220	0x3d9c6759	0.076368995
221	0xbda0aec2	-0.078458324
222	0x3b713b14	0.0036808895
223	0xbd3bf71c	-0.04588996
224	0x3d8b53e5	0.06803111
225	0xbd63f126	-0.0556499
226	0x3db6550e	0.08902942
227	0xbe75e924	-0.24014717
228	0xbd71f05c	-0.059067115
229	0xbcf402b0	-0.029786438
230	0xbe074dc2	-0.13213256
231	0xbd3e2df0	-0.04643053
232	0x3dc0ce48	0.09414345
233	0xbde9a171	-0.11407746
234	0xbdff86ef	-0.124769084
235	0x3d2af0aa	0.04173342
236	0xbe164def	-0.14678167
237	0xbd43f8f7	-0.047844853
238	0xbd9ac507	-0.07557111
239	0x3d8ec69c	0.069714755
240	0xbb13722e	-0.0022498476
241	0xbd7f0457	-0.06226
242	0xbcca5bf4	-0.02470205
243	0xbca86eb6	-0.020560604
244	0xbca141ef	-0.01968476
245	0x3d91e4ac	0.07123694
246	0x3d53f087	0.051743057
247	0x3d782d28	0.06058994
248	0x3d81b96a	0.06334193
249	0xbc5fbdbd	-0.013656077
250	0x3d5b6bf0	0.053569734
251	0x3db4887c	0.08815095
252	0x3c4d505b	0.012531365
253	0xbcca5cac	-0.024702393
254	0x3c7afd61	0.015319199
255	0x3d9a0b28	0.07521659

linear2.bias f4 [84]
0	0xbd1924b0	-0.037388504
1	0x3c306b08	0.010767706
2	0xbd484ec1	-0.04890323
3	0x3d291594	0.041280344
4	0x3d9f6b97	0.07784193
5	0x3d3266ec	0.043555185
6	0xbbbdc392	-0.005791136
7	0xbccc6678	-0.024951205
8	0x3d3de387	0.046359565
9	0x3da8a4d4	0.082345635
10	0xbd0e8361	-0.03479326
11	0xbca4667b	-0.020068398
12	0x3d314b3f	0.04328465
13	0x3cb47401	0.022027971
14	0x3caa8bf3	0.020818686
15	0xbc688dbf	-0.014193951
16	0x3ca9810d	0.020691419
17	0x3d673a0e	0.05645185
18	0xbb6ff428	-0.0036614034
19	0xbbe006bc	-0.0068367403
20	0x3c244488	0.010026105
21	0x3d6c5220	0.057695508
22	0xbb1d6fa5	-0.0024022844
23	0x3d604ce1	0.054760817
24	0x3d1c9274	0.038225606
25	0x3b8898ad	0.004168591
26	0x3c9ddda8	0.019270733
27	0xbd21069c	-0.039312944
28	0xbd52c2a3	-0.05145515
29	0xbb404da6	-0.0029343157
30	0xbd1bbec9	-0.038023744
31	0x3c9818e6	0.01856656
32	0xbc007392	-0.007840054
33	0x3cafa861	0.021442594
34	0x3d884b4d	0.066549875
35	0x3d94ceaf	0.07265984
36	0x3cc8139d	0.024423415
37	0x3d791831	0.060814086
38	0x3d2ee0e9	0.04269496
39	0x3c6218df	0.013799875
40	0xbb9c57b0	-0.0047711954
41	0x3cf25b54	0.029584564
42	0xbaf8852e	-0.0018960589
43	0x3d8a633d	0.067572095
44	0x3bf9ce35	0.0076234587
45	0x3ba83e07	0.0051343474
46	0xbbd98265	-0.0066378587
47	0xbcc4ac61	-0.024007978
48	0xbd1a866c	-0.03772585
49	0xbd37e6e3	-0.044897925
50	0x3c96a51d	0.018389279
51	0x3d602f0e	0.054732375
52	0x3d4e5602	0.050374992
53	0x3d8a6a63	0.06758573
54	0xbcac2c44	-0.021017201
55	0x3d24192c	0.04006307
56	0x3d0e5715	0.034751017
57	0xbcca94d9	-0.02472918
58	0x3b56e6c0	0.0032791346
59	0xbd265a5f	-0.04061353
60	0x3d4b1ee1	0.049589995
61	0x3d4c3d1e	0.049862973
62	0xbccf2f02	-0.02529097
63	0xbce807b3	-0.028323984
64	0x3d2adb42	0.041713007
65	0x3c1df564	0.009641025
66	0xbd2fd08d	-0.0429235
67	0x3c7f1760	0.015569538
68	0x3d9a1b8a	0.07524784
69	0xbce4253f	-0.027849792
70	0xbce60797	-0.028079791
71	0x3c017408	0.007901199
72	0x3d11cacf	0.035593804
73	0x3b24d219	0.0025149642
74	0x3d183e57	0.037168827
75	0x3d2c4bb6	0.04206439
76	0xbcc09fcc	-0.023513697
77	0x3b759ec8	0.0037478674
78	0xbd146404	-0.036228195
79	0x3d3ff755	0.046866734
80	0x3d0493de	0.03236758
81	0x3d385ea9	0.04501215
82	0x3bdf9287	0.0068228873
83	0xbcf478ae	-0.0298427
