models/mnist_ann_model/model/model.pth (torch, 771208 bytes, 14 tensors)

conv_net.0.weight f4 [40, 1, 5, 5]
0.14097622 0.26342773 0.14946806 -0.37013674 -0.15664606 0.027168987 0.119356155 0.13694455
-0.03827636 0.07188093 -0.32930946 0.08858813 0.25583655 0.18157671 0.10717709 -0.1730158
0.12752618 -0.08854657 0.18634583 -0.1677025 -0.28278795 -0.19891557 -0.21635565 0.13641934
-0.22399187 -0.2365576 -0.3822677 -0.52713364 -0.4650408 -0.24691266 -0.11676383 -0.16161498
-0.13078031 0.0708812 0.0074036866 0.10551622 -0.025417505 0.1099671 0.14769049 0.040305607
0.100908615 0.11499591 0.25953597 0.13956802 0.10477415 0.32045949 -0.016536074 0.27434108
0.058543857 -0.02703992 -0.094603464 -0.055970218 -0.16188183 -0.0598987 0.07912294 -0.28486523
-0.17914225 0.15836762 0.14429459 0.17367172 0.028162096 0.1596223 -0.009859516 -0.027493378
0.06771832 0.0663893 -0.037595082 -0.05658863 0.15564781 -0.03117742 -0.10580411 0.075730674
0.0064072045 0.079719044 -0.13406037 0.24841574 0.14884417 0.2543814 0.033885673 -0.3761604
0.106815435 0.13033177 0.0071379323 -0.31016642 -0.3247885 0.2735675 0.30126384 -0.23335057
-0.58971435 -0.21004187 0.09871396 -0.07055221 -0.46875572 -0.44124466 0.2020486 0.23466472
-0.16818851 -0.49091014 -0.21064712 0.24924158 0.035190217 0.12929161 -0.1624723 0.0064051407
0.19348812 -0.044401236 -0.17763644 -0.27055398 -0.10359864 0.07770321 -0.14913893 -0.28071544
-0.23213209 0.14586854 0.26650488 -0.21886192 -0.069750875 -0.07524527 0.030470552 0.2658726
-0.27447888 -0.21655513 0.045051493 0.28282714 0.2624034 0.056498826 0.16357425 -0.10526839
-0.078862734 -0.34237868 -0.020832678 0.004113731 0.10594027 -0.060170956 0.101513915 -0.005434136
0.19504164 0.20233728 0.35131365 0.1047424 -0.07818792 0.068386324 -0.1407055 0.2066939
0.27673864 -0.31207567 -0.13928391 -0.283241 -0.3897005 -0.07661001 -0.22030592 -0.02922342
0.020005027 0.19879928 -0.06325387 -0.22189216 -0.034720324 0.25626677 0.20608011 -0.23811935
-0.014210924 0.19697307 0.31553045 -0.07265774 0.0061091087 0.20040183 0.055291343 0.07775885
-0.19700524 -0.2515901 -0.01123059 -0.123256736 -0.060624138 -0.228396 -0.31453964 0.12214436
0.31770182 0.033892237 0.10419937 0.033178203 -0.15632029 -0.06756794 0.22230797 -0.06704601
0.14513601 -0.24847318 -0.34112614 -0.28423244 -0.014787807 -0.13239837 -0.08328504 -0.16795476
0.03192652 0.09538214 -0.14955182 -0.038489997 -0.006810791 0.04181324 0.060905382 -0.18150206
-0.012070603 -0.15579848 -0.35978854 0.035800125 0.072646 -0.1448901 -0.29077405 -0.18949676
0.0061407676 0.3668793 -0.1668839 -0.39340317 -0.3172429 0.0071157995 0.3941862 -0.3861606
-0.21722591 0.10103303 0.25222832 0.25594047 -0.33022842 -0.1808758 -0.0962451 0.06824499
0.24331959 0.039434064 0.18078257 0.017007342 -0.19607696 0.023973659 0.15479016 -0.033694815
-0.2617795 0.09990479 -0.054508604 0.097401984 -0.21271174 -0.09104286 -0.20369586 0.11072755
-0.13569671 -0.06121004 -0.14645103 0.14718132 0.3125028 -0.043744247 0.08151644 0.25076455
0.059883825 -0.03545295 0.049957797 -0.26805136 -0.116029024 -0.18394053 -0.087258935 0.083014674
00000000: 125c 103e 00e0 863e 280e 193e 9082 bdbe
00000010: d367 20be 7f91 de3c 0071 f43d 313b 0c3e
00000020: acc7 1cbd 4f36 933d 409b a8be b26d b53d
00000030: 02fd 823e 3fef 393e aa7f db3d 0e2b 31be
00000040: 3996 023e e757 b5bd 71d1 3e3e 34ba 2bbe
00000050: 95c9 90be 86b0 4bbe 568c 5dbe 83b1 0b3e
00000060: 205e 65be 283c 72be 98b8 c3be 3bf2 06bf
00000070: d419 eebe acd6 7cbe e021 efbd 667e 25be
00000080: 46eb 05be 2a2a 913d a09a f23b e318 d83d
00000090: 5f38 d0bc 6e36 e13d 2d3c 173e 7e17 253d
000000a0: 2da9 ce3d fa82 eb3d e6e1 843e ebea 0e3e
000000b0: d493 d63d 4413 a43e a976 87bc 6f76 8c3e
000000c0: afcb 6f3d d382 ddbc 76bf c1bd 0741 65bd
000000d0: 5ac4 25be 5758 75bd 350b a23d dbd9 91be
000000e0: 1171 37be 1f2b 223e f6c1 133e 00d7 313e
000000f0: 32b4 e63c 0774 233e cf89 21bc cb39 e1bc
00000100: e7af 8a3d 1df7 873d 4dfd 19bd 7bc9 67bd
00000110: 2462 1f3e ca67 ffbc d3af d8bd af18 9b3d
00000120: 87f3 d13b bd43 a33d 1f47 09be b260 7e3e
00000130: 9b6a 183e 473e 823e b4cb 0a3d 1998 c0be
00000140: 0dc2 da3d b175 053e 51e5 e93b 22ce 9ebe
00000150: ae4a a6be 0a11 8c3e 413f 9a3e 74f3 6ebe
00000160: 85f7 16bf 3715 57be 8b2a ca3d ad7d 90bd
00000170: c000 f0be d2ea e1be d4e5 4e3e f34b 703e
00000180: 9c39 2cbe 9358 fbbe e1b3 57be 2f39 7f3e
00000190: 9e23 103d 0565 043e 235f 26be 37e2 d13b
000001a0: c021 463e 12de 35bd 54e6 35be 0d86 8abe
000001b0: 862b d4bd dc22 9f3d e0b7 18be efb9 8fbe
000001c0: 09b4 6dbe 905e 153e 5473 883e 571d 60be
000001d0: 8cd9 8ebd 311a 9abd 619d f93c 7420 883e
000001e0: 7f88 8cbe a1c0 5dbe ea87 383d b8ce 903e
000001f0: bd59 863e 506b 673d 0280 273e f496 d7bd
00000200: c982 a1bd 424c afbe 4ba9 aabc 7acc 863b
00000210: 36f7 d83d d275 76bd 87e6 cf3d d610 b2bb
00000220: ffb8 473e 8131 4f3e 62df b33e 2f83 d63d
00000230: fd20 a0bd 210e 8c3d 1a15 10be 91a7 533e
00000240: b0b0 8d3e 62c8 9fbe 71a0 0ebe f704 91be
00000250: d386 c7be b5e5 9cbd e097 61be f465 efbc
00000260: 95e1 a33c 0a92 4b3e 3f8b 81bd b337 63be
00000270: e636 0ebd 6635 833e aa06 533e 8fd5 73be
00000280: efd4 68bc 4fb3 493e 358d a13e 95cd 94bd
00000290: eb2e c83b 2336 4d3e 2d79 623d 0840 9f3d
000002a0: bebb 49be 6bd0 80be 8200 38bc 076e fcbd
000002b0: 0451 78bd a4e0 69be 570b a1be d226 fa3d
000002c0: d0a9 a23e 96d2 0a3d 7b66 d53d dee5 073d
000002d0: 6d12 20be 0f61 8abd b3a4 633e 6b4f 89bd
000002e0: 899e 143e c16f 7ebe 16a8 aebe ea86 91be
000002f0: 8f48 72bc 7093 07be 5991 aabd 55fc 2bbe
00000300: 62c5 023d b657 c33d 1d24 19be b0a7 1dbd
00000310: 0e2d dfbb 5c44 2b3d ec77 793d addb 39be
00000320: c7c3 45bc a389 1fbe 3436 b8be 27a3 123d
00000330: 6dc7 943d 125e 14be 56e0 94be 700b 42be
00000340: 7e38 c93b 9bd7 bb3e 9de3 2abe 246c c9be
00000350: a96d a2be a72b e93b c6d2 c93e d8b6 c5be
00000360: 7870 5ebe 68ea ce3d 1224 813e a10a 833e
00000370: b313 a9be 8137 39be 271c c5bd 08c4 8b3d
00000380: c528 793e 9d85 213d 111f 393e fb52 8b3c
00000390: 66c8 48be 6864 c43c 5081 1e3e 9303 0abd
000003a0: f607 86be e29a cc3d 6a44 5fbd b17a c73d
000003b0: 1bd1 59be ae74 babd a695 50be 20c5 e23d
000003c0: 14f4 0abe 61b7 7abd 42f7 15be b3b6 163e
000003d0: 5e00 a03e 2b2d 33bd 17f2 a63d 3664 803e
000003e0: be48 753d 1d37 11bd 8ca0 4c3d 073e 89be
000003f0: a0a0 edbd e85a 3cbe d0b4 b2bd 9903 aa3d

conv_net.0.bias f4 [40]
-0.007026584 0.09348297 -0.12772521 0.1365517 -0.07722565 -0.05075185 -0.048319977 0.035507157
0.0687676 -0.2295955 -0.004565863 -0.06753083 -0.016029982 -0.08052664 -0.17047073 -0.026074743
-0.102762215 -0.03468337 -0.19568783 -0.18170561 0.020988045 -0.069115095 -0.017514758 -0.039432395
-0.0041758097 -0.06635455 0.0062025255 -0.11267377 -0.0042508123 -0.03296506 -0.15907097 0.21575098
-0.12816907 -0.103350855 -0.019491285 0.013596347 -0.24625517 -0.094143175 -0.004718235 -0.15669987
00000000: 423f e6bb 0074 bf3d 66ca 02be 35d4 0b3e
00000010: 7b28 9ebd 2ce1 4fbd 2beb 45bd f46f 113d
00000020: 07d6 8c3d 151b 6bbe 3c9d 95bb 9b4d 8abd
00000030: 4f51 83bc 27eb a4bd e18f 2ebe b39a d5bc
00000040: ff74 d2bd 2610 0ebd 6462 48be 0911 3abe
00000050: 1fef ab3c 378c 8dbd 1c7b 8fbc dd83 21bd
00000060: 3bd5 88bb e5e4 87bd 8e3e cb3b 81c1 e6bd
00000070: 664a 8bbb 5f06 07bd 80e3 22be d3ed 5c3e
00000080: c13e 03be 9da9 d3bd 30ac 9fbc 36c3 5e3c
00000090: 512a 7cbe 23ce c0bd 6d9b 9abb ee75 20be

conv_net.3.weight f4 [20, 40, 5, 5]
0.09348563 0.120428964 0.04552905 0.0027936026 -0.027481712 0.0024977892 0.10359393 0.08341925
-0.019961204 -0.059697494 -0.08276924 -0.047596745 -0.14966846 -0.14190565 -0.080114275 -0.13729848
-0.13361801 -0.032154948 -0.037603255 -0.03522271 -0.066945754 -0.12945035 -0.13475774 -0.07406297
-0.024855157 -0.087371506 0.02855287 0.103777714 0.1072081 -0.017770087 -0.05957327 -0.055186227
-0.17220408 -0.25717545 -0.16809349 -0.12297867 -0.1722697 -0.03637097 0.06591658 0.065714665
-0.014510359 0.055266175 0.124966905 0.1254685 0.10792088 0.057263985 0.08944019 0.08519194
0.06454446 -0.061396457 0.061211567 0.033386856 0.04968119 0.05024365 0.07316805 0.030488867
0.035241827 0.047270168 -0.08227821 -0.06365271 -0.028822612 -0.1635436 -0.21891041 -0.10334825
0.029207543 -0.14852758 -0.1690445 -0.033855494 0.13180901 0.10121131 -0.032529537 0.0440355
0.030872319 0.006026357 -0.07728679 -0.0011903177 0.21847844 0.2990854 0.2678049 0.29703197
0.09070668 0.16847514 0.25599742 0.21894734 0.06988653 0.03560164 0.062785834 0.13813365
-0.036191933 -0.24271753 0.035293438 0.0235746 -0.061887488 -0.1335206 -0.06709074 0.094022475
0.12055038 0.032634262 -0.1008584 0.101613685 0.06526101 0.14993893 0.20276089 -0.0103325145
-0.07012844 -0.005111492 -0.064044155 -0.18492226 -0.17360476 -0.051205453 -0.10410782 -0.14570965
0.09920182 0.15567514 0.029979978 0.007242439 0.12426957 0.105793 0.06906466 -0.06429793
0.25006598 0.1755257 0.022717064 0.009671562 -0.07256102 0.07220596 0.029342577 0.057446454
-0.058625232 -0.05656323 -0.042214453 -0.028306011 -0.08309268 -0.039646786 -0.063029334 -0.11233348
-0.1347031 -0.16790575 -0.057878893 0.018846732 -0.15133166 -0.14601089 0.03222342 0.08992566
0.08177203 -0.095423885 -0.13590553 -0.14519064 -0.10328898 -0.044283602 0.07774844 0.12119885
0.15964289 0.17488714 0.06762625 0.05999959 0.066199824 0.093651265 0.024516799 -0.16021623
0.018860469 0.040319767 -0.12139603 -0.26238716 -0.0877328 -0.051718578 -0.19132912 -0.22602087
0.027004143 0.04660309 -0.07146644 -0.15887955 -0.06340888 -0.043896995 0.018784523 0.07082928
-0.044981856 -0.12993306 -0.117778294 -0.0502634 0.10069893 0.10607628 0.08107931 0.028845305
-0.032387223 0.0021498022 0.023113498 -0.022829562 -0.0212203 0.0050223405 -0.09530973 -0.09004267
0.041551683 0.048429888 0.0388663 -0.1279667 -0.06793613 0.050729685 0.13117391 0.10010724
0.13695325 0.28243083 0.22148755 0.040990368 0.013509006 0.08128314 0.089588776 -0.060276233
-0.2833012 -0.15161654 -0.07000997 -0.21002582 -0.122372046 0.0027626636 -0.029028399 -0.1161203
0.05584236 0.12251613 0.096573286 -0.027350137 0.11314107 0.20999262 0.08939159 0.014603231
-0.09412808 -0.03550674 0.02937438 0.08104919 -0.00012851875 0.008071791 -0.1314464 -0.104181245
-0.044259816 0.0041594887 0.11481494 -0.18189992 -0.18167548 0.08902165 0.13701004 0.12041648
-0.032595135 0.001202612 0.00091088517 -0.011548467 -0.13459745 0.07115051 0.062342826 -0.07759711
-0.032597084 -0.03415685 0.01110826 0.066846855 0.055608843 0.00851467 -0.023387328 0.004556411
00000000: 6575 bf3d 76a3 f63d ab7c 3a3d e014 373b
00000010: 5421 e1bc f3b1 233b 0e29 d43d b6d7 aa3d
00000020: ae85 a3bc 5c85 74bd eb82 a9bd cef4 42bd
00000030: b042 19be b74f 11be f412 a4bd f997 0cbe
00000040: 29d3 08be e8b4 03bd df05 1abd b045 10bd
00000050: db1a 89bd a28e 04be effd 09be 54ae 97bd
00000060: 0b9d cbbc d5ef b2bd b5e7 e93c 6989 d43d
00000070: ec8f db3d 9392 91bc 1a03 74bd f40a 62bd
00000080: 4456 30be 80ac 83be b320 2cbe 3edc fbbd
00000090: 7867 30be baf9 14bd 46ff 863d 6995 863d
000000a0: dbbc 6dbc c95e 623d a6ee ff3d d17a 003e
000000b0: 9f05 dd3d a48d 6a3d 6b2c b73d 1d79 ae3d
000000c0: e32f 843d da7a 7bbd fbb8 7a3d a8c0 083d
000000d0: 817e 4b3d 49cc 4d3d 21d9 953d cac3 f93c
000000e0: bc59 103d 5d9e 413d 7a81 a8bd 5a5c 82bd
000000f0: 661d ecbc f977 27be 0d2a 60be 3fa8 d3bd
00000100: a844 ef3c 9d17 18be 001a 2dbe 0fac 0abd
00000110: f1f8 063e e047 cf3d b13d 05bd 925e 343d
00000120: f2e7 fc3c bf78 c53b 8948 9ebd 6f04 9cba
00000130: d0b8 5f3e b921 993e b91d 893e 9314 983e
00000140: 6dc4 b93d bf84 2c3e 1812 833e bb33 603e
00000150: ab20 8f3d 06d3 113d dc95 803d e872 0d3e
00000160: fe3d 14bd f28a 78be da8f 103d 851f c13c
00000170: bc7d 7dbd a0b9 08be df66 89bd db8e c03d
00000180: 1ee3 f63d 81ab 053d d98e cebd d61a d03d
00000190: 90a7 853d 9789 193e 8da0 4f3e b549 29bc
000001a0: 809f 8fbd 4d7e a7bb 9529 83bd 435c 3dbe
000001b0: 72c5 31be cfbc 51bd 7b36 d5bd e934 15be
000001c0: 532a cb3d 4e69 1f3e 9298 f53c fb51 ed3b
000001d0: 0b81 fe3d 00aa d83d c671 8d3d a2ae 83bd
000001e0: a608 803e 02bd 333e 2319 ba3c 7975 1e3c
000001f0: df9a 94bd b8e0 933d d85f f03c f94c 6b3d
00000200: 0321 70bd d8ae 67bd 10e9 2cbd 02e2 e7bc
00000210: 7f2c aabd ab64 22bd 8615 81bd 180f e6bd
00000220: 9cef 09be 7cef 2bbe 6b12 6dbd 7664 9a3c
00000230: b0f6 1abe e183 15be b4fc 033d f22a b83d
00000240: 1878 a73d 996d c3bd d22a 0bbe dbac 14be
00000250: 2c89 d3bd b962 35bd 933a 9f3d 1a37 f83d
00000260: 6d79 233e 9d15 333e a27f 8a3d 21c2 753d
00000270: c693 873d 3ccc bf3d 74d7 c83c b90f 24be
00000280: 4581 9a3c 5726 253d 7b9e f8bd 9c57 86be
00000290: 41ad b3bd dcd6 53bd c8eb 43be 0472 67be
000002a0: cb37 dd3c e2e2 3e3d ff5c 92bd 52b1 22be
000002b0: 84dc 81bd 56cd 33bd 00e2 993c f10e 913d
000002c0: e53e 38bd 2c0d 05be bf35 f1bd ffe0 4dbd
000002d0: 3e3b ce3d 853e d93d e90c a63d fd4c ec3c
000002e0: 77a8 04bd b2e3 0c3b 8558 bd3c 1005 bbbc
000002f0: 32d6 adbc 7292 a43b bf31 c3bd 4b68 b8bd
00000300: 1932 2a3d 6b5e 463d 4532 1f3d b409 03be
00000310: 1922 8bbd eec9 4f3d 7452 063e 0605 cd3d
00000320: 793d 0c3e c69a 903e a2cd 623e 84e5 273d
00000330: e154 5d3c c677 a63d 527a b73d 36e4 76bd
00000340: db0c 91be 5e41 1bbe 6361 8fbd 0211 57be
00000350: 329e fabd ce0d 353b f7cc edbc 7bd0 edbd
00000360: f5ba 643d bde9 fa3d 37c8 c53d 650d e0bc
00000370: 81b6 e73d 4e08 573e f012 b73d 6442 6f3c
00000380: 39c6 c0bd 846f 11bd 8aa2 f03c 1efd a53d
00000390: fdc2 06b9 8c3f 043c e399 06be fa5c d5bd
000003a0: c849 35bd 524c 883b 1824 eb3d f943 3abe
000003b0: 2309 3abe fc50 b63d 5c4c 0c3e ea9c f63d
000003c0: 7a82 05bd f6a0 9d3a 78c8 6e3a c835 3dbc
000003d0: ead3 09be 5cb7 913d 315b 7f3d 3ceb 9ebd
000003e0: 8584 05bd 0ee8 0bbd 6bff 353c 01e7 883d
000003f0: 19c6 633d 1d81 0b3c c896 bfbc f24d 953b

conv_net.3.bias f4 [20]
0.030876078 -0.059948985 0.04205454 -0.0013364137 -0.07441489 -0.05455553 -0.03079234 -0.054355778
0.009745266 0.026991878 -0.03725532 -0.043964274 -0.04787381 0.016567247 -0.012882088 -0.037972897
0.0028708586 -0.012195487 -0.06513973 -0.06443956
00000000: d4ef fc3c 118d 75bd 6241 2c3d 9a2a afba
00000010: d566 98bd 9f75 5fbd 3840 fcbc 2aa4 5ebd
00000020: 9caa 1f3c 121e dd3c 0999 18bd e213 34bd
00000030: 5417 44bd 09b8 873c 650f 53bc 7889 1bbd
00000040: 0425 3c3b 94cf 47bc fb67 85bd e3f8 83bd

linear1.weight f4 [320, 320]
-0.09649652 -0.048832335 0.092123345 0.015646702 -0.0741073 -0.069805205 -0.0072903265 -0.005603586
0.013784711 -0.06844573 0.036493454 0.0015504884 0.039580323 0.027772179 0.037576668 -0.07337209
0.011245525 -0.029156147 0.025292616 0.21758081 0.03976323 0.010711094 0.05959039 0.11567368
0.08029332 -0.014027749 0.011498791 -0.11598198 -0.041736774 -0.09229555 0.029654117 -0.14396483
-0.047515288 -0.013825439 -0.07446226 0.018778361 0.12464971 0.083821714 0.07849864 0.05811968
-0.0177497 -0.096957654 -0.032073323 -0.013408946 -0.16561075 -0.15571904 -0.15414754 -0.13612662
0.04811034 -0.006425394 -0.012100129 -0.015502759 0.019935941 0.014322859 0.031130876 0.036948044
-0.039629325 0.023484083 -0.0046300488 -0.048294608 -0.046604402 -0.03128613 0.024341455 -0.021999964
-0.00029380896 -0.032078266 -0.050257813 -0.03861065 -0.01774148 0.013570765 0.019820118 0.008472808
-0.028968405 0.004927425 -0.007923313 -0.027488567 -0.029422581 -0.054872885 0.046286188 0.04695176
0.26391298 0.22045083 -0.040098645 -0.09306924 0.17139238 0.12997217 -2.49432e-06 0.00042507498
0.083616674 0.08717209 0.005619497 0.028158791 -0.018505795 0.10762259 0.011800628 -0.04895858
-0.031722337 -0.035332754 0.037997186 0.06473728 0.057295583 0.04316773 0.016228704 -0.009854446
0.02297471 -0.0019214358 -0.031870987 0.046784744 0.03237277 -0.011506027 -0.02486157 0.0019397694
0.14664257 0.09889587 -0.046418402 -0.06768759 0.12546796 -0.03440153 0.011257614 0.04822388
0.012832981 -0.115699545 0.08016858 0.0021770648 -0.011551038 -0.00015998135 0.012723087 -0.07368381
-0.050321214 -0.028187167 -0.11485023 -0.07387203 -0.033004157 0.11578096 0.04070576 -0.0035790228
0.007044487 -0.081893764 -0.014068435 0.0013313565 -0.12216659 -0.11971271 -0.07776563 -0.15873972
0.20516182 0.02442849 -0.02572284 -0.069501266 0.121006206 0.061370276 0.009297448 -0.09255068
0.052975412 0.042756014 0.070295475 0.06111897 -0.026559124 -0.043376323 0.067032896 -0.064352095
-0.023870217 0.026327217 -0.049447797 0.13650297 0.04882447 0.05558365 -0.0014594924 0.02765456
0.1609034 0.11530059 -0.01515572 -0.009740183 0.13323173 0.020055868 -0.092978135 -0.05008409
0.15896784 -0.0027114546 -0.119635746 0.07211331 0.14973605 0.032248642 -0.066089146 0.021505024
0.08808319 0.03867956 -0.018438594 0.019028706 -0.11715619 -0.016255295 0.07199371 -0.039728507
0.039694864 -0.030531164 -0.05295645 0.114002906 0.117247604 -0.040032584 0.054186467 0.114421755
0.105992325 -0.030957662 -0.1548502 -0.012910011 0.10319062 -0.060444757 0.037206598 -0.13272496
0.0047011687 0.059936266 0.043485247 0.11764397 0.18009686 0.113639064 0.03320013 -0.05653093
-0.082547374 -0.15977946 -0.12209635 -0.12121748 -0.06283926 -0.11358039 -0.05493194 -0.040639747
0.05288675 0.13821635 0.1407851 0.004239938 -0.042860262 -0.11545854 0.03297271 -0.038400475
-0.21516275 -0.26101363 -0.04066113 -0.02319158 0.0076665133 -0.013333758 0.014103422 -0.02206363
0.26696834 0.16795437 -0.00769048 -0.056009993 0.12521473 0.10920653 0.00029162999 -0.0666768
-0.14849487 -0.12306291 0.067290545 0.028461637 -0.0847357 -0.0630396 -0.027141375 -0.0006879213
00000000: f89f c5bd 6a04 48bd 2aab bc3d 832d 803c
00000010: 91c5 97bd 08f6 8ebd b1e3 eebb 499e b7bb
00000020: 45d9 613c 462d 8cbd 297a 153d c239 cb3a
00000030: fa1e 223d 7b82 e33c fee9 193d 1b44 96bd
00000040: 273f 383c dfd8 eebc 7632 cf3c 81cd 5e3e
00000050: c5de 223d 967d 2f3c 0e15 743d 53e6 ec3d
00000060: d370 a43d a5d4 65bc 6d65 3c3c f687 edbd
00000070: 2ef4 2abd 7305 bdbd 31ed f23c 846b 13be
00000080: 649f 42bd 1884 62bc ab7f 98bd 14d5 993c
00000090: 5948 ff3d b8aa ab3d e5c3 a03d e70e 6e3d
000000a0: d267 91bc bc91 c6bd 515f 03bd 32b1 5bbc
000000b0: dd95 29be d074 1fbe dad8 1dbe c764 0bbe
000000c0: 590f 453d 1d8c d2bb 9f3f 46bc 49ff 7dbc
000000d0: b350 a33c 6daa 6a3c 2e06 ff3c d556 173d
000000e0: 5c52 22bd b161 c03c aab7 97bb 91d0 45bd
000000f0: 42e4 3ebd e325 00bd bb67 c73c 4539 b4bc
00000100: 5f0a 9ab9 8064 03bd 23db 4dbd 3326 1ebd
00000110: 9556 91bc ea57 5e3c cd5d a23c 88d1 0a3c
00000120: 264f edbc 3d76 a13b c9d0 01bc b42f e1bc
00000130: a007 f1bc 64c2 60bd 9696 3d3d 7d50 403d
00000140: 9a1f 873e ddbd 613e 7a3e 24bd 169b bebd
00000150: 7c81 2f3e 6d17 053e 1764 27b6 99dc de39
00000160: 383f ab3d 4887 b23d c223 b83b 44ad e63c
00000170: 7799 97bc 3c69 dc3d 6c57 413c cb88 48bd
00000180: 48ef 01bd 14b9 10bd f0a2 1b3d fb94 843d
00000190: c6ae 6a3d a5d0 303d 0ff2 843c 8b74 21bc
000001a0: 7635 bc3c b0d8 fbba 278b 02bd 5ca1 3f3d
000001b0: 4f99 043d c683 3cbc 7eaa cbbc dc3f fe3a
000001c0: 7829 163e eb89 ca3d 3921 3ebd cb9f 8abd
000001d0: ac7a 003e 9ee8 0cbd db71 383c 6786 453d
000001e0: 6c41 523c e2f3 ecbd 6d2f a43d 16ad 0e3b
000001f0: 9140 3dbc abc0 27b9 7f74 503c 8ae7 96bd
00000200: 9e1d 4ebd c6e8 e6bc 9936 ebbd 384a 97bd
00000210: 5e2f 07bd 911e ed3d 15bb 263d 0a8e 6abb
00000220: 71d5 e63b ebb7 a7bd 4b7f 66bc e980 ae3a
00000230: 7a32 fabd f02b f5bd 9643 9fbd aa8c 22be
00000240: f115 523e 421e c83c b5b8 d2bc ae56 8ebd
00000250: 1ad2 f73d 665f 7b3d 5354 183c 368b bdbd
00000260: bffc 583d ee20 2f3d 13f7 8f3d e357 7a3d
00000270: 8592 d9bc 5fab 31bd 8b48 893d 08cb 83bd
00000280: 798b c3bc 2dac d73c c689 4abd 6fc7 0b3e
00000290: 2bfc 473d aeab 633d 704c bfba d18b e23c
000002a0: dcc3 243e b722 ec3d b24f 78bc 4a95 1fbc
000002b0: e66d 083e 344c a43c 526b bebd fa24 4dbd
000002c0: 77c8 223e a9b2 31bb 9603 f5bd 25b0 933d
000002d0: 6854 193e 2717 043d bf59 87bd 4e2b b03c
000002e0: f664 b43d 756e 1e3d 890c 97bc 17e2 9b3c
000002f0: 96ef efbd d329 85bc 7071 933d 5cba 22bd
00000300: 1597 223d 7e1c fabc dde8 58bd 5b7a e93d
00000310: 831f f03d 35f9 23bd a1f2 5d3d f455 ea3d
00000320: 8112 d93d ec9a fdbc 0d91 1ebe 8384 53bc
00000330: 9b55 d33d ec94 77bd f265 183d 0de9 07be
00000340: 430c 9a3b bb7f 753d 961d 323d 52ef f03d
00000350: 506b 383e 99bb e83d dcfc 073d fa8c 67bd
00000360: 990e a9bd 3a9d 23be a70d fabd df40 f8bd
00000370: dfb1 80bd d69c e8bd 5000 61bd dd75 26bd
00000380: c79f 583d 9688 0d3e f829 103e 2eef 8a3b
00000390: 3e8e 2fbd 8775 ecbd 640e 073d d149 1dbd
000003a0: a053 5cbe 94a3 85be 498c 26bd 45fc bdbc
000003b0: 6037 fb3b d675 5abc 0a12 673c c9be b4bc
000003c0: 13b0 883e 3bfc 2b3e 6c00 fcbb bc6a 65bd
000003d0: 4a38 003e aca7 df3d eae5 9839 d98d 88bd
000003e0: 0a0f 18be 6808 fcbd a0cf 893d 6128 e93c
000003f0: e989 adbd e81a 81bd 9757 debc 9e55 34ba

linear1.bias f4 [320]
-0.01716355 0.043527294 -0.0039208797 -0.02100146 0.01270757 0.010155421 -0.011300653 -0.01396542
0.027006587 0.022067389 -0.013503527 0.025971783 0.007121293 0.075541876 0.009238848 0.018942103
-0.023926388 -0.0475293 -0.06853601 -0.0015748562 0.0142521905 0.030692784 0.003429539 0.07370952
-0.07790484 -0.022607446 0.03611629 0.021173028 -0.03143963 -0.018268943 -0.024917746 -0.023063248
-0.02134909 -0.04350035 0.031359535 0.010863369 -0.021949315 0.010549508 0.04436717 -0.014184853
0.021965556 -0.06948611 0.01678395 0.03958307 0.013020491 -0.051188022 0.03313974 -0.065155864
-0.058903564 -0.032826282 -0.07861261 0.018798862 -0.010018108 0.0072289947 0.029502725 -0.09070841
-0.012746275 -0.015768439 -0.0067571765 -0.017162379 0.008203725 -0.02780798 0.025561396 -0.049755108
-0.002014916 -0.006472556 -0.07447971 -0.020252366 0.014836198 -0.07993441 0.038032066 0.014827725
-0.018731471 0.06073786 -0.0007443946 -0.023535328 -0.013746622 0.060862392 0.026587306 -0.02426743
0.055740833 -0.008377093 -0.010566715 -0.001286181 0.01639499 -0.06949249 -0.008296964 0.0081749195
-0.002196546 -0.008102094 -0.047007274 -0.011556151 -0.0069284807 -0.00623746 -0.019436061 -0.06960518
-0.072185025 0.031455107 -0.06233053 -0.014577902 0.011938927 -0.006064729 0.0064853886 0.015971975
-0.0946998 0.014557033 -0.022535333 -0.0651723 0.010653695 0.02724342 -0.04945448 0.04308448
-0.037552983 -0.018967668 -0.109421685 -0.008147505 -0.060078844 -0.05427488 0.011890848 -0.0014792075
-0.035068545 -0.052024752 -0.01581399 0.032246895 0.005001349 -0.046390682 -0.023165435 -0.017444514
0.019452067 0.012497779 0.032793164 0.040522743 -0.03713852 -0.026718408 -0.07296986 -0.041266665
0.009896203 0.01946205 -0.023363559 0.023308882 -0.042513747 -0.036974393 -0.014720676 -0.006890366
0.02003035 0.02781945 -0.015756825 0.0025803596 0.07406394 -0.05382096 0.034140125 0.008911473
-0.06274956 -0.0016975262 -0.059652746 0.04384065 -0.057651974 -0.03584354 0.0073814937 0.016301835
-0.008098263 -0.04159417 0.04237041 -0.06251498 -0.040196095 -0.011093416 0.04252906 0.005364522
-0.0008484733 0.011419193 -0.053032055 -0.038032666 -0.064833745 -0.0014636785 0.013816077 -0.0059283176
-0.029113678 -0.017911479 -0.04967567 -0.023617037 -0.017181277 0.017617203 0.003633964 0.0135359615
0.0057261926 -0.06739882 0.017282968 0.036196012 0.015382959 -0.052336864 -0.03490325 -0.017137013
-0.006771197 0.012520767 0.004297384 -0.07017604 -0.040669724 -0.08907211 0.028498538 0.022503424
-0.004706076 0.02689068 0.01899555 0.080012344 0.04926816 -0.058401734 -0.047893338 -0.012445097
-0.015297577 -0.026778607 -0.058338244 -0.007211049 0.023020042 0.034066144 -0.012021767 -0.028774537
-0.09002604 -0.08135572 -0.026072683 -0.07261713 -0.05006022 0.095399916 -0.050258093 -0.01278611
-0.015196241 -0.06051719 -0.037176173 0.030045716 0.027123937 -0.055429935 -0.039051726 0.00034617996
0.027688332 0.001360422 -0.07291834 0.004057977 -0.039682712 0.07749523 0.024018243 -0.05448796
-0.007868557 -0.059280373 -0.059355512 0.0072683557 0.063030705 -0.021343017 -0.00018015782 -0.08313563
-0.052156586 -0.00495314 -0.023132516 0.03819405 -0.038301867 0.003597751 0.04242288 -0.014487856
00000000: 939a 8cbc ad49 323d b97a 80bb 410b acbc
00000010: 6933 503c ec62 263c 6026 39bc 38cf 64bc
00000020: eb3c dd3c abc6 b43c e63d 5dbc c7c2 d43c
00000030: bc59 e93b b3b5 9a3d 8a5e 173c 782c 9b3c
00000040: 4601 c4bc 15ae 42bd 9c5c 8cbd 686b ceba
00000050: 0582 693c 6f6f fb3c 1ec2 603b 04f5 963d
00000060: 938c 9fbd 4033 b9bc adee 133d 0f73 ad3c
00000070: d7c6 00bd c0a8 95bc 4d20 ccbc 23ef bcbc
00000080: 49e4 aebc 6c2d 32bd db72 003d 46fc 313c
00000090: 0dcf b3bc d8d7 2c3c 5aba 353d 9667 68bc
000000a0: 1cf1 b33c bc4e 8ebd 7f7e 893c db21 223d
000000b0: e653 553c 88aa 51bd 89bd 073d 7070 85bd
000000c0: dd44 71bd da74 06bd a6ff a0bd 1200 9a3c
000000d0: fe22 24bc 34e1 ec3b b3af f13c 55c5 b9bd
000000e0: c1d5 50bc d02c 81bc 4e6b ddbb 1e98 8cbc
000000f0: eb68 063c 90cd e3bc 2266 d13c 03cc 4bbd
00000100: ae0c 04bb bc17 d4bb d188 98bd 4ae8 a5bc
00000110: 8613 733c a7b4 a3bd 83c7 1b3d fcef 723c
00000120: be72 99bc 43c8 783d 7a23 43ba 29cd c0bc
00000130: 8339 61bc d84a 793d 9fcd d93c 7dcc c6bc
00000140: 8050 643d 1340 09bc 0420 2dbc 1395 a8ba
00000150: c94e 863c 1452 8ebd fdef 07bc 19f0 053c
00000160: edf3 0fbb a5be 04bc b38a 40bd 0356 3dbc
00000170: 4f08 e3bb 9b63 ccbb 6038 9fbc 298d 8ebd
00000180: bed5 93bd 12d7 003d 4c4e 7fbd 27d8 6ebc
00000190: 7d9b 433c a2ba c6bb 6283 d43b a9d7 823c
000001a0: f8f1 c1bd 9f80 6e3c 059c b8bc 0e79 85bd
000001b0: d68c 2e3c 982d df3c c890 4abd 5a79 303d
000001c0: 28d1 19bd 1562 9bbc 7a18 e0bd 1d7d 05bc
000001d0: 3c15 76bd 564f 5ebd d5d1 423c f8e1 c1ba
000001e0: 09a4 0fbd e817 55bd 578c 81bc 5215 043d
000001f0: 5be2 a33b 2804 3ebd 70c5 bdbc cce7 8ebc
00000200: f159 9f3c 7cc3 4c3c 2052 063d 2dfb 253d
00000210: 901e 18bd 90e0 dabc 3971 95bd 3c07 29bd
00000220: af23 223c e16e 9f3c ef64 bfbc 45f2 be3c
00000230: e522 2ebd 7672 17bd fd2e 71bc 94c8 e1bb
00000240: b016 a43c 9de5 e33c 7514 81bc 401b 293b
00000250: d6ae 973d 5e73 5cbd 84d6 0b3d 6d01 123c
00000260: d782 80bd 877f deba 7056 74bd 4192 333d
00000270: 7a24 6cbd add0 12bd 75e0 f13b 6d8b 853c
00000280: 94ae 04bc a65e 2abd 988c 2d3d db07 80bd
00000290: a9a4 24bd 29c1 35bc f432 2e3d dfc8 af3b
000002a0: 146c 5eba 9117 3b3c 2438 59bd 24c8 1bbd
000002b0: 8ec7 84bd e7d8 bfba d45c 623c 5542 c2bb
000002c0: cf7f eebc 18bb 92bc b778 4bbd 8478 c1bc
000002d0: c0bf 8cbc f451 903c cd27 6e3b f0c5 5d3c
000002e0: c9a2 bb3b 6408 8abd 0395 8d3c 4542 143d
000002f0: ce08 7c3c 2e5f 56bd b6f6 0ebd ec62 8cbc
00000300: ebe0 ddbb e723 4d3c 12d1 8c3b 75b8 8fbd
00000310: 4c95 26bd 706b b6bd c475 e93c 1a59 b83c
00000320: 6d35 9abb d849 dc3c 8e9c 9b3c 83dd a33d
00000330: 69cd 493d a836 6fbd ce2b 44bd 85e6 4bbc
00000340: b0a2 7abc cf5e dbbc 15f4 6ebd aa4a ecbb
00000350: 8794 bc3c f188 0b3d f2f6 44bc 94b8 ebbc
00000360: 935f b8bd d49d a6bd 6196 d5bc 4ab8 94bd
00000370: f20b 4dbd 0861 c33d 6edb 4dbd d57c 51bc
00000380: a8f9 78bc dfe0 77bd 0b46 18bd 6f22 f63c
00000390: 0533 de3c 800a 63bd b4f4 1fbd 7d7f b539
000003a0: a4d2 e23c 3050 b23a 3656 95bd c7f8 843b
000003b0: 578a 22bd d2b5 9e3d e8c1 c43c c42e 5fbd
000003c0: 1feb 00bc facf 72bd c41e 73bd 632b ee3b
000003d0: 3e16 813d 8dd7 aebc bfe8 3cb9 0343 aabd
000003e0: 25a2 55bd f34d a2bb 6780 bdbc 5d71 1c3d
000003f0: 6be2 1cbd 3fc8 6b3b 9dc3 2d3d 795e 6dbc

linear2.weight f4 [160, 320]
-0.019606879 0.09050788 -0.096691 0.02412733 0.0170305 -0.10446753 -0.025134133 0.047348086
-0.12999806 0.012041994 -0.040176153 -0.04438361 0.050744385 0.039682314 0.018030528 0.008039963
0.26830408 -0.035632487 -0.044808116 -0.25404912 0.070061564 -0.02243572 -0.011745091 0.026512591
-0.02473124 -0.027691307 0.043770153 -0.032909263 -0.039445054 -0.07126461 -0.009070733 -0.025384411
0.0631226 -0.010529257 0.037472542 0.012104204 -0.047492664 0.07015521 0.01850648 -0.08701934
0.020015407 -0.029597992 0.06051697 0.1300984 -0.08934201 -0.08486209 0.003147034 0.13469678
0.0052234167 0.09918594 0.046306364 -0.04127688 0.04385842 -0.1709982 -0.013387456 -0.03959635
0.0061546247 -0.041684877 0.02417348 0.032946236 0.03484611 -0.020243695 0.046271153 0.028978122
0.015887806 -0.13948807 -0.019166067 -0.019965807 -0.03849868 -0.053051837 -0.11552652 0.0115867
0.01073747 -0.017121758 0.030028455 0.013072177 -0.012468882 -0.1529058 -0.013403509 -0.005745164
-0.05015033 -0.03646754 0.029021481 0.008112598 -0.050787684 0.078712754 -0.08817906 0.061786536
-0.041386154 0.10788907 0.015366646 0.017146878 0.04047703 0.039832145 -0.11709477 -0.042977847
-0.02316729 0.057188552 0.00020983141 -0.02264515 0.0474622 0.031518158 -0.14265363 0.064665
0.11330074 -0.18189059 -0.09292144 -0.16176032 0.093028106 -0.15013388 0.07711797 -0.074944444
0.034940016 -0.09389352 -0.00884043 -0.08210254 0.1531717 0.028020909 -0.04683491 0.03961014
-0.04048728 0.018077323 0.099149175 0.067199655 -0.06791771 -0.016219366 0.08689649 -0.18474959
-0.014111086 0.07976341 0.043971375 0.034740422 0.05998129 0.018886195 0.10421675 -0.012940138
0.06392856 0.05805089 -0.04655239 -0.08904052 -0.04833285 -0.040080827 0.024961328 0.10120116
-0.008599238 -0.030664936 -0.034255285 0.013478781 -0.05906922 -0.017056946 0.018071288 -0.04925883
0.047818236 0.03264792 0.2645572 -0.12223494 0.027139679 0.05618264 0.04784316 0.05479477
-0.018381096 -0.07701936 0.03899456 -0.033447772 0.029085696 0.17150816 0.014258741 -0.11517869
-0.0051434375 -0.17283732 0.068358555 -0.0060164146 -0.03064063 -0.03683777 -0.010525795 -0.068786375
-0.007822694 -0.05584198 -0.010011345 0.026572186 -0.046054196 -0.14369753 -0.021301802 -0.028360298
-0.1055137 0.07834674 0.044438943 0.15266375 -0.06757906 -0.017753372 -0.035475723 0.049489636
-0.017127164 0.081806175 0.08056135 -0.045346048 -0.03791324 0.00510613 -0.14293434 0.08131971
-0.003024283 0.033409312 -0.19211067 0.00018930745 -0.11799195 -0.0010433561 0.15886916 0.053732593
0.08334977 -0.10331603 -0.014408894 0.058663134 -0.064672686 -0.038044836 -0.035080638 0.052614715
-0.00024783265 0.0061467728 -0.0091621075 -0.071780294 -0.071026035 0.059717223 0.013298282 0.013314059
0.020621527 0.027720945 -0.011520174 0.06299187 0.025092764 0.051148165 -0.06181736 -0.003798098
0.030982636 0.05802965 0.017851545 0.0055655073 -0.0052539264 0.0266577 -0.04496485 -0.052478902
-0.053339142 0.041120667 -0.07257446 -0.027000675 0.108660124 -0.07344903 -0.051864248 -0.097554035
0.046661075 0.0780622 -0.08288834 -0.035298448 0.009155764 0.06552171 0.07631013 -0.035146493
00000000: 9b9e a0bc 325c b93d ee05 c6bd aea6 c53c
00000010: 8c83 8b3c 13f3 d5bd 19e6 cdbc 11f0 413d
00000020: 361e 05be c94b 453c c08f 24bd 97cb 35bd
00000030: 58d9 4f3d ec89 223d c2b4 933c 0dba 033c
00000040: 275f 893e 5ff3 11bd b788 37bd ba12 82be
00000050: 707c 8f3d 1dcb b7bc 7b6e 40bc ef30 d93c
00000060: 2b99 cabc e1d8 e2bc 5548 333d ddcb 06bd
00000070: 2391 21bd 2ef3 91bd 699d 14bc f8f2 cfbc
00000080: 6c46 813d e882 2cbc cf7c 193d b650 463c
00000090: ab87 42bd 89ad 8f3d e79a 973c 3237 b2bd
000000a0: 5af7 a33c 7d77 f2bc a4e0 773d 8438 053e
000000b0: f2f8 b6bd 2dcc adbd 783e 4e3b f4ed 093e
000000c0: 3229 ab3b 0022 cb3d beab 3d3d f211 29bd
000000d0: e3a4 333d 271a 2fbe 0f57 5bbc c82f 22bd
000000e0: bcac c93b c3bd 2abd 7607 c63c a2f2 063d
000000f0: cbba 0e3d 1bd6 a5bc d286 3d3d 8763 ed3c
00000100: 2527 823c f6d5 0ebe 2802 9dbc 558f a3bc
00000110: cbb0 1dbd e24c 59bd 2b99 ecbd 24d6 3d3c
00000120: 37ec 2f3c ee42 8cbc 3cfe f53c af2c 563c
00000130: 484a 4cbc 5793 1cbe 649a 5bbc ee41 bcbb
00000140: 6f6a 4dbd fd5e 15bd 75be ed3c b4ea 043c
00000150: bf06 50bd 2734 a13d 3997 b4bd e113 7d3d
00000160: 8784 29bd f2f4 dc3d 63c4 7b3c 9c77 8c3c
00000170: 3ecb 253d 0827 233d 62cf efbd 8a09 30bd
00000180: 54c9 bdbc 8b3e 6a3d 3106 5c39 5282 b9bc
00000190: b967 423d 2f19 013d cb13 12be 156f 843d
000001a0: 380a e83d 8741 3abe 994d bebd 7fa4 25be
000001b0: 8585 be3d b2bc 19be 07f0 9d3d 797c 99bd
000001c0: 431d 0f3d 3f4b c0bd 73d7 10bc 6025 a8bd
000001d0: 0bd9 1c3e 1b8c e53c f6d5 3fbd 3e3e 223d
000001e0: fdd5 25bd e516 943c b90e cb3d f99f 893d
000001f0: 7118 8bbd 7ade 84bc c9f6 b13d ff2e 3dbe
00000200: 2f32 67bc 005b a33d 541b 343d f94b 0e3d
00000210: f1ae 753d 39b7 9a3c 976f d53d df02 54bc
00000220: faec 823d c5c6 6d3d b8ad 3ebd e05a b6bd
00000230: abf8 45bd cb2b 24bd b37b cc3c 8e42 cf3d
00000240: d1e3 0cbc 0835 fbbc 454f 0cbd 1bd6 5c3c
00000250: 91f2 71bd 02bb 8bbc 3d0a 943c a0c3 49bd
00000260: 0edd 433d d3b9 053d 0b74 873e 5056 fabd
00000270: 0854 de3c c51f 663d 30f7 433d 7b70 603d
00000280: f493 96bc 54bc 9dbd c2b8 1f3d 8800 09bd
00000290: 2045 ee3c d69f 2f3e 7f9d 693c cee2 ebbd
000002a0: 488a a8bb 44fc 30be 92ff 8b3d 5825 c5bb
000002b0: 0f02 fbbc 34e3 16bd 6274 2cbc dfdf 8cbd
000002c0: c22a 00bc 8fba 64bd a006 24bc eaad d93c
000002d0: 53a3 3cbd 7225 13be 1e81 aebc db53 e8bc
000002e0: 9117 d8bd 4174 a03d 9c05 363d e353 1c3e
000002f0: e466 8abd 856f 91bc fe4e 11bd a5b5 4a3d
00000300: 444e 8cbc ff89 a73d 59fd a43d c7bc 39bd
00000310: ea4a 1bbd 5351 a73b 615d 12be f38a a63d
00000320: 0d33 46bb 34d8 083d a9b8 44be d580 4639
00000330: c3a5 f1bd 39c1 88ba 99ae 223e b516 5c3d
00000340: 49b3 aa3d 5b97 d3bd 4813 6cbc c148 703d
00000350: 1d73 84bd e7d4 1bbd b7b0 0fbd 8782 573d
00000360: 89ef 81b9 de6a c93b aa1c 16bc 8c01 93bd
00000370: 1976 91bd 0c9a 743d 0ae1 593c 3623 5a3c
00000380: 7aee a83c 0917 e33c 1dbf 3cbc e201 813d
00000390: 578f cd3c bd80 513d 3334 7dbd 83e9 78bb
000003a0: 4ccf fd3c 80b0 6d3d 673d 923c dc5e b63b
000003b0: 2129 acbb 4061 da3c 102d 38bd 1ef4 56bd
000003c0: 257a 5abd 256e 283d eba1 94bd 8530 ddbc
000003d0: 3389 de3d 726c 96bd 9b6f 54bd 69ca c7bd
000003e0: af1f 3f3d 13df 9f3d 5dc1 a9bd 1b95 10bd
000003f0: 0f02 163c 3f30 863d 7c48 9c3d c5f5 0fbd

linear2.bias f4 [160]
-0.04089321 0.039729506 -0.07653188 -0.019280283 -0.041655477 0.00970859 0.012741688 0.049152732
0.009282729 0.024945429 -0.08953708 -0.018516649 0.042992484 0.015198112 -0.0022175733 0.09444694
0.0341014 0.1074738 -0.013344488 0.0720819 -0.04637929 0.03222755 -0.018167075 0.061401885
0.017212784 -0.038356703 -0.033240817 0.05157399 0.03270844 0.030789996 -0.021684654 0.120259866
-0.04970758 -0.10477551 -0.041959282 0.05114613 0.033092443 -0.015542027 0.08031006 -0.07323834
-0.053229395 -0.03201845 -0.06978558 0.0219454 -0.003899333 0.0772774 0.0038181525 -0.046358854
0.047839176 -0.09654629 0.04065756 -0.059076753 -0.08532184 0.09399097 -0.02096238 -0.094383515
-0.038651034 0.038510956 0.09374026 -0.035106495 0.040183656 -0.0294458 -0.06728193 0.011276769
0.10497463 0.022940265 -0.0381988 0.070311025 0.051737178 -0.09824163 -0.0031512068 -0.05290905
-0.042557035 -0.008292531 -0.09641978 -0.052571382 -0.05765756 -0.059603576 -0.07947982 -0.08077927
0.03381172 -0.06307419 0.02759975 -0.04965263 0.060459062 -0.023995377 0.019752849 -0.02868179
0.008326459 0.020654816 -0.055634536 -0.05181949 -0.06488009 -0.09878968 -0.09714216 -0.030542403
0.01584994 -0.017464442 -0.05399255 -0.00037295662 -0.007049707 -0.020273475 0.14415261 0.12146998
-0.013053889 -0.024858281 0.032480765 -0.022597171 0.0056402385 0.014058887 -0.080970556 -0.05931712
-0.002154776 -0.09600893 0.00554604 -0.009111097 -0.034422174 0.06404309 0.0015508373 0.057595197
0.025944414 0.07532786 0.001712928 -0.08332784 -0.038069364 -0.020655895 0.05043203 -0.13384739
-0.06866285 0.053231798 0.08445795 0.058891736 -0.018087206 -0.07613838 -0.03035198 -0.0328859
-0.027871048 0.007538577 -0.022650182 0.012202015 -0.082414836 0.0051202355 -0.024911257 -0.082430914
-0.016994022 0.043934368 -0.0023105587 -0.037897203 0.03390948 0.016792132 -0.008951888 0.017229402
0.09832004 -0.06473568 0.055600263 0.03598096 0.09930686 0.064895965 0.036414158 0.013332872
00000000: a37f 27bd 68bb 223d bfbc 9cbd aff1 9dbc
00000010: ef9e 2abd c710 1f3c 83c2 503c 6054 493d
00000020: 9616 183c 5b5a cc3c 375f b7bd 3ab0 97bc
00000030: e318 303d 8101 793c b554 11bb 666d c13d
00000040: e9ad 0b3d 391b dc3d d7a2 5abc ad9f 933d
00000050: 36f8 3dbd 0901 043d 1ed3 94bc 8b80 7b3d
00000060: d301 8d3c eb1b 1dbd 8627 08bd 403f 533d
00000070: 49f9 053d 4d3b fc3c 04a4 b1bc ce4a f63d
00000080: 2d9a 4bbd 8b94 d6bd 7fdd 2bbd 9b7e 513d
00000090: f18b 073d fca3 7ebc 9a79 a43d fcfd 95bd
000000a0: 1107 5abd c725 03bd beeb 8ebd d7c6 b33c
000000b0: f48b 7fbb 9d43 9e3d f839 7a3b c8e2 3dbd
000000c0: 03f3 433d 10ba c5bd 8b88 263d 77fa 71bd
000000d0: 38bd aebd 567e c03d 4cb9 abbc 254c c1bd
000000e0: 8c50 1ebd aabd 1d3d e5fa bf3d d4cb 0fbd
000000f0: 9e97 243d 5238 f1bc 1ccb 89bd 33c2 383c
00000100: f0fc d63d 39ed bb3c 5876 1cbd 3aff 8f3d
00000110: 5dea 533d e832 c9bd 7a84 4ebb 29b7 58bd
00000120: 4950 2ebd 65dd 07bc bc77 c5bd 1755 57bd
00000130: 552a 6cbd e122 74bd 51c6 a2bd 9a6f a5bd
00000140: 287e 0a3d 0a2d 81bd df18 e23c 8e60 4bbd
00000150: eca3 773d f491 c4bc bad0 a13c 13f6 eabc
00000160: b36b 083c 4a34 a93c 0ae1 63bd ac40 54bd
00000170: dadf 84bd 3e52 cabd 78f2 c6bd 1034 fabc
00000180: bcd7 813c 9711 8fbc 4b27 5dbd 6489 c3b9
00000190: 3b01 e7bb 8f14 a6bc be9c 133e 41c5 f83d
000001a0: fbdf 55bc 98a3 cbbc 8d0a 053d b41d b9bc
000001b0: c0d1 b83b 3f57 663c e4d3 a5bd 82f6 72bd
000001c0: 2437 0dbb 54a0 c4bd 8ebb b53b b646 15bc
000001d0: 44fe 0cbd 0629 833d 7745 cb3a f1e8 6b3d
000001e0: 6189 d43c 7e45 9a3d 5384 e03a c9a7 aabd
000001f0: 9fee 1bbd 8d36 a9bc d191 4e3d 4a0f 09be
00000200: 1c9f 8cbd 9609 5a3d 4af8 ac3d 7638 713d
00000210: 9f2b 94bc 70ee 9bbd b7a4 f8bc 5eb3 06bd
00000220: d351 e4bc 2b06 f73b e08c b9bc f6ea 473c
00000230: 1cc9 a8bd a6c7 a73b b112 ccbc 8ad1 a8bd
00000240: 0c37 8bbc 86f4 333d be6c 17bb 193a 1bbd
00000250: abe4 0a3d a78f 893c f1aa 12bc ad24 8d3c
00000260: 045c c93d 2494 84bd 1abd 633d c560 133d
00000270: 6561 cb3d 2de8 843d 0327 153d 1e72 5a3c

linear3.weight f4 [80, 160]
-0.19000487 0.10502609 -0.07001331 -0.02723108 0.038821697 0.10517007 0.014104544 0.02764246
-0.016476573 8.903297e-05 0.035371836 -0.061011728 0.15682663 0.09664318 0.01197072 0.1393767
0.009891526 0.036367718 0.08048513 0.023692073 0.027940005 0.07403027 0.09138384 0.020247135
0.14882578 0.05718297 0.06084507 -0.010635213 0.13530491 0.17218848 0.032952983 0.22530878
0.04881375 -0.012844974 0.011282137 0.032017134 0.071111456 0.0053431215 0.16530074 -0.04659654
-0.0864679 0.09951139 -0.09634468 -0.028355747 -0.08281809 0.08844447 -0.0051788557 -0.04163793
0.02574444 0.05700217 0.059309203 -0.050271146 -0.050995287 0.063483104 0.03912333 0.05480116
-0.162001 0.053279825 0.022576556 0.020309327 0.12958263 0.06901871 -0.014086136 -0.1091537
0.09039953 -0.019132977 -0.06881477 0.058550198 0.06870722 0.054588214 -0.039029785 0.06513243
-0.037769236 -0.076872036 0.031905506 -0.059771974 -0.076209486 -0.041454367 0.051183164 0.012420253
0.017133733 -0.013317414 -0.03314261 -0.14191537 0.15537998 -0.0619962 -0.077174954 -0.0719717
0.17490594 0.02595763 -0.078396015 -0.023253933 -0.062541254 -0.13191906 -0.068336025 0.1284669
-0.09776602 0.045557078 -0.050253496 0.1947855 0.08664491 0.017660921 0.12851955 0.18915097
0.07290123 -0.11731455 -0.024010813 0.011953904 0.044225875 -0.07724642 -0.11903375 -0.044549473
0.04983583 0.121128544 0.13177137 -0.042850107 -0.066933975 0.050765365 0.057374552 0.072109826
-0.09702999 0.029558085 -0.015607662 -0.031149393 -0.04132049 0.0399899 0.020546755 0.051210076
-0.031941928 0.16089864 0.08725051 -0.041899484 -0.14870353 -0.008861062 0.0034026974 0.046300173
0.025493696 0.03995705 -0.023905713 0.1433628 0.02152513 0.069098406 -0.08450532 -0.11827784
-0.057354122 -0.052008636 0.0053327056 -0.0042983014 -0.20399117 -0.01846146 -0.052128647 0.060191624
-0.006019085 0.024983186 0.03255146 0.03939203 0.03369401 -0.036129206 -0.072670095 0.12167738
-0.023487784 -0.09975664 -0.08104978 -0.020991923 -0.11630561 0.02573187 0.06771784 -0.009004365
0.060686793 -0.06618546 -0.007067002 0.1431797 0.025520563 -0.068688184 0.046195332 0.050076116
0.020442773 0.072842725 -0.10233434 -0.039174024 -0.027146325 -0.0058912127 -0.29243085 -0.038492072
-0.2441989 -0.028928025 -0.07326673 -0.049999703 0.038078986 -0.01942548 0.024701796 0.0024341065
-0.03040133 0.05076831 -0.01867469 -0.024270557 0.06455143 0.059905205 -0.10448266 0.014049887
0.14843929 0.09228378 -0.010101635 -0.045533583 0.016406404 0.081471704 -0.0065558776 0.036934584
0.11117272 -0.0076354477 0.106415235 0.011835118 0.008152774 -0.18151048 0.034198973 0.10065425
0.069096684 0.076394446 -0.044113487 0.04709472 -0.07661108 0.055727 -0.09473245 0.16039927
0.03742043 0.13518234 0.08096076 0.06653275 0.051797267 -0.057454415 0.06881793 -0.04441959
0.07900114 0.03626939 -0.010278626 -0.018327855 -0.08955546 -0.040554147 -0.028566172 -0.034046497
-0.08094514 -0.11332293 0.12267228 -0.048281416 -0.15099977 0.06539992 0.15852977 0.02751088
-0.04883318 0.019233571 -0.049606733 -0.06832165 -0.03127623 -0.07975044 -0.087012514 0.08698696
00000000: a390 42be eb17 d73d 2363 8fbd b713 dfbc
00000010: 8003 1f3d 6863 d73d bf16 673c 7172 e23c
00000020: e1f9 86bc 36b7 ba38 0fe2 103d 6fe7 79bd
00000030: 2997 203e dcec c53d d720 443c c4b8 0e3e
00000040: 1110 223c 51f6 143d 63d5 a43d e115 c23c
00000050: 70e2 e43c 2f9d 973d 7327 bb3d 52dd a53c
00000060: c965 183e b138 6a3d ae38 793d 513f 2ebc
00000070: 5f8d 0a3e 2d52 303e b5f9 063d 58b7 663e
00000080: edf0 473d ba73 52bc b6d8 383c 6624 033d
00000090: e2a2 913d 5a15 af3b 9944 293e 03dc 3ebd
000000a0: 1516 b1bd a1cc cb3d 5c50 c5bd 504a e8bc
000000b0: 889c a9bd 6022 b53d 64b3 a9bb 898c 2abd
000000c0: 01e6 d23c 1b7b 693d 35ee 723d 1ee9 4dbd
000000d0: 6fe0 50bd 6e03 823d c93f 203d 2e77 603d
000000e0: 97e3 25be f23b 5a3d 78f2 b83c bf5f a63c
000000f0: 4fb1 043e ae59 8d3d 89c9 66bc fa8b dfbd
00000100: 6423 b93d c3bc 9cbc c2ee 8cbd 55d2 6f3d
00000110: 5fb6 8c3d e497 5f3d b2dd 1fbd 2764 853d
00000120: eab3 1abd 166f 9dbd 59af 023d 75d3 74bd
00000130: b813 9cbd 0ecc 29bd 70a5 513d 517e 4b3c
00000140: 0b5c 8c3c 4831 5abc 8cc0 07bd 4352 11be
00000150: ee1b 1f3e baef 7dbd e70d 9ebd e665 93bd
00000160: 8b1a 333e 18a5 d43c 178e a0bd 087f bebc
00000170: a115 80bd ca15 07be c2f3 8bbd d48c 033e
00000180: 8d39 c8bd 0f9a 3a3d 9cd6 4dbd da75 473e
00000190: e372 b13d a3ad 903c a19a 033e cbb0 413e
000001a0: 3d4d 953d 9c42 f0bd 53b2 c4bc 4fda 433c
000001b0: 3126 353d 5f33 9ebd f7c7 f3bd 8279 36bd
000001c0: a820 4c3d 3e12 f83d 13ef 063e 9883 2fbd
000001d0: ae14 89bd 58ef 4f3d 9401 6b3d 51ae 933d
000001e0: a9b7 c6bd cc23 f23c 47b7 7fbc 032d ffbc
000001f0: ad3f 29bd 73cc 233d ab51 a83c a8c1 513d
00000200: 8ad5 02bd 9dc2 243e 65b0 b23d cb9e 2bbd
00000210: bd45 18be fd2d 11bc caff 5e3b 40a5 3d3d
00000220: 28d8 d03c 01aa 233d ead5 c3bc b3cd 123e
00000230: 7855 b03c 7783 8d3d 2011 adbd a73b f2bd
00000240: 28ec 6abd 0207 55bd fabd ae3b c4d8 8cbb
00000250: 10e3 50be 7d3c 97bc d984 55bd 7e8b 763d
00000260: bf3b c5bb 8aa9 cc3c ae54 053d 8a59 213d
00000270: bb02 0a3d 38fc 13bd 0fd4 94bd fd31 f93d
00000280: 7469 c0bc 364d ccbd 6dfd a5bd 41f7 abbc
00000290: a331 eebd a5cb d23c a7af 8a3d 0b87 13bc
000002a0: b792 783d 3e8c 87bd 4f92 e7bb b39d 123e
000002b0: 8010 d13c 64ac 8cbd 5137 3d3d 9d1c 4d3d
000002c0: 9a77 a73c 912e 953d ab94 d1bd f174 20bd
000002d0: f861 debc 130b c1bb 7fb9 95be dda9 1dbd
000002e0: 470f 7abe 77fa ecbc de0c 96bd 7dcc 4cbd
000002f0: b6f8 1b3d 2f22 9fbc 6c5b ca3c 8885 1f3b
00000300: 360c f9bc 6ef2 4f3d aafb 98bc 0cd3 c6bc
00000310: 8a33 843d 295f 753d 01fb d5bd 7f31 663c
00000320: 7800 183e 47ff bc3d 5481 25bc 6c81 3abd
00000330: b966 863c a3da a63d b0d2 d6bb b848 173d
00000340: 86ae e33d c732 fabb 3bf0 d93d 15e8 413c
00000350: 3693 053c e2dd 39be 3914 0c3d d123 ce3d
00000360: 9082 8d3d b174 9c3d 58b0 34bd 65e6 403d
00000370: 45e6 9cbd ff41 643d 1603 c2bd b53f 243e
00000380: 2a46 193d 3d6d 0a3e c1ce a53d 5342 883d
00000390: 5f29 543d 5255 6bbd 6af0 8c3d 51f1 35bd
000003a0: 5acb a13d 368f 143d af67 28bc 4c24 96bc
000003b0: da68 b7bd 1b1c 26bd 9b03 eabc 5774 0bbd
000003c0: 91c6 a5bd da15 e8bd 9b3b fb3d bcc2 45bd
000003d0: af9f 1abe 65f0 853d a155 223e 7f5e e13c
000003e0: 4d05 48bd b98f 9d3c 6e30 4bbd 39ec 8bbd
000003f0: 811b 00bd 3354 a3bd 9e33 b2bd 3826 b23d

linear3.bias f4 [80]
0.091723 0.034175158 -0.066621184 0.08004772 0.032627575 -0.055812825 0.049405932 -0.09592874
0.044664823 0.053818334 0.072211966 -0.019172484 0.119512916 0.061219804 0.028496271 0.09564031
-0.03728048 -0.08065169 -0.013348681 0.05950916 0.054039743 -0.059092503 -0.08947983 0.026938552
0.03104726 0.06533311 -0.10034505 0.07560334 0.014417877 0.12759739 -0.05095625 -0.111987464
0.03919675 0.12848419 -0.03231793 0.026817322 -0.065639615 -0.015402395 -0.021063786 -0.012162286
-0.041371144 0.066239096 0.0076041 -0.024399592 0.040597767 0.00537913 0.10207115 -0.07830689
-0.033687506 -0.06297376 -0.055879395 0.13170291 0.015715787 0.03801482 -0.13432617 0.013292589
0.08140207 -0.051084112 0.034601346 -0.055083495 -0.0021019827 -0.0774473 -0.0025568132 0.03650991
-0.026040368 0.09784673 -0.120985046 0.01967462 0.13712722 -0.09580681 -0.02980942 -0.06269467
0.11714393 -0.03574202 0.02262376 0.04775928 -0.10908391 0.04658734 -0.10696715 0.117947586
00000000: 45d9 bb3d 40fb 0b3d b070 88bd 0ff0 a33d
00000010: 7ea4 053d fd9b 64bd e05d 4a3d 4a76 c4bd
00000020: 76f2 363d 9d70 5c3d dee3 933d 9d0f 9dbc
00000030: 30c3 f43d 9ec1 7a3d 0371 e93c 11df c33d
00000040: 6bb3 18bd b72c a5bd 6db4 5abc e1bf 733d
00000050: c758 5d3d fb0a 72bd 3341 b7bd 3dae dc3c
00000060: d356 fe3c 5ecd 853d b581 cdbd edd5 9a3d
00000070: f638 6c3c e4a8 023e 80b7 50bd af59 e5bd
00000080: c58c 203d 5c91 033e ce5f 04bd 00b0 db3c
00000090: 106e 86bd 545a 7cbc f68d acbc 5344 47bc
000000a0: ca74 29bd 5da8 873d d02b f93b a7e1 c7bc
000000b0: d849 263d 6a43 b03b ae0a d13d 5d5f a0bd
000000c0: e9fb 09bd 63f8 80bd cbe1 64bd 21dd 063e
000000d0: 65be 803c 6eb5 1b3d cd8c 09be 29c9 593c
000000e0: 21b6 a63d 933d 51bd 24ba 0d3d 3b9f 61bd
000000f0: 6bc1 09bb b19c 9ebd 3590 27bb 6a8b 153d
00000100: 9c52 d5bc de63 c83d 02c7 f7bd ab2c a13c
00000110: 146b 0c3e 5c36 c4bd e332 f4bc 1066 80bd
00000120: 28e9 ef3d 3966 12bd 7755 b93c 3c9f 433d
00000130: 6367 dfbd 5ed2 3e3d 9811 dbbd 818e f13d
